models/cnn-classifier.pth (torch, 212763 bytes, 10 tensors)

input_to_hidden.weight f4 [32, 1, 3, 3]
000000 11 05 32 bd 63 d9 4b be 6b e1 a6 3e be 0d 95 be
       -0.043461863 -0.19907145 0.32593855 -0.29112047
000010 20 ec 63 be d5 0e d9 3e bb c2 b4 be 2b df 30 bd
       -0.22258043 0.42394128 -0.35304818 -0.04318158
000020 4b 4b c7 3e 8a aa 84 3e 2d 72 84 be 61 ad 2e 3e
       0.3892463 0.2591136 -0.2586836 0.17058326
000030 40 d5 99 be 5c 68 04 be fa 1c f3 3e fe f2 b9 be
       -0.3004551 -0.12930435 0.47483045 -0.363182
000040 f1 3b 8f 3e 30 22 8a 3e 1e f5 cc 3e 81 be ca 3e
       0.2797542 0.26979208 0.4003076 0.39598468
000050 bb 3d 66 3e 49 88 a6 3e 52 36 5c 3e c5 f0 70 3e
       0.22484486 0.32525852 0.21505097 0.23529346
000060 ff d1 bb 3e 63 30 b3 bd 97 ba c3 3e 5d 92 21 be
       0.36683652 -0.087494634 0.38228294 -0.1577849
000070 e4 5d da 3e 36 47 57 3e 08 5b c1 3e cd 60 be 3d
       0.42649758 0.21023259 0.37764764 0.09295807
000080 b5 8b 9a bd f4 88 ab 3e de 29 8d be 4c c7 87 be
       -0.07546178 0.33502924 -0.27571005 -0.2651924
000090 0a ed 03 be 73 9e ec bd 7c 7e 77 3e 9b d2 59 3e
       -0.12883392 -0.11553659 0.24169344 0.21271746
0000a0 87 b2 ec bd 4d bf 69 3e ac 89 b8 3e a0 20 8b 3e
       -0.11557489 0.22826882 0.36042535 0.27173328
0000b0 6e 36 96 be c8 ef 9c 3e 3f 91 a2 be 49 0c 67 be
       -0.29338402 0.3065169 -0.3175144 -0.2256328
0000c0 e9 63 ad be e0 73 d6 be d8 55 9e be 16 99 15 bf
       -0.33865288 -0.4188528 -0.3092487 -0.58436716
0000d0 3b 38 68 bd 8e 4a e8 3e 10 c5 de be 79 c9 a8 bd
       -0.05669425 0.4536938 -0.43509722 -0.08241553
0000e0 4f 87 df 3e 69 d1 1a 3e 76 ab eb 3c ec 11 0a 3e
       0.4365792 0.15118946 0.028768282 0.13483399
0000f0 3d a9 83 3e 2a 66 d0 3e b6 97 39 3c 2c 77 ee 3e
       0.25715056 0.40702945 0.011327675 0.46575296
000100 86 72 d3 3e 02 26 a4 3e 8a 7b 4e 3d 38 bd bd bd
       0.41298312 0.32060248 0.050410785 -0.09264606
000110 91 ef e8 bd 08 45 a3 3e f5 e2 b7 3e e3 62 bf 3e
       -0.11373819 0.31888604 0.35915342 0.37380132
000120 c8 24 ea be 7e fc a7 be 53 e7 f8 3e d9 86 c6 be
       -0.45731187 -0.32809824 0.48613986 -0.38774756
000130 68 44 95 3e 17 98 14 3e 98 59 a9 3d 0e e7 e9 3e
       0.29153752 0.14511143 0.08269042 0.45684093
000140 93 75 b4 3e 61 36 34 be e2 e8 f1 3c f7 90 b0 3d
       0.35245952 -0.17598869 0.029529992 0.086214
000150 17 1c a1 3d c3 47 8d 3d 54 9c af 3e 72 bf c8 3e
       0.07866686 0.06898453 0.34298956 0.3920856
000160 cc 58 52 be 80 da 78 bd 76 94 e0 3e 42 d8 89 be
       -0.20541686 -0.060755253 0.43863267 -0.26922804
000170 61 a8 7a 3e 6b 5d 99 3e af 5f 8d be 2b 31 f9 be
       0.24478294 0.29954085 -0.27612063 -0.48670325
000180 41 f4 a0 3e 8e fa ba bd ad 29 29 be 3d 09 99 bd
       0.3143635 -0.09129821 -0.16519804 -0.07472465
000190 3b 58 84 3e 42 5b cd 3e 41 c7 41 3e 1c 54 9b be
       0.25848565 0.40108687 0.18923666 -0.30337608
0001a0 c3 7d 01 be 10 fd 05 bd 0c 64 7a be 3b 9a d2 bd
       -0.1264563 -0.032712042 -0.24452227 -0.102833234
0001b0 ba c8 5d 3e c0 99 e4 3e a2 40 1f 3e 96 dd 2f bd
       0.21658602 0.44648552 0.15551999 -0.04293593
0001c0 b6 77 f2 3e 78 67 81 3e 68 ff e6 be 7e 2e 83 3e
       0.47356957 0.25274253 -0.45116735 0.25621408
0001d0 fa 36 89 3e 39 57 94 be 4d 92 8d be 1d 99 c4 bd
       0.26799756 -0.28972796 -0.2765068 -0.095995165
0001e0 59 0e 47 be 26 f4 0f be 05 0a f6 3e 12 94 97 3e
       -0.19439067 -0.14057979 0.4805452 0.29605156
0001f0 58 66 2d 3e b6 2f f6 3e dc 2b 95 be 1e 04 93 be
       0.16933572 0.48083276 -0.29135025 -0.2871408
000200 5b be 0d be 43 38 4a 3e bb c7 1c be 00 9d 85 3c
       -0.13842146 0.19748025 -0.15310566 0.016310215
000210 f4 b6 a1 be 48 82 5a be 1e 09 4f be 5e 94 ac be
       -0.31584895 -0.21338761 -0.20218322 -0.33706945
000220 8f 17 45 be ae 28 e2 be 96 00 07 3e 47 f1 ed bd
       -0.19247268 -0.4417166 0.13183817 -0.116182856
000230 4d ae 48 3e 12 3e f8 3e ce 10 1a 3e fb 01 e8 3e
       0.1959774 0.48484856 0.15045473 0.4531401
000240 04 71 b2 3e 2e c7 09 be 62 99 30 be c9 06 03 3f
       0.3485185 -0.13454887 -0.17246011 0.5118223
000250 d3 6b 90 be b1 ba b6 be 4b b2 e4 3e 52 c0 26 3d
       -0.28207263 -0.3568931 0.44667277 0.040710755
000260 f4 a4 b8 be e7 f2 89 3e 23 da 10 be 43 09 96 3e
       -0.3606335 0.26943132 -0.14145713 0.2930394
000270 fe ef 34 3e ed 3a dc 3e 24 cf 97 3e 3a 77 bb 3e
       0.17669675 0.43013707 0.29650223 0.366144
000280 44 2a 9c 3e 3d 1a 8c 3c 1f a7 a2 3d ec 4f 36 be
       0.30500996 0.017102355 0.07942032 -0.17803925
000290 a0 f2 8b 3e 61 fd e0 3e 4f fd 6f 3e b3 8b 29 3e
       0.27333546 0.43943313 0.23436473 0.16557197
0002a0 a8 c3 ca bd 2d fd ad be fa 16 b3 be 52 6f 0b 3e
       -0.099006 -0.3398222 -0.34978467 0.13616684
0002b0 ca d5 a7 3d af a7 f8 3e 1d 6b b0 3e 3b 77 d2 bd
       0.08195074 0.48565432 0.3445672 -0.10276648
0002c0 c3 58 92 3e 77 da ae be c9 e3 a4 3e 7d 5e fe bd
       0.28583345 -0.3415105 0.32205036 -0.12420366
0002d0 c3 c7 0a 3e 5b 31 22 3f 1d d3 b8 3d 7d 63 61 be
       0.13552766 0.6335656 0.09024642 -0.22010608
0002e0 95 0a 43 be 97 fd 8d bc c2 34 76 be 65 61 b1 be
       -0.19047005 -0.017332835 -0.24043563 -0.3464462
0002f0 61 04 08 bf 17 76 f9 3e eb 6a 82 3d d8 a4 63 3e
       -0.5313168 0.48722908 0.06368049 0.22230852
000300 42 09 a1 be 72 8d c2 3e c6 99 78 3c cb df 72 be
       -0.31452376 0.3799854 0.015173381 -0.23718183
000310 bd ba 9d be a1 0d 8e 3e d5 d5 03 3f ba 4a ed 3e
       -0.30806533 0.27744773 0.51498157 0.46346074
000320 68 64 c4 bc 02 3b 92 be a3 3d ee 3d d8 7c 98 be
       -0.023973659 -0.28560644 0.1163285 -0.29782748
000330 7e 67 83 be 08 44 18 bf ae c1 3b 3d bc 65 6f 3e
       -0.25664896 -0.5947881 0.045839004 0.23378652
000340 36 73 33 3e 38 45 93 3e d6 b7 fa 3e 04 a4 bf 3e
       0.17524418 0.28763747 0.4896838 0.37429821
000350 95 e0 36 3e 3a 1d 31 be 17 62 02 3d d3 de 46 3e
       0.17859109 -0.17296305 0.031831827 0.19420938
000360 10 6c 5e be fb 1c dd bd f0 d2 ab be 61 fd a9 3e
       -0.2172091 -0.10796543 -0.3355937 0.33201125
000370 cc 9a db bd 0e 76 ad 3e f6 df f6 3d db 41 1b be
       -0.107228845 0.3387913 0.12054436 -0.1516184
000380 e6 2c f2 3e 8f d7 c0 3e 70 90 8b be 51 ef 0e bf
       0.4729988 0.37664458 -0.27258635 -0.5583392
000390 24 33 39 be 5c b0 d4 be 6b d3 96 be 6e d9 04 bf
       -0.18085915 -0.41540802 -0.29458174 -0.5189427
0003a0 83 e4 de be 80 a5 36 3e ee 1a 25 3e f8 77 fa 3e
       -0.43533716 0.1783657 0.16123554 0.48919654
0003b0 7c fa 05 3f 59 49 6d 3c b7 97 f7 3e d8 40 5d 3e
       0.52335334 0.0144828195 0.48357937 0.21606767
0003c0 25 5d 28 3e 46 b7 d0 3e 2f 22 99 bc 96 59 d4 bd
       0.16441782 0.40764827 -0.018693058 -0.1036865
0003d0 44 5c 03 3f 41 3e ec bd 8b cf 7f 3d da 4c b5 bc
       0.5131266 -0.115353115 0.062453788 -0.022131372
0003e0 94 5b e5 3e f1 5c e3 be 37 f6 c1 3d 07 70 34 3e
       0.4479643 -0.44406846 0.0947079 0.1762086
0003f0 6f 9c fe 3d 68 58 83 3e ed ee 66 3d 1e ae 24 be
       0.12432181 0.25653386 0.0563802 -0.16082045

input_to_hidden.bias f4 [32]
000000 7c 9c 6c bd ba 07 91 b9 9f d3 4d ba d9 01 26 3b
       -0.057766423 -0.00027662312 -0.00078516634 0.002533069
000010 c1 98 b1 3d ce 96 6c 3e 91 01 c9 b9 d3 9b f2 3d
       0.086717136 0.23104402 -0.00038338875 0.11846127
000020 b0 df ed 3d 0d bb 58 be 6f f3 bc 3e b5 cf 12 bc
       0.11614931 -0.21165104 0.36904475 -0.008960654
000030 d9 eb e2 b9 32 e4 3a be 8e 06 71 be 74 12 5c 3c
       -0.000432818 -0.18251112 -0.23537657 0.013432134
000040 31 50 d4 bc bd d5 53 3e 3c 62 76 3d 1a f7 04 3e
       -0.025917144 0.20687003 0.060152277 0.12984887
000050 9c cd c6 3c 3d 0f ac b9 b4 91 0d 3d 6e 7a 09 be
       0.024267964 -0.0003281775 0.03456278 -0.1342561
000060 3a f9 18 ba 86 aa c2 3e cb d8 4f be b5 ab 34 3e
       -0.00058354775 0.38020724 -0.20297544 0.17643626
000070 e4 cd 98 3e 6b 54 68 bd 96 b1 b9 b9 c6 e9 7f 3e
       0.29844582 -0.056721132 -0.00035418262 0.24991521

cnn1.weight f4 [64, 32, 3, 3]
000000 01 52 8e 3c 6f fc cf bd 68 70 89 3c 86 d5 b8 bd
       0.017373087 -0.1015557 0.016777232 -0.09025101
000010 b1 61 2b bd 79 fc a6 bc c0 61 fc bd a0 fa 9c bd
       -0.041841213 -0.02038406 -0.12323332 -0.076649904
000020 c7 03 ea bd 3d d9 73 bd 34 25 74 3d f9 e4 5d 3d
       -0.11426502 -0.059533346 0.059605792 0.054173443
000030 77 a4 30 3d b1 5f 3f bd 10 4d a1 3d e7 15 a6 bb
       0.043125596 -0.046722118 0.07876027 -0.005068529
000040 40 98 31 3c 18 3b 86 bd e9 20 08 bd 2d aa fe ba
       0.010839522 -0.0655424 -0.03323451 -0.0019429378
000050 1e f8 dd 3b c7 a8 39 bd 4c 09 33 ba 36 fa e1 bc
       0.0067739626 -0.045326974 -0.00068296934 -0.02758513
000060 19 0d be 3d 78 7f 70 3d 1e 46 0a bc 10 84 32 bd
       0.09279842 0.058715314 -0.008439569 -0.043582976
000070 0d bc 0e 3d e0 e7 88 bd 64 72 24 3d b2 67 c0 3b
       0.034847308 -0.06684852 0.040148154 0.0058717364
000080 31 f7 d5 bb ff b0 93 3d f9 54 f5 3c 4b 95 05 3e
       -0.0065297117 0.07211494 0.029947745 0.13045232
000090 95 83 da bc 4d de 10 bc 99 1a e6 bc 55 27 98 bb
       -0.026674071 -0.008842063 -0.028088855 -0.0046433606
0000a0 39 e0 95 3d c3 22 e5 bc 20 61 a8 3d ca 28 7d 3d
       0.07318158 -0.027970677 0.0822165 0.061806478
0000b0 c6 90 dd 3c 90 8b d0 3b 34 55 6f 3c c1 81 26 3d
       0.027046572 0.0063642934 0.014607716 0.040651087
0000c0 b5 49 e8 3c e5 b7 94 b9 2a 83 33 3d e6 bd c8 bd
       0.028355459 -0.00028365772 0.04382626 -0.09801845
0000d0 5e 87 00 bd 9f 6e 24 bd 2c 37 f1 bc a0 08 30 bc
       -0.031379096 -0.04014456 -0.029445253 -0.010744244
0000e0 17 2e 64 3d f1 ca 8f 3b bf f2 73 3d c2 17 c8 3d
       0.055708017 0.004388206 0.059557673 0.097701564
0000f0 f1 9a 2b 3d fd 66 af 3d 19 c8 cb 3c ab 81 cc bb
       0.04189581 0.08564565 0.024875687 -0.0062410436
000100 b4 ec 22 3d ad 91 f6 bc e8 3c 5f 3d 49 2a 55 3c
       0.03977652 -0.03009876 0.054501444 0.01301057
000110 f6 3d f6 3c cc a6 69 3d fb 2f 45 3d 61 50 24 bd
       0.030058842 0.057043836 0.04814146 -0.040115718
000120 27 f4 14 3d 85 96 b3 3c 76 ec 6a bc d9 db 9e 3d
       0.036365654 0.02192236 -0.014338603 0.07756776
000130 c6 e7 ca 3d 39 88 b0 3d c0 bf 58 3c a5 b3 37 3b
       0.099074885 0.086197324 0.0132293105 0.002803066
000140 78 05 b9 39 30 fa df 3d 84 56 04 3e 09 01 a2 3d
       0.00035290024 0.10936391 0.12923628 0.07910354
000150 f7 14 81 3d 15 51 f7 3d b6 69 6c 3e 67 26 58 3d
       0.06302827 0.12076012 0.230872 0.052771
000160 7c 2a ea 3d 1f 62 80 3d 02 49 85 bd 4a 04 c4 bc
       0.114338845 0.06268715 -0.06508066 -0.023927826
000170 9e 1f d3 bc dd 5d 53 3d 76 f0 35 bb 58 c3 a2 bd
       -0.025771912 0.051603187 -0.0027761734 -0.07947415
000180 2c af 4c bd 35 ce 83 bd 56 ba 4c 3c c9 a6 e5 3d
       -0.049971744 -0.06435815 0.012495598 0.11213452
000190 8f 61 65 bd 12 2a 9d bd 24 77 17 3e ee b8 21 3d
       -0.056001242 -0.0767404 0.14791542 0.039483003
0001a0 34 53 f7 3c 2b 61 89 bd c6 ff 21 bd 13 3f 2e 3d
       0.030191042 -0.067079864 -0.039550565 0.04254062
0001b0 a6 90 46 3d d4 18 a9 3a f1 f1 f6 3b aa 19 9b bc
       0.04847779 0.0012901076 0.007536166 -0.018933136
0001c0 97 17 95 bd 74 1f 01 3d fc 46 11 3d b7 17 23 bd
       -0.0727989 0.031524137 0.035468087 -0.039817538
0001d0 e7 f6 a6 bd 28 03 16 bc 07 02 ab 3c 7b 6f 36 3d
       -0.08152562 -0.009156026 0.02087499 0.04453991
0001e0 23 d6 e4 3d 75 d4 0a 3e b7 4a 02 3e de 0c 9f 3d
       0.11173656 0.13557608 0.12723814 0.07766126
0001f0 96 52 04 3e 0e 6a eb 3d c4 fe 44 bd e2 62 0d bd
       0.12922129 0.11494838 -0.048094526 -0.03451813
000200 43 4f 69 3d 0b fd 69 3d 0b 9d 01 bc 2c 04 93 bc
       0.056960355 0.057126086 -0.007910977 -0.017946325
000210 7c 45 e3 3c 52 71 0f 3d bb 35 30 bd 43 bd b7 3d
       0.027743094 0.03502018 -0.04301999 0.08971646
000220 54 28 47 3d 8e 05 aa 3d 14 fc 1f 3e ba 67 d8 3d
       0.048622444 0.08301841 0.15623504 0.10566659
000230 39 54 30 3d 8a 2c ac 3d 8a f8 ca 3a 0f 4b 09 bd
       0.04304907 0.08406933 0.0015485447 -0.033518847
000240 3c ee ec bd e9 7a a9 bd 01 5a 83 bd d1 cd 98 3d
       -0.11568877 -0.082753964 -0.06413651 0.07461131
000250 5f cc 38 be 98 0d 3c be 43 5e 06 3d cd 96 c4 bc
       -0.18046711 -0.1836456 0.03280474 -0.023997689
000260 71 d6 06 bd 5c 17 0d bd a6 bd 0b bd 24 6b 4f bd
       -0.03291935 -0.034446105 -0.03411641 -0.050639287
000270 dc 3f 9e bb 0c 11 2c 3d d2 1f c6 3b 2e 50 94 3d
       -0.00482939 0.042008445 0.0060462737 0.072418556
000280 21 86 38 3d f7 8b f8 3a 62 46 be 3d 9d 1e 2a 3d
       0.04504979 0.0018962611 0.09290768 0.0415331
000290 8f f9 94 bc 25 06 c7 3d 31 a1 80 3d d4 72 f3 3c
       -0.018185405 0.09717969 0.06280745 0.02971784
0002a0 61 90 75 bc c4 eb d1 3c 2e 27 cf 3d 0f 93 1e bd
       -0.014988036 0.025625117 0.10114895 -0.038714465
0002b0 80 73 e1 3c 18 7e 2a bc 13 fa 20 3d f8 89 25 bb
       0.027520895 -0.01040604 0.03930099 -0.0025259238
0002c0 50 42 57 3d 3f 83 9a 3b 97 f9 07 3d 7e 66 26 3c
       0.052553475 0.004715353 0.03319701 0.010156272
0002d0 8f 0d be 3d 41 69 17 3d a6 37 b2 3a 77 79 00 3e
       0.0927993 0.036965612 0.0013596907 0.12546335
0002e0 1b 4c 29 3e 52 4e b5 3d 4d 42 09 3c a8 2a 05 3e
       0.16532938 0.08852829 0.008377624 0.13004553
0002f0 7e e2 9b 3d a4 2d 36 3d 28 b8 d6 3d d1 19 a8 bc
       0.07611559 0.04447712 0.10484344 -0.020520123
000300 4a 40 1c bd 91 e3 01 3c 78 e9 45 bd 8f 39 77 bd
       -0.03814725 0.007927791 -0.048318356 -0.060357627
000310 df a2 ae bd 6b ea 6d bd 24 83 55 bd 31 f5 a4 3d
       -0.08527159 -0.058084887 -0.05212702 0.08054579
000320 05 05 75 3d fc 43 9c 3d b9 33 15 3e 2a 20 0e bd
       0.05981924 0.076301545 0.14570512 -0.034698643
000330 c3 a2 ae bd 72 66 5a 3c da c2 80 3d f7 47 62 bc
       -0.08527138 0.013330089 0.06287165 -0.013811103
000340 cd 60 91 bd 71 a5 44 3c 0c 18 92 bd df 86 6f bc
       -0.070985414 0.012002335 -0.07133493 -0.014619558
000350 b5 fb 0d 3c 0f b3 d2 3d b5 49 ee bc 1a 41 35 b9
       0.008665969 0.10288059 -0.02908788 -0.00017285757
000360 71 f9 46 3d 10 88 04 bd dc e8 3c 3d 82 5a 2d 3d
       0.04857773 -0.03235632 0.04612051 0.042322643
000370 c0 97 86 3d f4 ad e7 3d ec 19 16 3d c0 d5 c1 3c
       0.06571913 0.11312476 0.036645815 0.023661494
000380 19 3e 70 3d da 95 9e bc 0b aa 56 3c 37 3a 43 3d
       0.05865297 -0.019358564 0.013102065 0.04766294
000390 1f 48 6d bd b3 dd d6 3c 6d 2d d0 3b 95 1a 40 bc
       -0.05793011 0.026228761 0.0063530714 -0.011725088
0003a0 7b 43 15 bd fc 29 cd bc 31 97 eb 3b ad 70 43 bd
       -0.036441308 -0.025044434 0.0071896543 -0.047714878
0003b0 6f 87 36 3d 98 9a 8a bd 4b 45 4f 3d 23 88 db 3c
       0.044562753 -0.06767768 0.050603192 0.026798313
0003c0 6b 4b 12 3d 3a ee 89 3d 53 9b 80 3d a4 3e 9d bc
       0.035716455 0.06734891 0.06279626 -0.019194908
0003d0 1f b2 1b 3d ce fe 94 bd ed cf e0 3c f0 e3 1f bd
       0.038011666 -0.07275163 0.027442897 -0.039035738
0003e0 04 b5 73 bd e3 9e 22 bd 61 b7 b7 bd 2e fa 92 bd
       -0.0594988 -0.039702307 -0.089705236 -0.07176624
0003f0 33 f1 83 3c 94 06 40 bb 78 9f 72 3d 0b 36 8a 3c
       0.016106224 -0.0029300796 0.059234113 0.016871473

cnn1.bias f4 [64]
000000 4a 70 80 bd 51 cf 05 bd 9b 99 75 3c d2 6d dc 3b
       -0.062714174 -0.032668415 0.014990236 0.006726959
000010 37 f7 10 3d c3 fc 57 bd e9 f8 67 3d 4d 10 ef 3b
       0.035392012 -0.052731287 0.056633864 0.0072956444
000020 a0 3d 00 bd a4 e4 95 3c bb 78 66 3c 45 70 c2 ba
       -0.03130877 0.0182975 0.01406687 -0.0014834484
000030 17 9b 2d bd d4 45 5e 3c 25 cb 3e 3d ec b3 14 3d
       -0.042384233 0.013566453 0.046580452 0.0363044
000040 42 9b 2a bd 12 e1 8a bd 46 fd 10 3d fa 58 4a 3c
       -0.04165197 -0.0678121 0.03539779 0.012350315
000050 a4 67 7b 3d 54 90 82 bd 99 2b 0b bc c4 4e 2a bd
       0.061378136 -0.06375185 -0.008494281 -0.041579023
000060 64 82 7d 3c 66 4a bf bc 64 5a 89 bc 2a 76 2f bd
       0.015472982 -0.023350906 -0.016766734 -0.0428373
000070 9e 77 22 3d 26 fe bc 3d 88 2e 49 3d 84 7e 5c bd
       0.039664857 0.092281625 0.04911664 -0.053831592
000080 5c 8e b9 bc 0a 08 99 bd 7c 71 87 bd a5 19 b0 bc
       -0.02265089 -0.074722365 -0.06613442 -0.021496603
000090 a4 20 c3 3c d9 d7 4f 3d 0d 71 8a bd b3 0b 91 bc
       0.023819275 0.050742958 -0.06759844 -0.017705774
0000a0 03 19 3d bd bb 38 85 3a a3 5e db bb db a4 ef bb
       -0.04616643 0.0010164002 -0.006694631 -0.0073133535
0000b0 ba ac d6 3d 57 22 42 bd a0 02 b6 bc 91 1d ba bd
       0.10482164 -0.04739603 -0.022218049 -0.090876706
0000c0 05 24 97 3c 98 bf fb 3b b4 08 0d bd 5a f7 c6 bc
       0.018449793 0.007682752 -0.034432128 -0.024287868
0000d0 58 e9 34 bc c7 83 5a 3d 81 18 5f bd 38 1a bc bd
       -0.011041962 0.05334833 -0.054466728 -0.09184688
0000e0 20 4b e1 bc b4 60 bc 3c 26 2d 6d bd f4 c6 3a 3d
       -0.027501643 0.02299533 -0.057904385 0.045599893
0000f0 66 ac 3d 3d 13 88 0a 3d f8 36 a6 3c 9f a5 98 3d
       0.04630699 0.033821177 0.020289883 0.07453465

fc1.weight f4 [32, 1024]
000000 00 fd 12 bd 6a 87 28 bb dc 8f 48 bc 97 d6 1c bb
       -0.03588581 -0.0025715479 -0.01224133 -0.0023931616
000010 ee f2 a4 3c f8 fb 70 bd 3f 1f 9b bd 97 57 82 bc
       0.02013537 -0.058834046 -0.07574319 -0.015910907
000020 a1 66 15 3d d4 93 2c bc ce 0a b3 bc 2d f7 03 bd
       0.036474828 -0.010533292 -0.021855738 -0.032218147
000030 e5 66 13 3d 7a 93 04 3d de b4 44 bd 2d 6f 4a bd
       0.0359868 0.032367207 -0.04802405 -0.04942243
000040 8a 13 4a 3d 2e 19 0d 3d f0 34 91 3c 2b 0f 2b bc
       0.04933504 0.03444784 0.017725438 -0.010440628
000050 f8 82 ab bc 47 30 e7 bc a2 7e 2f bc 35 aa 1d bd
       -0.020936474 -0.028221263 -0.010711344 -0.0384924
000060 fc d4 de bc 07 6e 80 3d ea 9a 57 3d 6f 8c be bc
       -0.027201168 0.06270986 0.052637972 -0.023260323
000070 21 d6 51 bc 3d ce 57 3d 06 5d 9e bd 51 b6 4f 3b
       -0.0128074 0.05268692 -0.077325866 0.0031694362
000080 bb ac 14 bd 1c 84 13 3d df 92 a6 3c 3b f6 1b bb
       -0.03629754 0.03601466 0.020333705 -0.0023797888
000090 b0 42 72 bd ee 52 c0 bb c8 e2 81 3c fa e0 08 bd
       -0.05914563 -0.005869261 0.015855208 -0.03341768
0000a0 c9 3e 66 3c 24 fb c2 ba af fb e9 bc 9e 8a 51 3d
       0.014053055 -0.0014875871 -0.028562395 0.051157586
0000b0 01 ef 14 3c 28 88 37 3d 63 04 23 ba f5 8d 86 3b
       0.009090186 0.044807583 -0.000621861 0.004106278
0000c0 a7 2a a5 bc 6c 7b 72 3d fa 38 08 bd f4 c4 02 3d
       -0.02016194 0.059199736 -0.033257462 0.03192611
0000d0 a8 1a 31 3d 2b 2b 08 3d c1 36 b3 3a d3 c0 0a be
       0.043238312 0.033244293 0.0013672934 -0.13550119
0000e0 ba 1f 8f bd cc be 83 ba 7e 41 3f bd db 21 70 bd
       -0.06988473 -0.0010051369 -0.046693318 -0.058626037
0000f0 91 f6 f1 3c f1 ad 8d bb cb 3f b8 bc d2 10 3c 3d
       0.029536517 -0.004323714 -0.022491356 0.04591448
000100 2e 2b 99 ba 8d 88 02 3d a2 25 7d bd 5d 9f d3 bc
       -0.0011685842 0.031868506 -0.061803468 -0.025832826
000110 a1 de 70 bc fa 43 77 bd 2a 53 bb bb 47 be 80 bd
       -0.014701516 -0.060367562 -0.005716701 -0.062862925
000120 e1 d7 3d 3d d5 07 9d bc 65 44 65 bd 77 f1 51 bd
       0.046348456 -0.019168774 -0.05597343 -0.05125567
000130 8b af b5 3b a5 a9 2c bc f3 e8 85 bd 89 b7 23 3d
       0.005544608 -0.010538493 -0.06538572 0.039969955
000140 37 dc 95 3c 8f a4 76 3d 91 fc 77 3d 1d 40 81 bd
       0.018293483 0.06021553 0.0605436 -0.06311057
000150 ef 5e 03 bc 15 61 6c bd c0 9f 94 bc 39 15 54 bd
       -0.008018239 -0.057709772 -0.018142581 -0.051778052
000160 a7 9e 44 bc ba 45 5f 3d 8e 5e a5 bd e4 2e ad 3d
       -0.012000716 0.054509856 -0.080746755 0.08456209
000170 e5 8b cc bc ac 70 06 bd 5a 1a 2f bd 33 1e 0d bb
       -0.02496905 -0.032822296 -0.04274974 -0.0021532893
000180 d1 9c fd 3c 5f e3 bc 3c d0 b4 be 3d 11 8a dc bc
       0.030958565 0.023057638 0.09311831 -0.026921304
000190 a9 13 49 3c b3 49 02 bd 45 cd 2c bd e9 22 59 bc
       0.012272754 -0.031808566 -0.042187948 -0.013252952
0001a0 ee dc d1 3c 49 5c a3 bc ba 43 f1 bc 21 3e c2 3c
       0.025618043 -0.019941466 -0.02945124 0.023711266
0001b0 81 ba aa bc 52 f6 c7 bd df 39 ac bc 85 e0 b0 bc
       -0.020840885 -0.09763779 -0.021023689 -0.021591434
0001c0 93 ac 0b bd 39 db b9 bc 61 bd 2e bd a5 a2 6e bd
       -0.034100126 -0.022687541 -0.042661075 -0.05826058
0001d0 2f da 89 3c 1d ce 76 bd 69 dd 37 3d a4 ad 41 bb
       0.01682767 -0.06025516 0.044888888 -0.002955296
0001e0 ea f0 6b bd 8a f5 a0 bc 00 79 aa bc e5 60 cc bc
       -0.0576028 -0.019648332 -0.02080965 -0.024948547
0001f0 02 43 90 bd 83 2a a2 3c b6 f8 7a bd d6 6e 87 3d
       -0.07044031 0.019795662 -0.061272345 0.06612937
000200 65 50 37 3d c6 72 35 3c 5d 07 86 3c f7 98 e8 bc
       0.044754405 0.011074727 0.016360933 -0.028393252
000210 9d 4c 44 bc 3c 9f 21 bd 91 27 b0 3c f0 2a 63 bd
       -0.011981157 -0.0394585 0.021503242 -0.05546087
000220 55 57 d2 ba 5a ea 5c 3d 69 0a ae 3c cd 48 25 bc
       -0.0016047755 0.053934433 0.021245198 -0.010088158
000230 49 df 3e bd b7 a1 0c 3d 87 83 3e bb 09 ec 95 bc
       -0.04659966 0.03433391 -0.0029070096 -0.018301027
000240 b0 0d 1b bb a1 64 b5 3d e7 20 34 3b f7 6c 07 3d
       -0.0023659281 0.08857084 0.0027485432 0.0330629
000250 ef 1a 85 3c 19 76 5d 3d e4 c0 ba 3c ff 14 80 3b
       0.016248195 0.054067705 0.022797056 0.003908753
000260 27 43 04 3c 2b e2 e8 bc f3 94 80 bc d8 19 8f 3c
       0.008072651 -0.028428158 -0.015696025 0.017468378
000270 af 9e 98 bc 5c c0 7c bc f6 cd ef bc 0e 48 c4 3d
       -0.018630354 -0.015426721 -0.029273015 0.09584056
000280 ce 07 c8 bc 3e fb 23 bd 88 f1 f9 bc 40 ce e5 ba
       -0.024417784 -0.040034525 -0.030510679 -0.0017532781
000290 de 67 2e bd 5b 67 d9 3c ac 31 41 3c d8 70 00 3b
       -0.042579524 0.026538542 0.011791628 0.001959851
0002a0 06 e0 95 bc aa 65 9b 3d f8 29 ce bb 36 eb a1 bd
       -0.0182953 0.0758775 -0.006291624 -0.07906191
0002b0 53 c3 9b 3b f3 df 89 bd f0 6a c5 3d a7 b4 db bc
       0.004753509 -0.06732168 0.09639537 -0.02681954
0002c0 e5 7b 2e bd b0 84 3a bb c4 27 c5 bd 23 55 5b bc
       -0.042598624 -0.0028460436 -0.09626725 -0.013386997
0002d0 45 9d 82 bd 8f 71 49 3d ac 63 62 3c 2f 41 86 3c
       -0.06377653 0.049180564 0.013817709 0.016388504
0002e0 b8 92 ef bc 34 21 04 bd 74 36 89 bc d6 8b a8 3d
       -0.029244766 -0.032258227 -0.016749598 0.082297966
0002f0 4a 8c 31 bd c8 68 16 bd 0c de b6 bc 48 ab 23 3d
       -0.04334668 -0.03672102 -0.022322677 0.03995827
000300 b6 20 52 3d 3b 82 7c 3c 67 a5 79 bd 7f b5 13 3c
       0.051300727 0.015411909 -0.060948756 0.00901544
000310 95 8d 1a bd de ad e3 3b d6 fa 77 bd 9e d0 05 3c
       -0.03773268 0.006948217 -0.06054195 0.008167414
000320 b3 a3 04 3d fe f4 14 bd 60 39 91 3a 0e 31 ea 3c
       0.03238268 -0.036366455 0.0011079721 0.028587844
000330 e1 ea 06 3c 5c 85 76 bc 49 16 f3 bc 5d e8 6d 3d
       0.00823471 -0.015046444 -0.029673712 0.058082927
000340 35 3d 51 bd 23 c8 f8 bc fc 53 bc 3c 29 ab 55 3d
       -0.051083762 -0.03036887 0.022989266 0.052165184
000350 5b 93 92 3d 6d 08 83 3c 11 df 99 bc a4 dc 14 3d
       0.07157012 0.015995229 -0.018783124 0.03634323
000360 72 29 3b bd 96 ad 80 bd 93 5a bf 3c a3 fc b4 3c
       -0.045693822 -0.06283109 0.023358619 0.022093123
000370 4e b3 43 3b 87 2c c5 bc dc 6a 65 3d 7a c0 fb bc
       0.0029861513 -0.024069084 0.056010112 -0.030731428
000380 c5 b5 fe bb 58 ea a1 bd b4 e6 3a bd bb 27 2f bd
       -0.0077731335 -0.07906026 -0.045630172 -0.0427625
000390 c8 f1 3a bd ad bb a2 bc 66 21 c6 37 c7 86 93 bb
       -0.045640737 -0.019864881 2.3618992e-05 -0.0045021507
0003a0 40 6f 43 bd 76 4b 5e 3b bd d7 d6 3d cc b1 b5 bd
       -0.04771352 0.003391949 0.104903676 -0.08871803
0003b0 c4 8d 40 bd a6 23 c8 3b e8 c1 9e bc 62 af 84 3d
       -0.0470102 0.0061077652 -0.019379571 0.06478764
0003c0 5a 5e 3a 3b ee ca 9f 3c fb 42 2c bd 0c 08 c1 3c
       0.0028437586 0.019505944 -0.042056065 0.023563407
0003d0 4e 7b 96 3c a8 bb 9a bd 30 d8 2b 3d 63 02 33 bd
       0.018369343 -0.07555324 0.04195422 -0.043703448
0003e0 d7 3c 41 3c 77 3f 72 3d e3 67 96 bb 45 d3 a4 bd
       0.0117942905 0.059142556 -0.004590021 -0.08048109
0003f0 21 84 0d bd a8 c1 e3 bc 8f 75 ed 3c 48 4f 10 3d
       -0.034549836 -0.027802303 0.02898672 0.03523186

fc1.bias f4 [32]
000000 6c 14 9f bc c8 3d 37 bd c2 31 ec 3c 2a 96 0b 3c
       -0.019418918 -0.044736654 0.02883232 0.008519689
000010 87 ba f6 3c 33 eb 5b bc 1a 0f 0e 3d ff f0 b9 3c
       0.03011824 -0.013422775 0.03468237 0.022697924
000020 1a d8 71 bb c8 87 e4 3c 39 30 c1 3c b0 95 9e bc
       -0.0036902488 0.027896777 0.023582565 -0.019358486
000030 63 82 ad bc 3b 98 b5 bc 6f 21 44 bc ea 9d 62 bc
       -0.021180337 -0.022167316 -0.011970862 -0.013831595
000040 18 8c e2 3c 4e da a2 3c 47 65 ee ba 44 7e 7a bc
       0.027654693 0.019879486 -0.0018188142 -0.015288893
000050 b8 43 9d bb b9 3c 06 bd 7c fb 9d bb b8 17 2d bd
       -0.0047993325 -0.032772753 -0.004821239 -0.042258948
000060 dd af be 3c 23 60 c7 3c 05 7a f1 3c ba fb 64 3c
       0.023277218 0.024337834 0.029477129 0.013976032
000070 f0 66 23 bd ae 5c 6c 3d 91 ca e5 3b 14 5c cb bc
       -0.03989309 0.057705574 0.007012673 -0.02482418

fc2.weight f4 [16, 32]
000000 a2 11 ee 3e 19 58 04 3e e1 41 67 be ca 03 98 3b
       0.46497828 0.12924232 -0.22583725 0.0046391236
000010 c7 55 49 bd bd 01 78 bc 0b da b9 be 39 22 ed 3d
       -0.04915407 -0.015137133 -0.36299166 0.11578793
000020 d6 6a 74 be 8a 21 a4 bd 4a c8 ea bc 8f 55 98 3e
       -0.2386888 -0.080142096 -0.028659958 0.29752776
000030 c3 53 6b 3d e7 77 e7 3d e6 db 0b be 47 65 04 bf
       0.05745293 0.113021664 -0.13658103 -0.51717037
000040 7a da 02 bd 55 7c 1c 3e c4 23 ea be 04 0d 78 3d
       -0.031946637 0.15281804 -0.45730412 0.060559288
000050 86 6c 2f 3d d5 36 e2 3e cc f3 b7 3d fc 42 21 3f
       0.042828105 0.4418246 0.089820474 0.62992835
000060 28 ea 8c be f3 95 20 3e 36 1e e7 3d 07 04 4a 3e
       -0.27522397 0.15682201 0.11285059 0.19728099
000070 a6 c8 d6 3e bd c0 a8 be b5 8f e9 ba 74 e3 8e 3e
       0.41949958 -0.32959548 -0.0017819317 0.27907908
000080 30 dc c1 3d eb a5 5d be aa fe 4d 3e 16 eb db 3e
       0.094658256 -0.21645324 0.20116678 0.42952794
000090 c3 41 f6 3d f5 ed a7 3d db 6d 19 3f 68 7a d0 bd
       0.12024262 0.081996836 0.5993325 -0.10179597
0000a0 9f 6c df 3e 39 52 72 be 50 e1 10 be 69 a3 14 bd
       0.4363756 -0.23664178 -0.1414845 -0.036288653
0000b0 0d 16 7d 3e 4e e4 31 3e 65 50 c2 be 1a 8b 5f 3d
       0.24715443 0.17372248 -0.3795196 0.054576017
0000c0 f4 2e b9 bd fc 0a 87 3e ca 65 16 bf 73 d7 ea 3c
       -0.09042159 0.26375568 -0.5874907 0.028667187
0000d0 c2 d7 df bb 27 36 fa 3a c9 f5 ed bd 96 ae 95 3b
       -0.0068311403 0.0019089625 -0.116191454 0.0045679314
0000e0 87 d3 c0 be d7 43 03 3e e3 b0 b0 3e 46 a2 e2 bd
       -0.37661383 0.12818848 0.34509954 -0.110661075
0000f0 9d 22 61 3e 38 ee 16 3f 26 6c b6 bd 30 73 8f be
       0.2198586 0.5895724 -0.089073464 -0.2801757
000100 75 04 18 be 77 11 cc be d5 d7 f1 be 0e a2 97 3e
       -0.1484545 -0.39857075 -0.4723498 0.29615825
000110 7e dc 21 be 3a e6 92 3d 49 59 63 bd ad b8 33 bf
       -0.15806767 0.071728185 -0.05550507 -0.7020367
000120 64 7b e6 3e 28 a4 58 3d 05 0a 14 3e 5c 76 4d 3d
       0.45016015 0.052890927 0.14456947 0.050161704
000130 f0 e4 cb be 6a b5 04 3e bc 36 d8 bd de a0 69 3e
       -0.39823103 0.12959829 -0.10557315 0.22815272
000140 58 b6 82 bd 78 15 47 bd 00 57 f5 bb 29 53 87 3d
       -0.063824356 -0.04860446 -0.007487178 0.066076584
000150 ed 03 5c 3e e3 11 47 bd 37 ac 85 3e f4 f7 8b 3e
       0.21485873 -0.048601042 0.26107952 0.2733761
000160 72 43 08 be 16 da d8 3d ec 35 0e 3b f5 28 78 be
       -0.13306978 0.105884716 0.002169962 -0.24234374
000170 88 82 27 3e 01 74 91 be ec d7 15 bd a2 6d 05 be
       0.16358387 -0.28408816 -0.036582872 -0.13030103
000180 38 54 d7 3d 16 d1 b1 be c3 9b 8d be ce 7e dc 3d
       0.1051411 -0.34729832 -0.276579 0.107663736
000190 11 59 9f 3d 15 cf 37 3d 94 30 7f 3e fd f9 a7 be
       0.0778066 0.044875223 0.24920875 -0.32807913
0001a0 60 99 09 be 93 76 ed 3e bd 50 2d 3d 42 76 5a 3d
       -0.13437414 0.46379527 0.042313326 0.053335436
0001b0 1c 13 5f 3e a1 e3 6c be 74 30 97 3c e9 4e 3c 3e
       0.21784633 -0.23133709 0.018455721 0.18389477
0001c0 b2 4a 01 bd b6 4f 04 3e 59 f7 7a be 72 e0 26 bd
       -0.031565376 0.12921032 -0.24508418 -0.04074139
0001d0 fb 04 ed 3d fe 02 c1 be c4 32 01 be 3a e2 a4 be
       0.115732156 -0.37697595 -0.12617022 -0.32203847
0001e0 7d bd d6 3e f6 94 23 3e 98 84 a5 3e 8b fc 35 3e
       0.41941443 0.15974793 0.32327724 0.17772119
0001f0 f8 40 da be c1 e5 89 be 18 c6 98 3e 58 8a 84 be
       -0.42627692 -0.269331 0.29838634 -0.25886798
000200 d3 db 06 be ee cc 64 bd 4e 71 09 3d 3b ca 17 bf
       -0.13169794 -0.0558595 0.03355532 -0.59292954
000210 e6 52 6b 3d e8 11 9d 3e fc 03 0f bf 6b f6 a9 3d
       0.057452105 0.30677724 -0.55865455 0.082989536
000220 6d ac a6 3e db a2 f9 3d 8d 6a bf bc 1e f9 bc 3d
       0.32553425 0.12189265 -0.023366237 0.09227203
000230 ac 33 d4 3d cf 8a 8b 3d 8e 8e 20 3e 9e bf bb be
       0.10361418 0.06813585 0.1567938 -0.3666963
000240 0f 71 93 3d a2 37 34 bd d9 2c f0 3e 55 4e d2 bd
       0.071992986 -0.043998368 0.46909216 -0.10268847
000250 4e 04 b4 3e 16 aa d2 bd 71 6d ba bd 41 d9 00 3f
       0.35159534 -0.102863476 -0.091029055 0.50331503
000260 e0 e7 f2 bd 8f 32 86 bb dd 81 58 bf 51 52 86 bd
       -0.11860633 -0.0040953825 -0.84573156 -0.06558669
000270 0b cd f8 bd 0c 7a 90 bd 97 12 bc 3e 46 9a aa 3d
       -0.12148484 -0.070545286 0.36732933 0.083302066
000280 20 b9 2e 3e 5d e6 12 3f e2 bb f4 3d 5d d0 84 be
       0.17062807 0.57382756 0.11949898 -0.2594022
000290 4b f0 72 3c fa e2 6e 3e b6 7a c5 be a5 4d 14 3f
       0.014827798 0.23328772 -0.38570184 0.57930976
0002a0 9b bb ad be be 54 02 3e 9c c8 87 be bf 18 d1 bd
       -0.33932194 0.12727639 -0.2652024 -0.10209798
0002b0 e9 4f 2f 3e fe d9 ca bd db 8e 7a 3d 51 c7 08 be
       0.17120327 -0.0990486 0.061171394 -0.13357283
0002c0 70 51 88 be 79 77 b0 ba 48 69 7b 3d b3 7b 55 3e
       -0.26624632 -0.001346334 0.0613797 0.20847969
0002d0 24 3b 0f be 5b a4 4f 3d 1b ad b8 bd 84 bb 02 be
       -0.13987404 0.05069385 -0.09017392 -0.12766844
0002e0 8c b7 0f 3f a6 69 4c be d1 b2 a0 3d 53 f8 b4 3e
       0.56139445 -0.19962177 0.078466065 0.35345706
0002f0 29 f3 0e 3d 24 74 e3 3d 10 04 94 be b6 60 17 3d
       0.034899864 0.111061364 -0.2890935 0.036957465
000300 b7 64 a8 3e 6c a6 f9 bd 09 02 a5 bd b9 45 2f 3e
       0.3288934 -0.121899456 -0.08057029 0.17116441
000310 39 3d d6 3e d4 30 13 3e b1 79 80 3e e5 e4 4d be
       0.41843584 0.14374095 0.25092843 -0.20106848
000320 f4 f6 bb 3d 06 e4 aa bc 04 e5 74 be 66 fb a8 bd
       0.09177962 -0.020860683 -0.23915488 -0.082510754
000330 2e cd 32 3e 9f 96 4d be 3c 85 1a 3e 4f 05 b7 3e
       0.17461082 -0.20076989 0.15089887 0.35746238
000340 6e 3e c4 3e e3 21 f2 3c c3 4e fc bd bf 81 e8 3d
       0.3832888 0.029557174 -0.1231971 0.11352872
000350 2f 40 7a bd 6a 11 97 bd b8 95 70 bd 2e c7 c1 bd
       -0.061096366 -0.07376368 -0.058736533 -0.09461819
000360 25 6b c0 3e 0a f0 86 bd cc 17 4c bd 11 b1 72 3e
       0.37581745 -0.065887526 -0.049827382 0.23700358
000370 bf 37 df bd 24 5b 75 be 0b d9 93 bd c8 df d0 3d
       -0.108993046 -0.23960549 -0.07219132 0.10198933
000380 4b a1 ff bd 3f e7 99 3e 12 1b a9 be 85 e8 a8 bd
       -0.12481936 0.3005924 -0.33028466 -0.082474746
000390 d6 41 b2 3c 40 dd 0b be b4 21 00 be 45 60 fe bd
       0.021759909 -0.13658619 -0.12512857 -0.12420706
0003a0 73 65 5f 3e c3 17 16 3f a4 4f 7f be b4 41 d5 bd
       0.21816044 0.5863001 -0.24932724 -0.104129225
0003b0 84 a6 37 bd 4f 20 e8 3d 25 ef ca 3c f5 e8 dc 3e
       -0.044836536 0.113342874 0.024772236 0.43146482
0003c0 65 01 11 3e 68 0e c5 bd 97 5a 10 3f 52 a1 e1 3e
       0.14160688 -0.096218884 0.5638823 0.4406839
0003d0 53 24 ed be ab 0d 83 bd 3d b3 0e 3f 50 2e 35 3e
       -0.46316776 -0.06399091 0.55742246 0.17693448
0003e0 29 11 9c bd 4b 5d 2e be b4 65 9c 3d 1c e5 52 3d
       -0.076204605 -0.17027776 0.07636586 0.051488027
0003f0 ca d1 89 be d9 71 9f be 5d 1e b5 3e 10 f0 18 be
       -0.2691787 -0.31141546 0.35374728 -0.14935327

fc2.bias f4 [16]
000000 a3 53 a9 bc 33 16 b4 bd af e7 0d 3e e9 01 d8 bd
       -0.020669764 -0.08793297 0.13857912 -0.10547239
000010 d1 3f 4c 3e 3e 57 c0 3c 99 c0 07 bd 37 b9 07 3e
       0.19946219 0.0234791 -0.03314266 0.13254248
000020 93 bd a0 3d 56 23 6c 3d 91 f4 50 3e 77 b0 1a 3e
       0.078486584 0.057650886 0.20405795 0.15106378
000030 a2 21 88 3e 5e f3 54 3c b1 f1 ef bd 63 35 47 3d
       0.2658816 0.012997476 -0.11716021 0.048634898

hidden_to_output.weight f4 [10, 16]
000000 2f 52 1d bf e0 bd 06 bf 48 eb 07 3f 9c ed 02 bf
       -0.6145353 -0.52633476 0.53093386 -0.51143813
000010 32 d9 01 3f 38 1a 8a bf a3 27 11 be 3e 58 48 3e
       0.5072204 -1.0789251 -0.14175276 0.19564912
000020 f7 40 47 bf 37 19 1b 3e 23 fc c5 3e 01 f8 a0 be
       -0.77833503 0.15146337 0.38668928 -0.31439212
000030 aa 87 a1 3e 59 4c 29 bf eb 62 95 be 0d 8d 34 bf
       0.31548816 -0.6613212 -0.2917703 -0.70527726
000040 c4 dc 2b bf 34 f6 05 3f e8 70 50 be 32 ee a5 be
       -0.67133737 0.523288 -0.2035557 -0.3240829
000050 bc 95 71 bf fa 0a 70 bd ae 4b 05 bd 5b 7a 45 bf
       -0.943691 -0.058604218 -0.032542877 -0.77139825
000060 9d 82 58 be ae 56 48 be ba e8 d5 be b7 c0 9a be
       -0.21143575 -0.19564316 -0.4177912 -0.30225155
000070 f2 89 5c bf 02 8d 9b 3e 79 0f 41 bf 18 19 15 3f
       -0.8614799 0.30381018 -0.75414234 0.58241415
000080 78 3d 5b 3e 1f 1f 6c 3e 2b fe 22 3f 30 48 00 bf
       0.21410167 0.23058747 0.6366908 -0.5011015
000090 6b 4a 5f be ab 0b 46 bf af 7b a6 3d 8f f4 00 bd
       -0.21805732 -0.77361554 0.081290595 -0.03148323
0000a0 2a 0c 31 be 5e 08 cc 3e 14 7e 54 3e b6 28 3e bf
       -0.17289796 0.39850134 0.2075122 -0.7428087
0000b0 d3 14 78 be 82 51 87 3e e1 c1 22 be de 3a bd be
       -0.24226694 0.26429373 -0.15894271 -0.36958975
0000c0 78 12 81 3e 49 b1 df be 28 95 0e 3e 7e 82 6f be
       0.25209403 -0.43689945 0.13924086 -0.23389623
0000d0 84 c9 c4 3e 95 99 24 be 74 7c 53 be 06 49 ee be
       0.38434994 -0.16074212 -0.20652944 -0.46540087
0000e0 39 7d d1 be 98 d8 cc be 23 e1 ae 3e 6f f5 b7 3e
       -0.4091585 -0.40008998 0.3415614 0.35929438
0000f0 2b ce 17 bf 5e 61 2f be 48 f4 9a 3e e8 0d 98 be
       -0.5929896 -0.17126986 0.30264497 -0.2969811
000100 eb d7 88 3e 90 e6 84 be 87 cb 7d bc e3 9e f2 bd
       0.26727232 -0.25957155 -0.015490419 -0.118467115
000110 12 1a 14 bf a6 1b 5d 3e 56 3e 3b bf d9 b9 31 3e
       -0.5785228 0.21592578 -0.7314199 0.17356052
000120 ea 0a 32 3f 96 8d 7c be c8 a3 48 bf c0 d4 e3 3d
       0.69547904 -0.24663386 -0.7837491 0.11124563
000130 96 ba 09 bd fa d0 6b 3e aa 03 b6 be 38 e2 04 3e
       -0.033625208 0.23028937 -0.3554967 0.1297692
000140 f4 be be be 8f 62 e7 be d1 66 65 be fd ae 8b bd
       -0.3725506 -0.45192382 -0.22402503 -0.06820486
000150 0b d4 6a 3d c5 05 67 3e 08 eb eb 3e f3 e9 b8 bd
       0.057331126 0.22560795 0.46077752 -0.09028997
000160 60 e2 fd 39 88 f5 89 be 97 52 0d bc 0a 68 1e 3f
       0.00048424583 -0.26945138 -0.008625648 0.618775
000170 fb f1 e5 be 26 43 5c bf 05 2a 99 3e 80 b9 c6 3e
       -0.4491118 -0.8603996 0.2991487 0.388134
000180 07 ba ca be 4a f0 dc be 32 57 74 3a 6b 8e ca 3e
       -0.39595053 -0.43152076 0.00093208544 0.3956178
000190 cc 10 0c be 9e 22 cd 3d 74 73 f0 3e 0a 74 2c 3e
       -0.13678282 0.10016368 0.46963084 0.1684114
0001a0 3a ae d3 3d 65 63 ea 3e d9 e2 57 3d 52 ff 75 be
       0.103359655 0.45778957 0.052706573 -0.24023178
0001b0 e2 8b 2a 3d 91 7e 90 be 92 06 c3 3e 3d d8 0e bd
       0.04163731 -0.28221563 0.3809095 -0.03487419
0001c0 9c 26 a7 bd a3 9d 2b 3e 89 ea e9 3e 5c f9 c7 3e
       -0.08161661 0.16759352 0.4568675 0.39057434
0001d0 e3 f4 09 bf 87 01 e3 be 07 e1 14 3f 95 af 00 3e
       -0.5388929 -0.44337103 0.58155864 0.12566979
0001e0 db 3c da 3e 47 a5 c3 3e 0a 57 ff be 96 2f c6 be
       0.42624554 0.38212034 -0.49871093 -0.3870818
0001f0 00 68 b3 3d 63 c7 bf 3d 19 cb fb be 92 e6 3b 3e
       0.08760071 0.09364202 -0.4917839 0.18349674
000200 8e 26 b7 3e 57 20 38 be 67 1a 0e bf f3 d7 4e be
       0.35771602 -0.17981087 -0.55509037 -0.20199566
000210 c7 4f 28 bf 3c a2 7c 3e 1e f9 9c be 25 9f a5 be
       -0.6574673 0.24671263 -0.3065881 -0.3234798
000220 c3 15 c4 be 71 4b ad be 36 c5 41 3e 02 5d 35 bf
       -0.38297853 -0.3384662 0.18922886 -0.70845044
000230 3f 8a c1 be 87 bc 83 3e cc 99 b4 3e 7f 5f a5 be
       -0.37800786 0.25729772 0.35273588 -0.3229942
000240 ca 63 01 bf 2f 84 e9 be d8 53 0c bf 6b d6 8d bd
       -0.5054289 -0.4560866 -0.54815435 -0.069256626
000250 f5 1c 7a 3e 0e ca 86 3e ea 48 ae be 03 d9 a8 3e
       0.24425109 0.2632603 -0.34040004 0.32978067
000260 b4 fe 85 be f7 c1 d9 3d da 63 cd be 03 00 5b be
       -0.26170886 0.10632699 -0.40115243 -0.21386723
000270 fb c5 27 3e c6 55 d0 be 51 3e 4d 3e 22 0b 0f 3e
       0.16384117 -0.4069044 0.20043303 0.1396909

hidden_to_output.bias f4 [10]
000000 15 9b 1d be ba 6c 30 3e cc 7e a3 be e6 0c b3 3d
       -0.1539119 0.17228976 -0.31932676 0.087426946
000010 e3 e3 d2 3c 91 98 38 be e4 e9 84 3d 2d 7d e8 bd
       0.02574343 -0.1802695 0.064899236 -0.113520004
000020 d1 18 6a bd c4 28 ad 3d
       -0.057152573 0.08455041
