models/cnn-classifier.pth (torch, 212763 bytes, 10 tensors)

input_to_hidden.weight f4 [32, 1, 3, 3]
0	0xbeae5f79	-0.34057215
1	0x3dffd768	0.12492257
2	0xbcfd3a4e	-0.03091159
3	0x3e4540e6	0.19263038
4	0xbdbb479a	-0.09144516
5	0x3e7e48ea	0.24832502
6	0xbe6c2c59	-0.23063792
7	0x3ef79a73	0.48360023
8	0x3f00edbf	0.5036277
9	0xbeb7d5d3	-0.35905322
10	0xbe6dcffc	-0.23223871
11	0xbee06580	-0.43827438
12	0x3c128e53	0.008945066
13	0x3eb036f7	0.34416935
14	0xbdba7b8a	-0.091055945
15	0xbdf65a21	-0.120289095
16	0x3ef89d54	0.48557532
17	0xbe1292db	-0.14313833
18	0xbcee4ca9	-0.029089289
19	0x3e44368a	0.1916143
20	0x3eae65e0	0.340621
21	0x3ec4b85b	0.38421902
22	0xbe9f7718	-0.3114555
23	0xbeaaf8f8	-0.33393073
24	0x3e8c764b	0.27434
25	0xbea78915	-0.32721773
26	0xbdbdfd0c	-0.092767805
27	0x3e93c081	0.28857806
28	0xbeb2307c	-0.34802616
29	0x3e9b5b41	0.3034306
30	0xbe06c863	-0.13162379
31	0xbe41a08a	-0.18908897
32	0xbe03337f	-0.12812613
33	0x3e9ce2ed	0.3064188
34	0x3ed64c44	0.4185506
35	0x3eed9108	0.46399713
36	0x3d9f34e2	0.077737585
37	0xbe7b1db1	-0.24523045
38	0xbeb732c8	-0.3578093
39	0x3ea21a3a	0.31660634
40	0x3eaa58f2	0.33270985
41	0x3e53f9b1	0.20700718
42	0xbd30dfbf	-0.04318213
43	0xbc33551d	-0.010945586
44	0x3e5a6106	0.21326074
45	0x3e105655	0.14095433
46	0xbe94cabb	-0.2906092
47	0x3d91159c	0.070842
48	0x3ea3c3a0	0.31985188
49	0x3c34b762	0.01103005
50	0x3e75ac66	0.23991546
51	0x3c1c0860	0.009523481
52	0x3ed90e02	0.423935
53	0x3d3f13a6	0.046649598
54	0xbe984034	-0.29736483
55	0x3e1cac0e	0.15300009
56	0x3cbd422d	0.023102844
57	0xbedf28fd	-0.4358596
58	0x3e2dcd0b	0.16972749
59	0x3e8e396c	0.27778184
60	0xbe8bb667	-0.272876
61	0x3da11a97	0.078664
62	0x3ed199bf	0.4093761
63	0x3e06d204	0.13166052
64	0xbdf4188b	-0.11918744
65	0x3ec6d3bc	0.38833416
66	0xbeaeead0	-0.34163523
67	0x3e977902	0.2958451
68	0x3ec88f4d	0.3917183
69	0xbe85b7cc	-0.26116788
70	0xbe8f9ec8	-0.28050828
71	0x3e96e0df	0.29468438
72	0xbe7473bb	-0.23872273
73	0x3ce7970f	0.028270273
74	0x3e080155	0.13281758
75	0x3b946d7f	0.0045296545
76	0x3eb82f15	0.3597342
77	0xbd4055da	-0.046956874
78	0x3e3e63e1	0.18592788
79	0xbe34ca6d	-0.17655344
80	0xbe2db45e	-0.16963336
81	0xbb28c22d	-0.0025750503
82	0x3ee15081	0.44006732
83	0x3dd09f7e	0.10186671
84	0xbe520194	-0.20508415
85	0x3e49006a	0.19629064
86	0x3e896868	0.26837468
87	0xbebe9474	-0.37222636
88	0x3e8a57f0	0.27020216
89	0x3e7e8d79	0.24858655
90	0xbe3b86ec	-0.18313187
91	0x3ec405bc	0.38285625
92	0x3e5e1164	0.21686321
93	0x3e74243b	0.23841946
94	0x3dceaef1	0.10091961
95	0x3e7e5e66	0.24840698
96	0xbd8ad338	-0.06778568
97	0x3e0efd98	0.13963926
98	0xbe7d20c9	-0.24719538
99	0xbe560642	-0.20900825
100	0x3e3bc771	0.183378
101	0x3e33f2c1	0.17573072
102	0xbeb03126	-0.34412497
103	0x3e4b6864	0.1986404
104	0x3e4cad41	0.19987966
105	0xbe5f63a1	-0.21815349
106	0x3ecf5d1a	0.40500718
107	0x3e006fbf	0.12542628
108	0xbf06ddee	-0.5268239
109	0xbe06be51	-0.13158537
110	0xbc64e0e2	-0.013969632
111	0xbe18cd28	-0.14922011
112	0xbd74c373	-0.059756707
113	0x3eb56a31	0.3543258
114	0xbe9a5ef3	-0.30150566
115	0x3d714f39	0.058913443
116	0x3e9b59f7	0.30342075
117	0x3e9c94bd	0.30582228
118	0x3dd8af21	0.10580278
119	0xbe10f88c	-0.14157313
120	0x3e61c947	0.22049437
121	0x3e38526e	0.18000194
122	0x3eb54c99	0.35410002
123	0x3e82a0d9	0.25513342
124	0xbe0dfbeb	-0.1386563
125	0xbd736a0d	-0.05942731
126	0x3e88267f	0.2659187
127	0x3eeae1c7	0.4587538
128	0x3e95827e	0.2920112
129	0x3eea1350	0.4571786
130	0x3e91a8c2	0.28449064
131	0x3e498db1	0.19682957
132	0xbdeceaee	-0.11568247
133	0x3e9c088d	0.30475274
134	0x3e27f6f2	0.16402796
135	0xbdfb669e	-0.12275432
136	0xbea2e52c	-0.3181547
137	0xbe14a4a2	-0.14515927
138	0x3e8aaa5d	0.27083102
139	0xbea451da	-0.32093698
140	0xbcf121fa	-0.029435147
141	0xbe86326a	-0.26210338
142	0x3e4e3b63	0.20139842
143	0xbe71a66e	-0.23598644
144	0x3ddb81f7	0.10718148
145	0x3ee6e7ea	0.4509881
146	0x3cf19419	0.029489564
147	0x3e875bb5	0.26437154
148	0xbe2f46f2	-0.17116907
149	0xbe9fc772	-0.31206852
150	0xbd818952	-0.0632502
151	0x3e63aa74	0.22232991
152	0xbe57ba08	-0.21067059
153	0x3c75cfad	0.015003127
154	0x3f043a22	0.51651204
155	0x3ed7a6ad	0.4211935
156	0x3ea6322d	0.32460156
157	0x3ed6105f	0.41809365
158	0x3ea78ce0	0.32724667
159	0xbe6f4878	-0.23367488
160	0x3e274467	0.16334687
161	0xbe72cdfc	-0.2371139
162	0xbdcd3294	-0.10019413
163	0x3c4b4a26	0.012407815
164	0xbe207d5b	-0.1567282
165	0x3e8feaf9	0.28108957
166	0xbeb95416	-0.36196965
167	0xbe050698	-0.12990797
168	0xbeab2cda	-0.33432657
169	0xbe35893f	-0.17728136
170	0x3dd28529	0.102793045
171	0xbd7ab426	-0.06120696
172	0xbd85ee1c	-0.065395564
173	0xbe364d31	-0.17802884
174	0x3ecda3ff	0.40164182
175	0xbdae1cff	-0.08501624
176	0xbec555c7	-0.38542005
177	0x3e864652	0.26225525
178	0x3ea607be	0.32427782
179	0xbe32def2	-0.1746786
180	0xbc633cd7	-0.013869486
181	0xbe2ee0fa	-0.17078009
182	0x3e345ace	0.17612764
183	0x3e02a113	0.12756757
184	0xbe830256	-0.2558772
185	0x3eec0a94	0.4610182
186	0x3e8a2ebd	0.26988783
187	0xbea79b37	-0.32735607
188	0xbe250571	-0.16115357
189	0x3e8fe5ee	0.2810511
190	0x3e459861	0.19296409
191	0x3da04f74	0.078276545
192	0x3e8b1518	0.2716453
193	0x3eb796f8	0.35857368
194	0x3ef1d938	0.47236037
195	0x3e5a806a	0.21338049
196	0xbd8442e8	-0.06458074
197	0x3d99180d	0.074752904
198	0x3e1953ad	0.14973326
199	0xbbaf8c81	-0.0053573255
200	0xbe1e271f	-0.15444611
201	0x3ea2161c	0.31657493
202	0x3e55eef1	0.2089193
203	0x3eda7af3	0.42671928
204	0xbec65de1	-0.387435
205	0xbe919f9a	-0.2844208
206	0x3ec0b2bb	0.3763636
207	0x3e9489d5	0.29011407
208	0xbe7fa5bd	-0.24965568
209	0xbe1d612c	-0.153691
210	0x3ed3ce4e	0.41368335
211	0xbe0745d1	-0.13210227
212	0xbe5d001b	-0.21582071
213	0x3ea2d39b	0.31802067
214	0xbd62416f	-0.055238184
215	0xbebd9113	-0.37024745
216	0x3e9f073b	0.31060204
217	0x3e89b107	0.26892874
218	0xbd2fbfb7	-0.042907443
219	0xbdd5eb36	-0.104452536
220	0x3e77cf35	0.24200137
221	0x3dcf9907	0.101366095
222	0x3c3fe99d	0.011713413
223	0xbed3e038	-0.41382003
224	0xbd550774	-0.05200906
225	0xbd553827	-0.052055504
226	0xbeee3ae1	-0.46529296
227	0xbe0b5f6c	-0.1361062
228	0x3d71ffc6	0.059081815
229	0x3e590a80	0.21195412
230	0xbebdb18a	-0.37049514
231	0x3d3d5bc1	0.04623008
232	0x3e9a0552	0.30082184
233	0x3dc04640	0.09388399
234	0xbe9555e1	-0.29167083
235	0xbd0ee683	-0.0348878
236	0xbd6b19be	-0.057397597
237	0x3e7a460d	0.24440785
238	0x3d268461	0.04065359
239	0x3ee9f99a	0.45698243
240	0x3edede3d	0.4352893
241	0x3e211303	0.15729909
242	0xbd35c064	-0.04437293
243	0xbec72698	-0.38896632
244	0xbe7ae685	-0.24501999
245	0x3c40eceb	0.011775236
246	0xbde8258b	-0.11335286
247	0xbe15577e	-0.14584157
248	0xbc8635d4	-0.01638309
249	0x3eca9fd4	0.39575064
250	0xbe95ab0a	-0.29232055
251	0x3e0d985a	0.13827649
252	0x3debc1ed	0.11511598
253	0xbe8d5621	-0.27604774
254	0xbd6a7776	-0.057242833
255	0xbe6e7014	-0.23284942

input_to_hidden.bias f4 [32]
0	0x3e0eee31	0.1395805
1	0xbcc051ed	-0.023476565
2	0x3ded9365	0.11600379
3	0xbe1baa93	-0.15201788
4	0xba3c867f	-0.00071916723
5	0x3d644c3e	0.055736773
6	0xb9c2ff19	-0.00037192626
7	0x3e1100bc	0.14160436
8	0xbd130037	-0.035888877
9	0x3e43a9ee	0.19107792
10	0xbc8bebbf	-0.017080186
11	0xbd670899	-0.056404684
12	0x3e73652d	0.23769064
13	0xbe141984	-0.14462858
14	0xbdc00eea	-0.09377845
15	0x3e7d084f	0.247102
16	0xbdfe9a59	-0.12431783
17	0xbdc6ffae	-0.09716736
18	0x3e6f9580	0.23396873
19	0xb94bd39e	-0.00019438422
20	0xbd8f406c	-0.06994709
21	0xbe55cb4e	-0.20878336
22	0x3e843953	0.25824985
23	0x39150d89	0.0001421479
24	0xbbbb2591	-0.0057112654
25	0x3e538fd9	0.20660342
26	0x3d12aa54	0.03580697
27	0x3e9c0c7e	0.3047828
28	0x3bb03214	0.0053770635
29	0x3c32197b	0.010870333
30	0xbda7e71b	-0.08198377
31	0x3e9c6b32	0.30550534

cnn1.weight f4 [64, 32, 3, 3]
0	0x3d2e94a8	0.04262224
1	0x3c8cfe35	0.01721106
2	0xbd2986ff	-0.041388508
3	0x3c926952	0.017872486
4	0x3d8f0add	0.06984494
5	0xbd1c531c	-0.038165197
6	0x3d2f6a8b	0.042826217
7	0xbd03eb90	-0.03220707
8	0x3c9f1d1f	0.019423066
9	0xbd92f34c	-0.071753114
10	0xbdd0ad18	-0.10189265
11	0xbd15a37b	-0.03653286
12	0xbd5f0f44	-0.054457918
13	0xbbc6af09	-0.0060633463
14	0xba749dc7	-0.0009331372
15	0xbd8adb1a	-0.067800716
16	0xbda4803c	-0.08032271
17	0xbd01c0a7	-0.03167787
18	0xbdb23f49	-0.08703477
19	0x3cd319dd	0.025769169
20	0x3d1c2368	0.038119704
21	0x3c8d711c	0.017265849
22	0x3d1ddbdc	0.038539752
23	0x3d5dca9a	0.054148294
24	0x3dc37a0d	0.09544764
25	0x3da4e79a	0.08051987
26	0x3bda6d97	0.006665896
27	0x3c9eaf4c	0.019370697
28	0x3ce96eb3	0.028495168
29	0xbd2fc686	-0.042913936
30	0x3c896ab9	0.016774522
31	0x3c38443e	0.011246739
32	0xbc71180b	-0.014715205
33	0x3d35e4db	0.044407707
34	0xbcad3e4a	-0.021147866
35	0xbd3a6793	-0.045508932
36	0xbd2753dc	-0.04085146
37	0xbc43558c	-0.011922251
38	0x3cc33646	0.02382959
39	0xbd03fede	-0.032225482
40	0xbd18ff01	-0.037352566
41	0xbceb6bed	-0.028737986
42	0xbd4206c6	-0.04736974
43	0xbd77af30	-0.060469806
44	0xba9d1922	-0.001198564
45	0x3d99e338	0.07514042
46	0xbc33dc77	-0.010977856
47	0x3cabd3c2	0.020974997
48	0x3d900b10	0.0703336
49	0x3d4d9716	0.050192915
50	0x3c3c6521	0.01149872
51	0xbd124f4e	-0.035720162
52	0xbd66646b	-0.05624811
53	0xbd93fcd6	-0.07225959
54	0xbc9b0890	-0.018924981
55	0x3d8702a4	0.065923005
56	0xbd485e0d	-0.04891782
57	0xbd8712bc	-0.0659537
58	0x3d3ef749	0.04662255
59	0xbd292714	-0.041297033
60	0xbcb100d7	-0.021606846
61	0x3da7e1c9	0.08197362
62	0xbc2b870e	-0.010469211
63	0x3b050768	0.0020298604
64	0xbd1c564f	-0.038168248
65	0x3d39a14c	0.04531984
66	0x3bf106fc	0.007355569
67	0xbd2caaa0	-0.04215491
68	0xbaff848c	-0.0019494458
69	0x3c91404f	0.01773086
70	0xbcc70cf7	-0.024298174
71	0xbd961263	-0.07327726
72	0xbcd87b11	-0.02642587
73	0x3d8b3606	0.067974135
74	0xbba59198	-0.0050527565
75	0x3d761a89	0.0600839
76	0x3d8b7de6	0.068111226
77	0x3d147260	0.03624189
78	0xbb164395	-0.0022928466
79	0x3daa9ae4	0.08330324
80	0x3ac16a27	0.0014756367
81	0x3d123c77	0.035702195
82	0x3d13affb	0.0360565
83	0x3b5ae447	0.0033400224
84	0x3d426d36	0.047467433
85	0x3d5bdcc2	0.053677328
86	0xbc606ac2	-0.013697328
87	0xbd311be9	-0.043239508
88	0xbd039399	-0.032123182
89	0x3d1b5e5a	0.037931778
90	0xbd1777a6	-0.03697934
91	0x3de006ba	0.10938783
92	0x3bedae6c	0.0072534587
93	0x3d7f5231	0.062334243
94	0x3ce71780	0.028209448
95	0x3d24e220	0.040254712
96	0x3d147cf4	0.036251977
97	0x3bbbe54e	0.0057341224
98	0xbda59609	-0.080852576
99	0xbb555e2d	-0.0032557354
100	0x3d328afa	0.04358957
101	0x3cfdc6eb	0.03097864
102	0x3d21ffc0	0.039550543
103	0x3d872427	0.065986924
104	0xbda9396d	-0.08262906
105	0x3bcf527a	0.0063269706
106	0x3cab43b0	0.0209063
107	0xbc630587	-0.013856298
108	0x3d717d60	0.058957458
109	0x3d85d557	0.06534832
110	0x3d6eac0d	0.05826955
111	0xbd789569	-0.060689364
112	0x3d20925c	0.03920208
113	0xbc351953	-0.011053401
114	0x3c7cc062	0.015426727
115	0x3c2620c9	0.0101396525
116	0x3cd0648c	0.02543857
117	0x3c2aa7bb	0.010415967
118	0x3d6f0f5a	0.05836425
119	0x3dd508e7	0.104020886
120	0x3dd845c9	0.105601855
121	0x3dafacc4	0.08577874
122	0xbcf2a99b	-0.02962189
123	0x3d90f212	0.07077421
124	0x3d0b3708	0.03398803
125	0xbd0b66c7	-0.034033563
126	0x3aac1c68	0.0013131024
127	0x3a82335a	0.0009933517
128	0x3d9a4dd4	0.07534376
129	0x3b76beed	0.0037650422
130	0x3c287331	0.01028137
131	0x3d1c190c	0.038109824
132	0x3d5b3b0d	0.053523112
133	0xbac17463	-0.0014759417
134	0xbd5d3d7b	-0.05401371
135	0x3c2cfa3f	0.01055771
136	0x3c809ae1	0.015698852
137	0xbd8e44ca	-0.06946714
138	0xbc8d99a2	-0.017285172
139	0xbdd7f7f4	-0.1054534
140	0xbce1a343	-0.02754367
141	0xbc80ea8a	-0.015736837
142	0xbd8ea752	-0.069655076
143	0xbc8ae211	-0.0169535
144	0xbc5b9d0e	-0.013404144
145	0x3d096b35	0.033549506
146	0x3e1e636d	0.15467615
147	0x3e14f0e4	0.14545017
148	0x3dfb6c87	0.12276559
149	0x3dc797fa	0.09745784
150	0x3e0a23f8	0.13490283
151	0x3d162192	0.03665311
152	0xbd1c2051	-0.038116757
153	0xbc8ad438	-0.016946897
154	0x3da5f961	0.08104206
155	0x3d3202e7	0.0434598
156	0x39ea9566	0.00044743269
157	0x3c9fcaf2	0.019505952
158	0xbc1a8975	-0.009432186
159	0x3cefa585	0.02925373
160	0x3c95e8b0	0.01829943
161	0xbd9e08c4	-0.07716516
162	0x3d19a4dc	0.037510738
163	0xbd229ff8	-0.03970334
164	0x3cb1b7db	0.021694114
165	0x3d41555a	0.04720054
166	0x39e56cfb	0.0004375948
167	0x3d59a0ca	0.053131856
168	0xbc81c1de	-0.015839513
169	0x3cd7fd3f	0.026365874
170	0x3d4e7c4a	0.0504115
171	0xbd1f6024	-0.038910046
172	0xbd3046bb	-0.043036204
173	0xbd5fda14	-0.054651335
174	0xbdceeefd	-0.10104177
175	0x3c29a910	0.010355249
176	0x3d77ba2e	0.06048029
177	0xbdc3009a	-0.09521599
178	0x3d43017e	0.047608845
179	0x3d8a547f	0.067543976
180	0xbd51d7ca	-0.051231183
181	0x3d4f0965	0.05054607
182	0xbcbe6dce	-0.023245718
183	0xbdd7cf6e	-0.10537611
184	0x3d44ed4e	0.048077874
185	0x3cc175ad	0.023615682
186	0x3d3ee892	0.046608515
187	0x3e035a93	0.1282752
188	0x3cbddd19	0.023176717
189	0x3c49fc79	0.012328261
190	0x3d0d09c4	0.03443314
191	0x3c8c08d6	0.017094057
192	0x3d869d8a	0.06573017
193	0xbbf0ded9	-0.0073507843
194	0x3c5c938d	0.013462913
195	0x3d896226	0.067081735
196	0x3bc6e069	0.0060692322
197	0xbdaf95bf	-0.08573484
198	0xbc5c0758	-0.013429485
199	0x3cbcb6b9	0.023036348
200	0x3c21a80f	0.009866728
201	0x3c2ad3e5	0.010426496
202	0xbd70ae3b	-0.05875991
203	0xbd1fe7f7	-0.03903958
204	0x3c34a28c	0.011025082
205	0xbd0b4fa4	-0.034011498
206	0x3d54724b	0.05186681
207	0xbbcd1784	-0.006258907
208	0xbd28f2ff	-0.041247364
209	0x3bd9003e	0.0066223433
210	0xbd1842f1	-0.037173215
211	0x3d159148	0.036515504
212	0x3dc279d6	0.094958946
213	0x3bd3d041	0.006464035
214	0x3a415184	0.00073745125
215	0x3d71d22a	0.05903832
216	0xbda33621	-0.07969309
217	0x3c9e4a03	0.0193224
218	0x3dec8e3d	0.11550567
219	0xbcfd0816	-0.030887645
220	0xbcae5ceb	-0.021284541
221	0x3d8e46be	0.06947087
222	0x3d3ff48c	0.046864077
223	0x3d8818f7	0.06645387
224	0xbd17414c	-0.036927506
225	0xbd0866d5	-0.033301193
226	0xbdd04cc6	-0.10170893
227	0x3c7d0e7b	0.015445347
228	0xbd98d1a7	-0.07461863
229	0xbb9dbbd6	-0.0048136516
230	0x3ce49b43	0.027906066
231	0xbd43fd4f	-0.047848996
232	0xbc52ea3b	-0.012873228
233	0x3c5dfe8e	0.01354946
234	0x3db93358	0.09042996
235	0x3d901b0b	0.07036408
236	0x3d5ddc3d	0.054165114
237	0x3d1bb096	0.038010202
238	0x3d6b2c54	0.05741532
239	0xbd78d7af	-0.060752567
240	0xbcaa05df	-0.020754753
241	0x3b85ccd8	0.004083257
242	0xbd982b07	-0.07430082
243	0xbc470b11	-0.0121486345
244	0xbc895be2	-0.016767446
245	0xbdb44c70	-0.08803642
246	0x3c781edc	0.015144076
247	0xbd6817c9	-0.05666331
248	0xbcb2f677	-0.02184604
249	0xbb2af0e9	-0.0026083535
250	0xbbb308b3	-0.0054636835
251	0xbc810b50	-0.015752465
252	0x3d88e977	0.06685155
253	0x3d39e450	0.04538375
254	0xbdaaccdc	-0.08339855
255	0xbc0705b4	-0.008241106

cnn1.bias f4 [64]
0	0xbd5df1d8	-0.05418572
1	0xbc4e8439	-0.0126047665
2	0x3d16c875	0.036812264
3	0xbd5094fd	-0.050923336
4	0x3d162a36	0.03666135
5	0xbcbd676e	-0.023120608
6	0x3c3c3f81	0.01148975
7	0xbda628ca	-0.08113249
8	0x3b822d46	0.003972682
9	0x3da64c65	0.0812004
10	0xbb2bc788	-0.002621146
11	0x3d029d4a	0.031888284
12	0x3cbe85ba	0.023257125
13	0x3ab4c170	0.0013790559
14	0x3d8b6768	0.068068326
15	0xbd18bd7b	-0.037290078
16	0x3ca10a11	0.01965812
17	0x3c94812b	0.018127998
18	0x3d2a6a9c	0.041605577
19	0xbca197aa	-0.01972564
20	0x3d6dde4f	0.058073338
21	0xbcace621	-0.021105828
22	0x3da54d0a	0.08071335
23	0xbcea69fe	-0.028614994
24	0xbd1bab0d	-0.038004924
25	0xbcff9700	-0.031199932
26	0xbd33b9ce	-0.04387837
27	0x3ce13014	0.027488746
28	0xbd5585e7	-0.052129652
29	0xbd1fe36c	-0.039035246
30	0x3cc89da1	0.024489226
31	0xbc9e7407	-0.019342436
32	0xbd4bc764	-0.0497507
33	0xbd55eab0	-0.05222577
34	0xbcfd86e5	-0.030948112
35	0x3d60b57e	0.054860584
36	0x3d5c7e9d	0.053831685
37	0xbd494933	-0.049142074
38	0xbcded7d1	-0.027202519
39	0xbd2dd2ea	-0.04243747
40	0x3c8f38c3	0.01748312
41	0x3b4c9d13	0.0031221553
42	0xbd52424e	-0.051332764
43	0x3d1226d1	0.03568155
44	0xbd64bd50	-0.055844605
45	0x3c5c1a05	0.013433938
46	0xbd34ccc1	-0.04414058
47	0xbc2f0d43	-0.010684314
48	0xbc94154f	-0.018076567
49	0x3cde1f72	0.027114604
50	0x3b838260	0.0040133446
51	0xbc1705c2	-0.009217681
52	0x3d29aff4	0.041427568
53	0xbc32f698	-0.01092305
54	0xbcefe899	-0.029285716
55	0xbcec80a4	-0.028869934
56	0xbd657f3c	-0.056029543
57	0x3cc11190	0.023567945
58	0x3d66d247	0.05635288
59	0xbcdfa07b	-0.027298203
60	0x3d216adb	0.039408546
61	0x3d870ef8	0.06594652
62	0x3d500efb	0.050795536
63	0xbc0f645a	-0.008751953

fc1.weight f4 [32, 1024]
0	0x3be6f6a8	0.0070484467
1	0x3c0e9259	0.008701884
2	0xbd15a62a	-0.03653542
3	0xbc8159ee	-0.015789952
4	0xbcb43770	-0.02199909
5	0x3d911c60	0.0708549
6	0x3d734b68	0.059398085
7	0x3d42cec0	0.047560453
8	0xbd8c5347	-0.068518214
9	0x3d93337e	0.07187556
10	0xbcc22b0c	-0.023702167
11	0xbc5eddbe	-0.013602672
12	0x3d730d8d	0.059339095
13	0x3e11d220	0.14240313
14	0xbc8c3a4d	-0.017117644
15	0x3d007b51	0.031367604
16	0x3c6a5d00	0.0143043995
17	0xbca5b4ca	-0.020227809
18	0x3d977b17	0.073965244
19	0x3a8a924a	0.0010572162
20	0xbd52befd	-0.051451672
21	0x3cf5eb0a	0.030019302
22	0xbd4c1f71	-0.049834672
23	0x3cda6cb4	0.026663162
24	0x3cb07014	0.021537818
25	0x3c59e05a	0.0132981185
26	0x3ca0c876	0.019626837
27	0x3dae990e	0.085252866
28	0xbc5755de	-0.013143031
29	0xbbed01c8	-0.0072328784
30	0x3d579171	0.052628938
31	0x3d10f70e	0.03539186
32	0x3ce9bdf8	0.028532967
33	0x3dad5157	0.0846278
34	0x3d9b4f14	0.07583442
35	0x3d83ef24	0.06442097
36	0xbd6c8547	-0.05774429
37	0x3b413813	0.0029482886
38	0xbc936641	-0.017993094
39	0xbc7b7ffe	-0.01535034
40	0xbda53bd1	-0.0806805
41	0xbde4a7a5	-0.11164788
42	0xbd47d4e9	-0.04878703
43	0xba856d05	-0.0010179585
44	0x3ba90065	0.0051575177
45	0x3c8a0a33	0.016850566
46	0xbcb0ba9e	-0.021573361
47	0xbd3d570c	-0.046225592
48	0x3c65c9de	0.01402518
49	0x3d3f3f34	0.046691135
50	0x3d6aa2c7	0.057284143
51	0x3cf745c3	0.030184632
52	0x3cafe28e	0.021470334
53	0xbc41c169	-0.011825898
54	0x3cc065fa	0.023486126
55	0xbbb7d2c3	-0.0056098416
56	0xbc90799b	-0.017636111
57	0x3cd3503f	0.0257951
58	0x3c89efe7	0.016838027
59	0xbd3bd5c3	-0.045858156
60	0x3c7594ce	0.014989091
61	0xbc27137c	-0.0101975165
62	0x3dc7522b	0.09732469
63	0xbbe8ecf1	-0.0071083237
64	0x3cb7170a	0.022349853
65	0x3b644457	0.0034830773
66	0xbd7d6da5	-0.061872143
67	0xbe14883f	-0.14505099
68	0x3d687e79	0.05676124
69	0xbc221392	-0.009892361
70	0xbcbfacb5	-0.023397783
71	0x3d259eb4	0.040434554
72	0xbd2b295d	-0.041787494
73	0xbd0d8d78	-0.034558743
74	0xbde5aac5	-0.11214212
75	0xbc4acacc	-0.012377452
76	0xbdb14d42	-0.08657314
77	0xbc29efe1	-0.010372133
78	0x3c0e6da8	0.008693136
79	0xbd4ba50f	-0.04971796
80	0x3c9383d9	0.018007206
81	0xbd74ba67	-0.05974808
82	0xbd54054b	-0.05176286
83	0xbcafc9b7	-0.02145849
84	0xbd47c478	-0.04877135
85	0xbd3b96cd	-0.04579811
86	0x3c1b531d	0.009480265
87	0xbce13155	-0.027489344
88	0xbb5dc61e	-0.003384001
89	0x3d235e20	0.039884686
90	0xbd2b86ab	-0.041876476
91	0x3c827d0f	0.015928773
92	0x3cba50e7	0.022743655
93	0x3cab3219	0.020897912
94	0x3cbf0907	0.023319734
95	0xbd72cd6a	-0.05927793
96	0x3d0e4279	0.034731362
97	0x3baf1ff6	0.005344386
98	0x3dbe21af	0.092837684
99	0x3bfe02d4	0.007751802
100	0x3d8e47d4	0.06947294
101	0x3d137c4b	0.036007207
102	0xbce099a2	-0.027417008
103	0x3d44c4d7	0.048039284
104	0x3d2afbff	0.04174423
105	0xbd90f371	-0.07077683
106	0xbc0f8745	-0.008760278
107	0x3d8bda16	0.06828706
108	0xbc8a9543	-0.016916877
109	0x3de799a7	0.11308604
110	0xbc0a9cb2	-0.008460211
111	0x3cef4d0c	0.029211544
112	0xbd1c4f57	-0.038161602
113	0x3da718ec	0.0815905
114	0x3cee5e44	0.029097684
115	0x3cbb4c78	0.022863612
116	0x3c3d5246	0.01155526
117	0x3cb77ef5	0.022399405
118	0xbcb5282f	-0.022113888
119	0x3daa658c	0.0832015
120	0xbcf41e2d	-0.029799545
121	0xbd640946	-0.055672906
122	0xbce07bfe	-0.027402874
123	0x3c8451d5	0.016152302
124	0x3d8f99b8	0.070117414
125	0x3d2242f2	0.039614625
126	0xbdbb38a9	-0.091416664
127	0xbd07bfac	-0.033141777
128	0x3d187ba8	0.037227303
129	0x3d3b855e	0.045781486
130	0x3d6070e2	0.054795153
131	0xbd50a731	-0.050940696
132	0x3d294c75	0.04133268
133	0xbc8313d0	-0.016000658
134	0x3d0d3a52	0.034479447
135	0xbc2af342	-0.010433974
136	0xbc72160c	-0.014775764
137	0x3bbd5972	0.005778485
138	0xbc40638b	-0.011742483
139	0xbca0da04	-0.019635208
140	0xbb5c9d8a	-0.0033663237
141	0x3cb0bb20	0.021573603
142	0x3b95ff75	0.004577572
143	0x3d0fdbd2	0.035121746
144	0xbdd3522c	-0.103184074
145	0xbd833957	-0.06407421
146	0xbc9bbae5	-0.019010017
147	0x3d1832cb	0.037157815
148	0xbcb06e76	-0.021537047
149	0xbc7b03e0	-0.015320748
150	0xbc906f42	-0.017631177
151	0xbd3914f1	-0.045185987
152	0xbcd9c62e	-0.026583757
153	0xbdbd51b2	-0.09244098
154	0x3ca6ed41	0.020376803
155	0xbd434b5a	-0.047679283
156	0xbd2da2f9	-0.04239175
157	0xbb8651fc	-0.004099129
158	0x3b3b7071	0.0028600956
159	0xbdd950c6	-0.106111094
160	0x3d8d14b9	0.06888718
161	0xbd6199b1	-0.055078212
162	0x3cd86af7	0.026418192
163	0x3c80534f	0.015664725
164	0xbcf106ba	-0.029422153
165	0xbd8d1ad0	-0.0688988
166	0xbd8c1b16	-0.06841104
167	0x3dbb61b4	0.09149495
168	0xbd2afcaa	-0.041744865
169	0xb9d7b57c	-0.00041143212
170	0xbc8a733e	-0.016900655
171	0xbd7c805a	-0.061645843
172	0xbd3b4080	-0.04571581
173	0x3b971502	0.0046106586
174	0xbd117ff6	-0.035522424
175	0xbd1f2607	-0.038854625
176	0xbd9c81cc	-0.07641944
177	0xbcb287ef	-0.021793334
178	0x3d416f9f	0.04722559
179	0xbd8eb93d	-0.06968925
180	0xbcb89022	-0.022529665
181	0x3d3c90d8	0.04603657
182	0xbbc91fe9	-0.006137837
183	0x3d033a1d	0.032037843
184	0x3d9e4652	0.07728256
185	0x3c8033a6	0.015649628
186	0xbd4b9a95	-0.049707968
187	0x3d1e1a33	0.038599204
188	0xbd57f2cc	-0.052721784
189	0xbc0392ee	-0.008030636
190	0x3b96c187	0.004600707
191	0xbd639927	-0.05556598
192	0x3d0aff3b	0.033934813
193	0xbd1d60ec	-0.03842251
194	0xbc1c6f45	-0.009548013
195	0xbd3f1dea	-0.046659388
196	0x3c7d1587	0.015447027
197	0xbca58d5d	-0.020209009
198	0x3de7793e	0.11302422
199	0x3d1b846e	0.03796809
200	0x3cbfbc46	0.023405205
201	0x3ba5a682	0.0050552497
202	0xbc88c374	-0.016694762
203	0x3d15bcff	0.036557194
204	0x3cf559dc	0.029950075
205	0x3cab641f	0.020921765
206	0x3c650c5e	0.013979999
207	0xbba3763c	-0.00498846
208	0xbd74553e	-0.059651606
209	0x3d5c3e48	0.053770334
210	0x3d1b724a	0.03795079
211	0xbc13e570	-0.00902687
212	0xbd7c9aac	-0.061670944
213	0xbd3b95da	-0.045797206
214	0xbcaf2014	-0.0213776
215	0xbb815a3a	-0.0039475234
216	0xbc9ed2ee	-0.019387688
217	0xbd9f65a0	-0.07783055
218	0xbdd695af	-0.10477769
219	0x3ccd4e48	0.025061741
220	0x3d503756	0.050834022
221	0xbd5c8b79	-0.05384395
222	0x3d9bb88d	0.0760356
223	0x3da8c69f	0.08241009
224	0x3d40f17a	0.04710529
225	0xbd353351	-0.044238392
226	0xbc372e26	-0.011180436
227	0x3c0a0653	0.008424359
228	0x3cc6b279	0.024255024
229	0x3d88f218	0.06686801
230	0xbd899451	-0.06717742
231	0xbce0cb8c	-0.027440809
232	0x3becc36d	0.007225445
233	0x3c9ff929	0.019527989
234	0x3bdd3fa3	0.006751971
235	0xbda2b360	-0.07944369
236	0xbd320883	-0.04346515
237	0xbde09fcf	-0.10967981
238	0xbc9f5faf	-0.019454805
239	0xbd51fa18	-0.0512639
240	0xbcabdf30	-0.020980448
241	0xbd7ee979	-0.062234376
242	0x3d7100a8	0.058838516
243	0x3c68a6a1	0.014199884
244	0xbd9c13f1	-0.07620991
245	0xbc2ebbf8	-0.010664932
246	0x3d35062c	0.04419534
247	0xbb8fa02b	-0.004383107
248	0xbc8bd270	-0.017068118
249	0xbda899a6	-0.08232431
250	0xbd9b9f3a	-0.075987294
251	0xbd01fce0	-0.0317353
252	0xbaa76816	-0.0012772109
253	0xbd2c01d9	-0.04199395
254	0xbdbacf45	-0.09121565
255	0xbd1610cd	-0.036637116

fc1.bias f4 [32]
0	0x3ca91f3f	0.020644782
1	0xbd017b32	-0.03161163
2	0x3c07bd3a	0.008284861
3	0xbbe659de	-0.007029756
4	0xbce7193c	-0.028210275
5	0x3c84f540	0.016230226
6	0xbc2a4ca9	-0.010394254
7	0xbcc0cbc6	-0.023534667
8	0x3bf8d624	0.007593887
9	0x3caaa04b	0.020828387
10	0xbcf80ade	-0.03027862
11	0xbcbcd984	-0.023052938
12	0x3c9c88c9	0.019108193
13	0xbca6a6ce	-0.02034321
14	0xbcc62cae	-0.024191227
15	0x3aa61788	0.0012671808
16	0x3c9280f1	0.01788375
17	0x3bbe2bbc	0.0058035534
18	0x3d68d628	0.05684486
19	0xbb14296b	-0.0022607695
20	0xbd0c2123	-0.03421129
21	0xbb7e0820	-0.0038762167
22	0x3d5755db	0.052572113
23	0xbd006d6b	-0.03135435
24	0x3c0529a4	0.008127604
25	0xbce77d6c	-0.028258048
26	0xbba10b83	-0.0049147024
27	0x3c576095	0.013145586
28	0xbcc836a5	-0.024440119
29	0x3c44f817	0.01202204
30	0xba564068	-0.00081730494
31	0x3be221d4	0.0069010053

fc2.weight f4 [16, 32]
0	0xbe08cc15	-0.13359101
1	0x3d9d4739	0.076796
2	0x3de49057	0.11160343
3	0x3dc5c147	0.09656005
4	0xbde2f435	-0.11081735
5	0x3f07c818	0.53039694
6	0xbd13af80	-0.03605604
7	0x3f082eee	0.5319661
8	0xbe171a66	-0.14756164
9	0xbdc9fc61	-0.098625906
10	0xbe533515	-0.20625718
11	0xbe00bac1	-0.12571241
12	0x3eb46a13	0.35237178
13	0x3df24b66	0.11830787
14	0x3ed88236	0.42286843
15	0xbe558b60	-0.20853949
16	0x3dc6c852	0.09706177
17	0x3e0632e4	0.1310535
18	0xbeed3b8e	-0.463345
19	0x3e01750f	0.1264231
20	0xbb0b275e	-0.0021233181
21	0x3e41ebd1	0.18937613
22	0xbee70276	-0.45119065
23	0x3e62039a	0.22071686
24	0xbd6f3f96	-0.05841025
25	0x3eca43e0	0.3950491
26	0x3e91a336	0.28444833
27	0xbd1963ac	-0.03744857
28	0x3dec18ee	0.115281925
29	0x3db5f41c	0.08884451
30	0x3cea40f3	0.028595423
31	0xbeb2b5d9	-0.34904364
32	0x3ea5500b	0.3228763
33	0x3e7aec83	0.24504285
34	0xbde0d874	-0.10978785
35	0xbd52d8d0	-0.0514763
36	0x3ca7f252	0.02050129
37	0xbe1d476e	-0.1535928
38	0x3de973ce	0.11399041
39	0x3e9c6109	0.30542782
40	0xbe73b01d	-0.2379765
41	0xbe0d6f9a	-0.13812104
42	0x3e81c542	0.25345808
43	0xbe2335a3	-0.1593843
44	0x3cc346a3	0.023837393
45	0xbe150d60	-0.14555883
46	0xbd96cfd0	-0.07363856
47	0xbd6485fd	-0.055791844
48	0x3e30a14c	0.1724903
49	0x3f19dc00	0.6010132
50	0xbdc689e3	-0.096942686
51	0x3e25b1a9	0.16181053
52	0x3ebc18bc	0.3673762
53	0x3e7f24d2	0.2491639
54	0x3ea2e2cd	0.3181366
55	0xbe385e74	-0.18004781
56	0xbd1709a5	-0.036874432
57	0x3e46d7ad	0.19418211
58	0x3e58d0dd	0.21173425
59	0xbea87c2e	-0.32907242
60	0x3df8b1ef	0.12143313
61	0x3d5b5dda	0.0535563
62	0x3de9c970	0.11415374
63	0xbe060b33	-0.1309021
64	0x3edab60a	0.4271701
65	0xbe6dd23f	-0.23224734
66	0xbe5edaf7	-0.21763216
67	0x3d378eeb	0.04481403
68	0xbecf5d7f	-0.4050102
69	0xbde11e3e	-0.10992096
70	0x3e497b25	0.19675882
71	0xbca4347b	-0.020044556
72	0x3ee64f9c	0.44982612
73	0x3e393d71	0.18089844
74	0xbe3227e3	-0.17398028
75	0xbd5fd026	-0.054641865
76	0x3dcf3048	0.10116631
77	0xbda380a3	-0.0798352
78	0x3d85b86e	0.06529318
79	0x3c3caa17	0.011515162
80	0x3e6a0a6a	0.22855535
81	0x3c1a2423	0.00940803
82	0x3e9e90e6	0.30969924
83	0xbe9a9d6b	-0.30198225
84	0x3d5f6ee5	0.054549117
85	0x3f202991	0.62563425
86	0xbe82e603	-0.2556611
87	0xbdc1838f	-0.09448921
88	0xbecd6392	-0.4011503
89	0xbebceb77	-0.36898395
90	0x3d963880	0.07334995
91	0xbbe980d5	-0.0071259537
92	0xbdf469ec	-0.119342655
93	0x3e59b9b3	0.21262245
94	0x3e02d5df	0.12776898
95	0xbe5d212f	-0.2159469
96	0xbe61c5e8	-0.22048151
97	0xbe8562fa	-0.26052076
98	0xbe4d6ae0	-0.20060301
99	0xbe26b097	-0.16278301
100	0xbd589d49	-0.052884374
101	0x3d9e53f6	0.07730858
102	0x3ec1e3d9	0.37869146
103	0x3e06b4bc	0.13154882
104	0x3e595eb2	0.2122753
105	0x3bb63557	0.005560558
106	0xbc53d3df	-0.012928932
107	0xbe1597fe	-0.14608762
108	0x3ea1e8c2	0.31622893
109	0x3e648627	0.223168
110	0xbc86bb73	-0.016446805
111	0x3d9352e7	0.07193547
112	0x3f39431b	0.7236802
113	0xbad80380	-0.0016480535
114	0xbdc1fa76	-0.094716
115	0xbe8fad34	-0.2806183
116	0x3d1d18d6	0.038353764
117	0x3cc96008	0.024581924
118	0x3ebd6503	0.36991128
119	0x3c2735aa	0.010205666
120	0x3e1e4a71	0.15458085
121	0x3bc66d65	0.0060555213
122	0xbd6be89a	-0.057594873
123	0xbe3a149d	-0.18171926
124	0xbd95dd7e	-0.07317637
125	0x3e1d0d94	0.15337211
126	0x3e0ee2d9	0.13953723
127	0xbd4514fb	-0.04811571
128	0x3eca4b5d	0.39510623
129	0x3e6f34bd	0.23359962
130	0x3d78c5f7	0.06073567
131	0xbdc2d4d4	-0.0951325
132	0xbd57f8d7	-0.052727547
133	0x3a95bbfd	0.0011423823
134	0x3e52c8e0	0.2058444
135	0xbef1201b	-0.47094807
136	0x3e32038f	0.1738417
137	0x3ea9883a	0.33111745
138	0x3d746638	0.059667796
139	0x3e836766	0.25664824
140	0xbe4087cb	-0.18801801
141	0xbd03d3cb	-0.032184403
142	0x3dd97f49	0.10619981
143	0x3eb84ce9	0.35996178
144	0x3eeb6a5c	0.45979583
145	0xbea5e817	-0.32403633
146	0xbe970a88	-0.29500222
147	0xbec42a9c	-0.38313758
148	0x3ebbe123	0.36695203
149	0xbcbccacd	-0.023045922
150	0xbeb63588	-0.35587716
151	0x3e014c94	0.12626868
152	0x3dc317da	0.09526034
153	0xbe5c00f5	-0.2148474
154	0xbd53323a	-0.05156157
155	0x3df4f403	0.11960604
156	0xbee6d178	-0.45081687
157	0x3e1eb020	0.15496874
158	0xbd3bfcde	-0.04589545
159	0x3e8f3352	0.27968842
160	0x3e8943e3	0.26809606
161	0xbe2db32d	-0.16962881
162	0x3e15f6b6	0.14644894
163	0x3e0b7aed	0.13621111
164	0xbe43fa82	-0.1913853
165	0xbd41d389	-0.047320876
166	0x3e28c904	0.16482931
167	0x3d6fb030	0.058517635
168	0x3ec97a75	0.3935124
169	0x3c9e2794	0.019305982
170	0x3cf84c93	0.030309951
171	0xbea8f2fc	-0.32997882
172	0xbe5cdf7a	-0.21569625
173	0x3edc28dd	0.42999926
174	0xbd00903d	-0.031387556
175	0xbd2ac117	-0.04168805
176	0xbeb7e014	-0.35913146
177	0xbe3e6e01	-0.1859665
178	0xbc609bd7	-0.01370903
179	0xbe94e8ff	-0.29084012
180	0x3e40b5a3	0.18819289
181	0xbe007f95	-0.12548669
182	0x3db21cca	0.08696897
183	0x3d5bce62	0.05366362
184	0xbe953685	-0.29143158
185	0xbd34f0a6	-0.044174813
186	0xbe831b5c	-0.2560681
187	0xbc1bb36a	-0.009503225
188	0x3e2cf943	0.16891961
189	0x3dea942f	0.11454045
190	0xbe72b671	-0.23702408
191	0xbdb0993d	-0.08622978
192	0x3ca454d3	0.020059979
193	0xbe271ba0	-0.16319132
194	0xbe6e0c9e	-0.23247
195	0xbe8aeabf	-0.27132222
196	0x3e7c9049	0.24664415
197	0x3ecae949	0.39631107
198	0xbe5b563b	-0.21419613
199	0x3f0304d3	0.51179236
200	0x3ef85242	0.48500258
201	0x3e06f2a9	0.13178505
202	0x3ea9ea6d	0.33186665
203	0x3c84c593	0.016207492
204	0xbe6dc3f3	-0.2321928
205	0x3dc64394	0.09680858
206	0xbe626ac3	-0.22111039
207	0x3cbf2404	0.023332603
208	0x3ebf8b84	0.3741113
209	0x3e3f9c57	0.18711983
210	0xbe1aeeaf	-0.15130113
211	0xbdfb4336	-0.12268679
212	0x3e95cfab	0.2926
213	0x3e77af8d	0.24188061
214	0xbe43af73	-0.19109897
215	0xbe151039	-0.1455697
216	0x3ea3a3a1	0.31960776
217	0x3eecdbaa	0.4626134
218	0xbea2619e	-0.317151
219	0xbe395724	-0.18099648
220	0xbdbaaee3	-0.09115388
221	0x3e4599a9	0.19296898
222	0xbeae4990	-0.340405
223	0xbded8e81	-0.11599446
224	0x3d012e7f	0.031538483
225	0xbe9d38c1	-0.30707362
226	0xbe9473b9	-0.2899454
227	0x3e0dbe8d	0.1384222
228	0xbe28885b	-0.16458265
229	0xbd738d6f	-0.059461053
230	0x3e339ad7	0.17539535
231	0x3d63bcf4	0.05560012
232	0xbefa62be	-0.4890346
233	0xbf17836a	-0.59184897
234	0xbe168d7e	-0.14702412
235	0x3ea71c42	0.32638747
236	0xbe3e7d5c	-0.18602508
237	0x3e44b402	0.19209293
238	0xbe8132d6	-0.25234097
239	0xbd4b749f	-0.049671765
240	0xbc05d11d	-0.008167532
241	0xbc71d368	-0.014759876
242	0x3e243bc0	0.16038418
243	0x3e37203e	0.17883393
244	0xbd73199a	-0.059350587
245	0xbd63a416	-0.055576406
246	0x3d9b0d0d	0.075708486
247	0x3de17fda	0.11010714
248	0x3e5653dd	0.20930429
249	0x3c57affd	0.0131645175
250	0xbdb8569f	-0.09000897
251	0xbf0f5102	-0.55982983
252	0xbce1c4de	-0.027559694
253	0xbc1bb460	-0.009503454
254	0xbe5de922	-0.21670964
255	0x3f086fb9	0.53295475

fc2.bias f4 [16]
0	0x3d8277fe	0.06370543
1	0xbd91fd0f	-0.07128345
2	0x3c99d526	0.018778395
3	0xbd9776d9	-0.07395715
4	0x3cf89042	0.030342225
5	0x3dd4b559	0.10386152
6	0x3c737896	0.014860293
7	0xbd9ed18b	-0.07754811
8	0xbd9e480d	-0.07728586
9	0x3d91025e	0.0708053
10	0xbd3d1552	-0.04616291
11	0xbd7ba912	-0.061440535
12	0x3dc5df24	0.09661701
13	0x3e646b30	0.22306514
14	0xbe1aef6f	-0.15130399
15	0x3e1d3c55	0.15355046

hidden_to_output.weight f4 [10, 16]
0	0xbef4cb23	-0.4781123
1	0xbe399ce9	-0.18126263
2	0x3f2c6e88	0.6735616
3	0x3e8658d9	0.2623966
4	0x3e88feae	0.26756805
5	0x3f12a26f	0.57279104
6	0x3df433bf	0.11923932
7	0x3de80276	0.113285944
8	0xbe212e87	-0.15740405
9	0xbef81ada	-0.48457986
10	0xbb1e54de	-0.0024159472
11	0xbf40d765	-0.75328666
12	0xbf0acda6	-0.54220045
13	0x3e92a5d4	0.28642142
14	0x3e599dd9	0.2125162
15	0xbe02f93a	-0.12790385
16	0xbed85c4e	-0.42257923
17	0x3e0002a4	0.12501007
18	0x3da0f430	0.07859075
19	0x3e9f7863	0.31146535
20	0xbe411a47	-0.1885768
21	0xbea6a4df	-0.32547662
22	0xbed89621	-0.4230204
23	0x3e8e19bc	0.2775401
24	0xbeeb6ee3	-0.45983037
25	0xbec065e4	-0.37577736
26	0xbe2f66b3	-0.1712902
27	0x3ede4c1e	0.43417448
28	0x3ecd1bc7	0.40060255
29	0xbef3bade	-0.47603506
30	0x3f3ea4fb	0.7447049
31	0xbee36549	-0.44413212
32	0x3df59b20	0.11992478
33	0x3db8a0e5	0.09015063
34	0x3f22ffb2	0.6367141
35	0x3e878bed	0.26473942
36	0x3dac496c	0.084124416
37	0xbe1a58bd	-0.15072913
38	0xbf07f132	-0.5310241
39	0xbf02904a	-0.5100142
40	0xbf2bf33e	-0.67168033
41	0x3e4d9c6a	0.20079198
42	0x3ed6bba9	0.41940048
43	0xbe06d089	-0.13165487
44	0xbe098195	-0.13428338
45	0x3e893a62	0.26802355
46	0xbd8f2c9b	-0.0699093
47	0xbe4365e3	-0.19081835
48	0x3ec358b7	0.38153622
49	0x3e2f1806	0.17099008
50	0xbe89e465	-0.26932064
51	0x3ef4bce8	0.47800374
52	0xbedac18a	-0.42725784
53	0xbe3a38c9	-0.18185724
54	0x3e6a89b8	0.22904098
55	0xbeb4eb1d	-0.35335627
56	0xbee4b576	-0.44669694
57	0xbec82443	-0.39090165
58	0x3e7c22ad	0.24622603
59	0xbe57c0f7	-0.21069704
60	0xbe52e0c9	-0.20593561
61	0x3e84208f	0.2580609
62	0xbec5a34c	-0.38601148
63	0xbed86165	-0.42261806
64	0xbf3642d8	-0.71195745
65	0x3d62d065	0.05537452
66	0x3cc0dddf	0.023543296
67	0xbe00f85c	-0.12594742
68	0x3e3dee64	0.1854797
69	0xbf28c2bb	-0.65922135
70	0x3d47b0e7	0.04875269
71	0xbeb0c72f	-0.34526965
72	0x3d555b24	0.05208887
73	0x3e4c80b0	0.19970965
74	0x3ce5adfb	0.028037062
75	0xbf080047	-0.53125423
76	0x3f28321b	0.65701455
77	0xbee511b5	-0.44740072
78	0xbdaded97	-0.08492582
79	0x3dce00a6	0.100587174
80	0x3e06645b	0.1312422
81	0x3eb3cca0	0.35117054
82	0xbe236503	-0.15956502
83	0xbe2b7f66	-0.16747817
84	0xbef9dc99	-0.48801115
85	0xbef8f1ad	-0.48621884
86	0x3ed9a82a	0.42511111
87	0xbe2cf410	-0.16889977
88	0x3d99e8e0	0.075151205
89	0xbdf4f187	-0.1196013
90	0xbe973257	-0.29530594
91	0x3edc3aac	0.43013513
92	0xbd146850	-0.036232293
93	0xbca30e8c	-0.019904397
94	0xbe7272b7	-0.23676573
95	0x3cd2acbb	0.02571713
96	0xbed27b3c	-0.41109645
97	0xbd27c649	-0.040960584
98	0x3d9d55d2	0.076823846
99	0xbe987410	-0.2977605
100	0x3d6147e1	0.05500019
101	0x3da273d7	0.07932251
102	0x3e17abbf	0.1481161
103	0xbd0f14ed	-0.034932066
104	0xbc8b9dc2	-0.017042998
105	0x3d812c7d	0.063073136
106	0xbe8fa5ee	-0.28056282
107	0xbe9806a2	-0.2969256
108	0x3e225748	0.15853608
109	0xbc345071	-0.011005507
110	0xbdec8641	-0.115490444
111	0x3ed1b210	0.40956163
112	0xbed24334	-0.41066897
113	0xbe21ce0a	-0.15801254
114	0xbe9f8b42	-0.31160933
115	0x3effcc92	0.49960762
116	0x3e960b94	0.29305708
117	0xbd5d2fb2	-0.054000564
118	0x3e62f8e2	0.22165254
119	0xbd601e61	-0.05471647
120	0xbc99e5de	-0.018786367
121	0x3e09f3cb	0.13471906
122	0x3ea1f83b	0.31634697
123	0xbee06f96	-0.43835133
124	0x3e399cdf	0.18126248
125	0xbf273715	-0.65318424
126	0xbdcd2072	-0.10015954
127	0xbf11dc2f	-0.569766
128	0x3eaefdc0	0.3417797
129	0xbe8cedb5	-0.27525106
130	0xbe367787	-0.17819034
131	0xbf0da414	-0.5532849
132	0xbe30ef23	-0.17278723
133	0xbe04e1a3	-0.12976699
134	0xbf04a42c	-0.51813006
135	0xbf476d55	-0.779012
136	0xbee090e6	-0.4386055
137	0xbf0cb505	-0.54963714
138	0x3e0bb161	0.13641883
139	0xbe860fb8	-0.26183867
140	0x3f0f20ea	0.559096
141	0x3ec5c5e5	0.38627544
142	0xbcbd36e9	-0.023097472
143	0x3e8adcf6	0.27121705
144	0xbe997e62	-0.29979235
145	0xbf39543f	-0.72394174
146	0xbdf6a972	-0.12044038
147	0x3e614729	0.21999802
148	0x3e0a6d66	0.13518295
149	0xbde64e1b	-0.11245366
150	0x3e1393b9	0.1441182
151	0xbe658000	-0.2241211
152	0x3eb317a0	0.34978962
153	0xbe174527	-0.14772473
154	0xbe88d17f	-0.26722333
155	0x3ec5868e	0.3857922
156	0xbe8b08a6	-0.27155036
157	0xbd06e109	-0.032929454
158	0xbeac4f50	-0.3365426
159	0x3efeee57	0.49791214

hidden_to_output.bias f4 [10]
0	0xbe9c1329	-0.30483368
1	0x3e5dafdf	0.21649121
2	0xbe70c5cd	-0.23512955
3	0x3e564ea5	0.20928438
4	0x3d286c7c	0.041119084
5	0xbe909dcb	-0.28245386
6	0x3eea398e	0.45747036
7	0xbdfe624f	-0.124210946
8	0x3e66ad1b	0.22526972
9	0xbe4602e0	-0.19337034
