models/dnn-classifier.pth (torch, 73429 bytes, 8 tensors)

input_to_hidden.weight f4 [128, 54]
000000 95 3b 66 3e f0 d0 01 3d 20 5c 74 3d 46 4f 1a be
       0.22483666 0.0316934 0.05965817 -0.15069303
000010 77 39 2d 3e c6 96 80 bf d8 ac 3f 3e f1 68 c1 bd
       0.16916452 -1.0046012 0.18718278 -0.09443844
000020 52 b3 de 3c c1 5b 4e 3f 11 d3 2f 3e f5 9d 73 be
       0.027185116 0.80608755 0.17170359 -0.23790725
000030 bb 34 94 3d 70 82 ae 3c 06 85 9d 3c d2 57 25 bd
       0.0723662 0.021302432 0.01922847 -0.040366955
000040 e7 d6 1f bd a9 81 ad 3d f1 2c c5 3d 31 00 9e bd
       -0.039023306 0.08471996 0.096277125 -0.0771488
000050 3c aa 47 3f 32 0e 8a 3e c9 f3 03 bc 49 81 3e 3e
       0.7799413 0.26963955 -0.008053728 0.18604006
000060 4c c7 07 3e ac 6c 81 be 8f 96 50 3e cd aa 30 ba
       0.1325962 -0.25278223 0.20369934 -0.00067393185
000070 25 9d 2b 3f 48 74 de 3c b3 53 cb 3d 12 96 b2 bd
       0.6703666 0.027155057 0.09928074 -0.0872003
000080 f6 71 ae 3d 22 8a 97 bc 0a c6 a5 3c e2 a7 5d be
       0.0851783 -0.018498484 0.020236034 -0.21646073
000090 86 5a 30 3e 3a 03 80 be 1e 3e 5e bd 07 f9 90 3d
       0.17222032 -0.25002462 -0.05425846 0.07078748
0000a0 06 2d 4e bd 82 2b ad 3d 12 39 37 bd 89 e6 b9 be
       -0.050335906 0.08455564 -0.04473216 -0.36308697
0000b0 37 3f 67 be e1 00 14 be 7a 4e 0b 3e 45 8d 5d 3d
       -0.22582708 -0.1445346 0.13604155 0.054089803
0000c0 c4 98 5c bd 5f 2f 04 3d 96 da 61 3e e4 35 3b be
       -0.053856626 0.03227174 0.2205604 -0.18282276
0000d0 75 07 be bd 48 c5 58 be 3b b2 66 3f 93 62 ce bd
       -0.09278766 -0.21169007 0.9011571 -0.10077395
0000e0 da fa 86 3d a4 0b 5e 3d a1 50 f3 be 9d 7e 98 3e
       0.06590815 0.05421032 -0.47522452 0.29784098
0000f0 c6 cd 89 3b de 93 15 3e d3 a7 67 be 62 56 16 3f
       0.0042054383 0.14607188 -0.22622614 0.5872556
000100 44 37 d7 3d c9 62 ad be 3f 0c 11 3e 9e 4c 82 be
       0.10508588 -0.3386443 0.14164828 -0.2544908
000110 f8 d1 96 3e 92 98 89 3e 86 be bf 3e 7f f1 49 3e
       0.29457068 0.26874214 0.37450045 0.1972103
000120 90 9c 9c 3e 41 56 c6 3e 7f 73 05 3e 6f 9a 01 bd
       0.30588198 0.38737682 0.1303234 -0.03164142
000130 26 63 36 3e 0f 47 aa 3e 9d 51 a1 3e a7 d5 92 3e
       0.1781126 0.33257338 0.31507578 0.2867863
000140 d9 9d 64 3e 55 5c 36 3e f7 81 da 3e 13 23 c7 bd
       0.22325839 0.1780866 0.4267728 -0.09723487
000150 cd f6 af 3d fa ac 7d 3d 7c 3c 9b bd 7e 97 ef bc
       0.085919954 0.06193254 -0.07579896 -0.029247042
000160 77 85 01 3b 40 6e 39 bd ae 24 f0 be 3b ff 39 3d
       0.001976339 -0.04527116 -0.46902984 0.045409422
000170 4f 96 32 3e 6a 3b 2e 3d 4a 92 c4 bc c3 be 6e 3d
       0.1744015 0.04253713 -0.023995537 0.058287393
000180 35 d3 e5 3d bf c6 9e be 4c 15 8a 3e b7 d5 6d 3e
       0.11221925 -0.31011006 0.26969373 0.23226057
000190 64 dc 88 3e 58 fb 00 bd 89 43 8a 3d e9 2c e1 3d
       0.26730645 -0.0314897 0.067511626 0.10994894
0001a0 40 f7 1c 3f 12 fe e3 bc 4d 11 89 3c d5 83 03 bd
       0.61314774 -0.027831111 0.016731882 -0.032108147
0001b0 b9 7d c9 be ca 1d 91 3d 78 f1 a5 bb 2c 0c 62 bd
       -0.3935373 0.0708576 -0.0050641857 -0.05518739
0001c0 70 f7 dd 3e 40 f7 d5 3e b3 04 70 be e8 c8 13 3e
       0.43352842 0.417902 -0.23439293 0.14432108
0001d0 8c 82 08 be 54 89 3d 3f d1 19 78 3e 6d 72 f4 3d
       -0.1333105 0.7403767 0.24228598 0.119358875
0001e0 2d 12 b9 be 76 f5 8d 3e 67 72 3b 3d c4 fd 26 be
       -0.3614668 0.27726334 0.0457634 -0.16307741
0001f0 8f 45 b4 bc 37 ae 02 bc da d1 75 3d 33 a4 c5 bd
       -0.022005824 -0.007976106 0.060014583 -0.09650459
000200 68 a4 e3 bc db 80 62 3c cc 27 17 3d a6 52 f0 3d
       -0.027788356 0.013824667 0.036903188 0.11734514
000210 09 c6 44 3e 6a 31 96 be ee dc 57 3e e2 f5 02 bc
       0.1921617 -0.29334575 0.21080372 -0.007993193
000220 dd 8d fe 3e ba 15 2e be 6d 45 5d bd ee 65 70 bd
       0.49717608 -0.17000476 -0.054021288 -0.058690958
000230 4d fe b3 3d ac 97 ed 3d d8 b4 8c 3d 6c 58 7e 3e
       0.087887384 0.11601195 0.06870431 0.24838418
000240 5e eb aa 3e 4a 90 a4 3d 34 7e 69 bc 72 c0 96 3d
       0.33382696 0.080353335 -0.014251281 0.07360925
000250 f4 f5 bc 3d 8b 85 4b bd 8b b3 b0 3e 60 64 70 3e
       0.09226599 -0.049687903 0.3451198 0.2347579
000260 94 ea 01 3f c9 8c 8c 3e 8e 46 71 3e 9c 6c 8a 3d
       0.5074856 0.2745116 0.2356207 0.06758997
000270 ec be 86 3d bb b2 3b 3e 2f 5a 72 3e 67 5a eb 3d
       0.06579384 0.18329899 0.23667215 0.11491852
000280 16 c2 29 bd 04 a0 4a bd c3 a8 03 3f c1 dd f5 3b
       -0.04144486 -0.04946901 0.51429385 0.0075032418
000290 27 a5 99 3d d2 82 83 be 93 91 37 3e c2 3d a2 be
       0.075022034 -0.25685745 0.17926626 -0.31687742
0002a0 bb 4a df 3d ae e2 58 bb 74 3f 19 3e 7e 3d 52 bf
       0.109029256 -0.0033094096 0.14965612 -0.8212508
0002b0 65 4e bd 3e d7 72 f6 bd 85 ea 80 be cb 15 68 be
       0.36973873 -0.12033623 -0.25178924 -0.22664563
0002c0 a6 1c 1d 3e 16 ee 84 3e 4e 38 6a 3e e1 36 6e 3d
       0.1534296 0.25962895 0.22873041 0.058157805
0002d0 3c 26 06 3e 1c 97 60 3e 6d 4c 85 3f 1e 10 8a bb
       0.13100523 0.21932644 1.0413948 -0.004213347
0002e0 33 a5 64 bd a8 d3 01 3f d2 ba a4 3e dc 20 e6 bd
       -0.05582161 0.50713587 0.32173783 -0.11236736
0002f0 a7 03 e3 3d 80 3f a4 3e 2c 6e e6 3e 7a 99 95 bb
       0.11084681 0.32079697 0.4500593 -0.004565415
000300 62 f1 32 3e 00 2b 9d 3e 8d 4e ca bd 5c 39 fc bd
       0.17474893 0.3069687 -0.098782636 -0.12315628
000310 73 b1 70 3d 53 a9 22 bd 47 b8 e4 bd 09 e8 ab 3d
       0.05876298 -0.03971226 -0.111679606 0.083938666
000320 71 93 74 3d 21 f2 0c 3e 72 fb ba 3d 75 2a 08 3e
       0.059710924 0.1376424 0.09129991 0.13297446
000330 a9 6d 37 be be 19 3b be 47 22 f4 3d 29 88 c3 3d
       -0.17912926 -0.18271539 0.119206004 0.09547455
000340 27 09 74 3e dd e8 43 3e 2f 4d e5 bc 38 d0 f8 3d
       0.23831616 0.19131799 -0.027990906 0.121490896
000350 ee c6 7f 3d 82 31 0e be 6a 71 82 bd e9 cd ee b9
       0.062445574 -0.13886073 -0.06369288 -0.00045548312
000360 8e 29 0f be 2a ce 58 bd 34 79 c6 3e 55 4a da 3e
       -0.13980696 -0.05293099 0.38764346 0.42634836
000370 a0 96 05 3e 54 cb 2f 3f 2e de bc 3d 2f dc e4 3e
       0.1304574 0.6866963 0.09222065 0.44699237
000380 3f e7 91 3c 34 4d e2 bc a7 35 91 3e ff 19 73 3e
       0.017810462 -0.027624704 0.28361246 0.23740385
000390 0b 6d e2 bd 1b 9e 6f 3e 18 1e e4 bd 44 8a b5 3d
       -0.110559545 0.23400156 -0.111385524 0.08864263
0003a0 13 c4 5c 3d c8 50 8c 3d 3b 47 04 bd 3d 65 f9 3d
       0.05389793 0.06851345 -0.032294493 0.12177513
0003b0 f7 03 49 3e 8c 1e 91 3e 83 3f 3d 3e c2 d9 a9 3d
       0.19630419 0.28343618 0.18481259 0.08293487
0003c0 2d 81 05 bd a7 5e b9 3e 91 4b da 3d c8 ae 5b 3d
       -0.032593895 0.36205027 0.106589444 0.05363348
0003d0 51 2f 2f 3f 65 27 05 bb 6a 0c d6 3c cc be c6 3d
       0.68431574 -0.002031767 0.026128966 0.0970436
0003e0 f2 a8 8e bd 2f 99 2c 3e 2c aa 6d 3e ae d2 5a 3e
       -0.069658175 0.1685531 0.23209447 0.2136943
0003f0 d0 b9 4c 3e c5 9e 4e 3e 18 69 01 3e cc 9e 80 3d
       0.19992757 0.20177753 0.12637746 0.06280288

input_to_hidden.bias f4 [128]
000000 e6 9a 59 bf 54 ad 44 bf 1c 54 4a bf c5 62 06 bf
       -0.8500198 -0.7682698 -0.7903459 -0.5249446
000010 49 f0 2a bf b5 45 6e bf dd c2 77 bf 30 de 8f bf
       -0.66772896 -0.93075114 -0.9678171 -1.1239681
000020 72 b5 6d bf e5 09 33 bf 8f b9 fa be 5c b7 6c bf
       -0.9285499 -0.6993697 -0.48969695 -0.92467284
000030 16 31 7a bf 4a 52 aa bf 3d b6 10 bf f5 5f 81 bf
       -0.9773115 -1.3306363 -0.56528074 -1.0107409
000040 f1 24 0a bf b0 f7 32 bf e8 8f b1 bf 7e 11 18 bf
       -0.5396262 -0.6990919 -1.3872042 -0.5940169
000050 cd 3f 1d bf ed 55 88 bf fb 80 37 bf d3 38 17 bf
       -0.6142548 -1.0651222 -0.71681184 -0.5907108
000060 2d e8 14 bf ed 56 59 be eb 46 1f bf a6 c8 51 be
       -0.5816677 -0.21224566 -0.6221759 -0.20486698
000070 90 59 be be 0e 1c 87 be b3 67 4d bf ec 43 96 bf
       -0.37177706 -0.26388592 -0.8023636 -1.1739478
000080 ee 10 bb bf aa 5c 71 bf 3a 3b b3 bf 32 ef 60 bf
       -1.4614542 -0.9428202 -1.400245 -0.87864983
000090 6f 78 80 bf ad 5d 9d bf 45 88 8c bf 5c 0d 96 bf
       -1.0036753 -1.2294213 -1.0979086 -1.1722827
0000a0 1c b5 68 bf 3e 70 11 bf 34 70 50 bf 79 49 06 bf
       -0.9090135 -0.56811893 -0.8142121 -0.5245586
0000b0 f8 ff 44 bf 61 af 25 bf 1b ef 83 bf 38 8e 9d bf
       -0.7695308 -0.6472073 -1.0307344 -1.2309027
0000c0 88 8b 8b be 81 eb 66 bf 6a 7e 23 bf 97 31 58 bf
       -0.2725489 -0.902031 -0.6386477 -0.8445067
0000d0 a8 83 97 bf 0d 84 68 bf 81 ff 5a bf cc 03 be be
       -1.1837053 -0.90826494 -0.8554612 -0.37112272
0000e0 0c 17 82 bf b5 82 86 be 93 99 1e bf d8 42 89 bf
       -1.0163283 -0.26271597 -0.61953086 -1.0723524
0000f0 3b 28 8f bf c3 6e e7 be 32 f2 64 bf f4 65 5c bf
       -1.1184152 -0.45201692 -0.8943206 -0.8609307
000100 04 92 56 bf 74 99 b4 bf dc 4e 86 bf 7c f9 57 bf
       -0.8381655 -1.410933 -1.0492816 -0.8436506
000110 4d 91 88 bf 19 e1 b6 bf 8d 9f 3e bf 34 b3 ae bf
       -1.0669342 -1.4287444 -0.74462205 -1.3648438
000120 dc 9b d2 be 49 e0 4c bf c7 be d7 be a9 4b 8d bf
       -0.41134536 -0.8002973 -0.4213774 -1.1038715
000130 34 2c 85 bf b0 45 5f bf e3 d8 5f bf e1 55 0c bf
       -1.0404115 -0.8721571 -0.8744032 -0.5481854
000140 c4 cb 4c bf 7e 4d 27 bf 85 e2 4c bf 89 9a 44 bf
       -0.7999842 -0.6535262 -0.8003314 -0.767983
000150 f3 5b 7e bf 75 f9 39 bf 1c 8b 69 bf 05 60 e7 be
       -0.99359053 -0.72646266 -0.9122789 -0.45190445
000160 92 04 81 bf 9e 08 39 bf 92 62 82 bf 8b 71 a7 bf
       -1.007952 -0.72278774 -1.0186331 -1.3081526
000170 2c fc 9b bf 8c b2 8e bf c6 f4 49 bf 54 d5 b0 bf
       -1.2186332 -1.1148238 -0.7888912 -1.3815103
000180 f5 91 29 bf e8 66 9a bf fa bd 94 bf 7c 4c 4d be
       -0.6623834 -1.2062654 -1.1620476 -0.20048708
000190 66 ee 3b bf 37 cc 09 bf 07 20 82 bf 21 bb 42 bf
       -0.7341064 -0.5382723 -1.0166024 -0.76066786
0001a0 0b db ec be 50 4e f6 be e9 23 f6 be 1f de 10 bf
       -0.46260867 -0.48106623 -0.48074272 -0.5658893
0001b0 7f 70 5b bf 04 f6 0e bf 4c f7 4f bf 18 69 94 bf
       -0.8571853 -0.5584414 -0.8123672 -1.1594572
0001c0 1b 50 06 bf d4 42 8d bf 9c 70 4a bf ea 2d 08 bf
       -0.5246598 -1.1036019 -0.7907808 -0.5319506
0001d0 11 0f 1e bf b9 a4 32 bf 03 af a4 bf 0b 58 8e bf
       -0.6174174 -0.69782597 -1.2865909 -1.1120619
0001e0 70 82 6b bf 15 bf 89 bf 12 94 8d bf b3 95 31 bf
       -0.91995907 -1.0761439 -1.1060812 -0.6936905
0001f0 1c ae 4c bf 44 06 4e bf 0c ef 6d bf c8 ab 8d bf
       -0.7995317 -0.8047831 -0.9294288 -1.1068048

hidden_layer_1.weight f4 [64, 128]
000000 a1 b1 11 bf 00 61 1b bd c0 54 84 3d 97 8b 0d be
       -0.56911665 -0.037934303 0.06461477 -0.1382278
000010 93 6b 8a bd db ed 32 3e 71 f0 e9 bc 8d 28 2f 3e
       -0.067587994 0.17473547 -0.028557034 0.17105313
000020 d9 fa b1 bc f7 9f bd bb f1 9f 7a 3c c4 7e 39 3e
       -0.021726059 -0.0057868916 0.015296922 0.18114763
000030 9a c8 80 be 16 3c 5b bf 3c 61 c1 bf 9c f1 66 3d
       -0.25153047 -0.8563856 -1.5107799 0.05638276
000040 5d 11 cb bb f8 d3 c8 3c c4 7e fe 3d 76 de c8 3d
       -0.006197138 0.024515137 0.124265224 0.09808056
000050 3b cd 4e be 25 7b 5f bd 9e 30 f3 3d 16 64 c2 3d
       -0.20195477 -0.0545608 0.11874507 0.09491746
000060 6d da 03 c0 c9 78 58 bd cd 16 4d bf b5 ce 09 3c
       -2.0602067 -0.052849565 -0.80112916 0.008411099
000070 a5 32 38 bd 60 54 4d 3d c8 77 1c 3d f1 46 eb be
       -0.044970173 0.050129294 0.03820017 -0.45952561
000080 c7 86 51 bf cd c8 7c 3e ee 3b 83 3f 63 7a c1 bf
       -0.8184628 0.24685974 1.0252664 -1.5115474
000090 08 88 6c be 07 83 5f c0 9c bd d9 be 4d de 81 3d
       -0.23098767 -3.4923723 -0.42527473 0.06341229
0000a0 4f 2f 89 be 5a 87 a4 3d 5b aa d2 bd c8 8c 3e 3e
       -0.26793906 0.08033629 -0.10286399 0.18608391
0000b0 fa b5 f8 bf 9d f0 d1 3e 95 f0 4c 3e 1e 02 2b 3e
       -1.9430535 0.41003886 0.2001365 0.16700026
0000c0 9e 29 82 3d 59 c0 dd 3d dd 1d fa 3d 6f 87 db bd
       0.06355594 0.10827703 0.12212727 -0.10719191
0000d0 cf 61 2a be e8 f9 29 3e d1 e7 05 3e ba af 68 3b
       -0.16638874 0.16599238 0.13076712 0.0035505132
0000e0 2e 7a 1e 3e ec d3 84 3e f1 71 40 3e 31 f1 05 3e
       0.15476295 0.25942934 0.18793465 0.13080288
0000f0 17 12 e9 bd fa 00 9b ba 7a cb 89 bd 16 c1 a8 3d
       -0.113804035 -0.0011825853 -0.06728263 0.08239953
000100 9d 3f 93 bd 90 a3 a0 3e 0f 4f f0 be f8 c6 15 be
       -0.07189868 0.31374788 -0.46935317 -0.14626682
000110 ff ce 6a bf b3 2a 06 be c8 d9 70 3c c6 b1 ac 3d
       -0.917221 -0.13102226 0.014700361 0.08432345
000120 99 dc 67 3d aa ef e0 be 10 94 9e 3d f1 f4 80 bb
       0.056606863 -0.4393285 0.077430844 -0.0039354493
000130 ef 60 b1 bd 04 26 ed 3c d8 10 0a be 18 ec f1 bc
       -0.08661067 0.028948791 -0.13482988 -0.029531524
000140 6b ad f0 3d 76 c1 45 be eb fd e1 bd 4c 13 9d bd
       0.11751827 -0.1931208 -0.11034759 -0.07669696
000150 c5 86 9e 3d 74 f6 37 be 19 f5 2e 3e 73 4e 46 3e
       0.07740549 -0.17965108 0.17085685 0.19365864
000160 ee 01 41 3e fd 28 e5 3d 7c af 16 c0 67 1c 4d 3e
       0.18848392 0.111894585 -2.3544607 0.20030366
000170 60 87 97 3e 41 f5 a0 bf b6 fd 04 be 47 ea 5a bd
       0.2959547 -1.2574846 -0.12987408 -0.05344608
000180 65 16 77 bc b2 3a 40 bf 8d 95 80 3d f6 93 95 bd
       -0.015081023 -0.7508956 0.062785245 -0.07303612
000190 2c 89 94 bf ca 63 ce 3b d9 dd 6f be 56 f7 f5 be
       -1.1604362 0.006298517 -0.23424472 -0.48040265
0001a0 03 b6 b4 bb 31 ce 32 bf b2 08 13 be 1b d7 53 bd
       -0.0055148616 -0.69845873 -0.14358786 -0.051718812
0001b0 cd 97 31 bd 0f c2 a8 bc 8e 5c 88 3e be 13 8a 3e
       -0.04335766 -0.020600347 0.26633114 0.26968187
0001c0 9f 2b 0e 3d 67 57 d3 bd 0e 79 a0 bf 5d b0 0c bc
       0.03470957 -0.10319405 -1.2536943 -0.00858697
0001d0 cf b6 9c 3c 1e 8d 1d bd 5a 83 ec be a0 25 2d be
       0.019130139 -0.038464658 -0.46193963 -0.16908884
0001e0 ea ac 79 3e 10 89 b9 3e de 1c c6 3d ca e9 65 3d
       0.24382368 0.36237383 0.09673475 0.05613116
0001f0 37 85 92 bb 15 06 4d 3e ca 55 f1 bc a4 6f e5 bd
       -0.004471447 0.20021851 -0.029459853 -0.112029344
000200 77 ba 05 bf ec c0 32 bc ca af 25 3e 89 bd c2 3d
       -0.5223765 -0.010910254 0.1618034 0.09508807
000210 a6 fc 2c 3e 60 66 03 3e 86 6f 9e be ad fb a2 3d
       0.16893253 0.12832022 -0.3094446 0.079581596
000220 9c 8c 61 3d 9c ca c6 3d fd e8 8b bf d9 87 9c 3d
       0.055065736 0.097066134 -1.0930477 0.076430984
000230 28 89 b2 be 45 78 7e bd 69 25 07 bf 93 72 b1 bc
       -0.34870267 -0.062126417 -0.5279146 -0.021661079
000240 c3 96 39 3d 38 9e df 3b c0 ea d8 bd cf ab 18 bd
       0.045309793 0.006824281 -0.1059165 -0.037273224
000250 7d 66 33 3e 8c 3a 46 3e 49 8c 0c bf 3b 2b 3a be
       0.17519565 0.19358271 -0.5490156 -0.18180554
000260 1c 4e 7a 3e f9 f9 b4 bf b2 df d5 bd ea 7d 4d bd
       0.24443859 -1.4138786 -0.10443057 -0.05016891
000270 74 c8 46 bf 13 7a b1 3d f8 a4 96 3e 10 8a 4d be
       -0.7764962 0.08665862 0.29422736 -0.20072198
000280 1f 49 21 bf 6d fe f0 3c 5e c6 8e be f4 94 1a 3d
       -0.630022 0.029418195 -0.27885717 0.03773971
000290 5e f9 5b 3e 44 71 43 bd 3b b1 d0 3d 8e c5 33 3e
       0.21481845 -0.04771544 0.10190054 0.1755583
0002a0 37 72 1f 3e c5 0b ea 3d 16 05 6a 3d 63 72 f2 be
       0.15570913 0.11428026 0.057133757 -0.47352895
0002b0 88 e3 5f 3d 4c f0 3e 3e 1d 4d c3 3e 42 bb 38 3e
       0.05466035 0.18646353 0.3814477 0.18040183
0002c0 f3 88 32 c0 89 a0 7b bf 92 a0 4e 3d cc 81 98 3e
       -2.7896087 -0.9829183 0.0504461 0.29786527
0002d0 d3 3d 0e 3e ca 8d b7 3d 64 86 35 3e ad 90 dc bf
       0.13890772 0.08962591 0.17727047 -1.7231652
0002e0 75 39 88 bd 30 f4 04 3e 33 a7 37 bf 8b e3 49 bd
       -0.06651584 0.12983775 -0.717395 -0.049289268
0002f0 7b 02 77 bf 5d f1 db bd d3 67 4a c0 07 4a 98 3c
       -0.9648816 -0.10739396 -3.162587 0.018589986
000300 13 1c c9 be d9 4e 13 be f2 33 3b bd f2 ff 98 be
       -0.3927923 -0.14385547 -0.045703836 -0.2988277
000310 b0 6f 77 bd 1f 5e a3 3d df 27 56 be e9 01 27 3f
       -0.060409248 0.079769365 -0.20913647 0.6523729
000320 58 f2 0f c0 2e e1 d8 bd f6 90 2a 3d 50 e8 ca 3c
       -2.2491665 -0.105898246 0.04164215 0.024768978
000330 8a b4 97 3e 90 3f b7 3c 72 2f 9c be c6 bc ec 3d
       0.29629928 0.022369176 -0.30504948 0.11559443
000340 b9 a5 7f 3e 99 9c e0 3d dc c3 07 3e d9 a1 35 bd
       0.24965562 0.10967369 0.13258308 -0.044343803
000350 8f 98 02 be ff 06 da 3d b6 08 26 3e df 54 e8 3d
       -0.12753509 0.10645866 0.1621426 0.11344313
000360 6e 17 47 bb 72 cb cf 3d 86 29 f4 3d b5 e8 55 3e
       -0.0030378955 0.10146226 0.119219825 0.20889552
000370 a7 a8 6d bf bf f5 92 3c 44 d6 c9 3d a5 5d f5 3e
       -0.9283547 0.017939446 0.09855321 0.47923008
000380 9f 58 c6 bc 9a 10 18 bd e4 27 e7 bd 32 7b b1 bf
       -0.02421218 -0.037125207 -0.112869054 -1.3865721
000390 ca 08 03 c0 8f 32 34 3e 09 52 de 3e 5d 95 fd 3d
       -2.0474114 0.17597412 0.43421963 0.123820044
0003a0 c5 79 6d bf 4f 73 2a 3d f5 c2 17 3e 5d b9 30 3d
       -0.9276393 0.041613873 0.14820464 0.043145526
0003b0 e0 87 da bd e2 da a0 be 36 d6 b5 3d 5a 08 ca 3e
       -0.10670447 -0.31416994 0.08878748 0.39459497
0003c0 73 93 2e bd f1 0a 03 3e 44 3e 15 bf c9 72 85 3c
       -0.042621087 0.12797143 -0.58298135 0.016290085
0003d0 32 f7 17 3d fd 7a d8 3d d9 32 d4 be 96 51 9e 3e
       0.03710098 0.10570333 -0.41445044 0.3092162
0003e0 1a 29 0f bf c6 ab 95 be 11 7e 87 bf b4 5f b4 bf
       -0.5592209 -0.29232615 -1.0585347 -1.4091706
0003f0 ae 74 9d be 5b e5 30 bf 2d 4b 82 3e a9 63 c9 3e
       -0.30753082 -0.6909997 0.2544798 0.39333847

hidden_layer_1.bias f4 [64]
000000 85 c0 d1 3d 8f d3 40 bf b8 e2 dd bd 84 48 ab be
       0.10241798 -0.7532281 -0.10834259 -0.33453763
000010 aa 3a f1 3d b8 5c 1e be 8b 86 dc 3d 2f ba 57 3d
       0.117787674 -0.15465057 0.107678495 0.052667793
000020 7c 59 96 be a8 77 15 bf 08 87 11 3d 8c 01 ad bd
       -0.29365146 -0.58385706 0.035529166 -0.08447561
000030 2f 07 21 3e 31 a7 1c 3c c4 0d da 3c fc 37 ea bd
       0.15725397 0.009561346 0.026617892 -0.114364594
000040 21 8d 98 be 07 d7 a4 be f4 0d bf bd ac 20 d7 3e
       -0.29795173 -0.32195303 -0.09328833 0.42017114
000050 69 ad ce bd b8 ec 5d bd 4a 0f 7d 3e df a9 05 3f
       -0.10091669 -0.05418083 0.24712864 0.5221233
000060 c2 f8 d6 3e 04 4a 86 be 76 52 3a be d4 1f 4c 3e
       0.41986662 -0.26228344 -0.18195519 0.19934016
000070 c1 3f a5 bd 69 3b 75 3e 43 eb c5 be cb a0 55 3d
       -0.08068801 0.23948444 -0.38656053 0.052155297
000080 e4 f8 58 3d eb c7 ca 3e 07 a0 2c 3d 7e 53 99 be
       0.052971736 0.3960565 0.0421448 -0.29946512
000090 04 06 67 3d d0 1f f5 3e 56 a0 fb 3d 35 8d c2 bd
       0.05640222 0.47875834 0.12286441 -0.09499589
0000a0 e8 16 a4 3d 0d 8d 26 bf cc 65 b3 3e 5e 82 04 bf
       0.080121815 -0.65058976 0.35038602 -0.51761425
0000b0 af f2 8c 3e b9 aa 0a b9 4d 0d a1 bc e9 6f 17 be
       0.27528903 -0.00013224305 -0.019659663 -0.14788784
0000c0 f0 9c ac 3c 83 19 e1 3e 5d 97 30 3f 8f 53 ae 3d
       0.021070927 0.43964776 0.6898096 0.08512031
0000d0 fa d4 45 be 34 5f d9 3d 32 5a 80 bd 40 60 d8 be
       -0.19319525 0.10613862 -0.062672034 -0.42260933
0000e0 de 2b 06 3e 80 fb 7b 3e aa 46 47 bd f5 b1 2f bf
       0.13102672 0.24607658 -0.048651375 -0.68630916
0000f0 74 e1 8d 3e a7 b4 12 3e 70 b1 a4 bd bc 51 c0 3e
       0.2771107 0.14326726 -0.08041656 0.37562358

hidden_layer_2.weight f4 [32, 64]
000000 87 35 56 3e 68 f5 c6 bf 73 e0 29 3e 4e 55 11 be
       0.20918857 -1.5543642 0.16589527 -0.14192697
000010 13 ae 0f bd 12 90 82 bd 66 b9 1e bf 01 78 b4 3c
       -0.03507812 -0.063751355 -0.62001646 0.022029879
000020 b2 c6 2d bf b3 d3 8c 3e d1 65 db 3d 79 07 cc 3d
       -0.6788131 0.27505264 0.10712779 0.09962363
000030 53 26 70 be df c1 7f 3e 92 8b 4c bf 95 da 3b bf
       -0.2345212 0.249763 -0.7990047 -0.73380405
000040 f0 69 d4 be 96 b1 21 3e 8e d3 0b be 45 25 99 3d
       -0.41487074 0.157904 -0.1365492 0.07477812
000050 28 e8 15 bf 9f 69 6b bb 10 70 1b 3f 7b db 9f 3e
       -0.5855737 -0.003592111 0.6071787 0.31222138
000060 bf 4e 20 bc 4c df 96 3d 36 97 76 be b0 19 f6 bd
       -0.0097843995 0.07366809 -0.2408112 -0.12016618
000070 6e 70 ab bd 8f 51 c4 3d a8 7d 98 3a ba da be 3e
       -0.08371054 0.095858686 0.0011634128 0.3727625
000080 bf 61 6f 3d 3f 28 ea bc 80 41 fb 3e de 92 46 be
       0.058442827 -0.028583644 0.4907341 -0.19391963
000090 31 2b ca bd 04 1c 9f 3d a6 ba da 3d 06 88 91 bf
       -0.09871519 0.077690154 0.106801316 -1.1369636
0000a0 08 97 b2 3c 62 0f ac bd 85 b3 82 3c 6b 01 f4 bf
       0.021800533 -0.084013715 0.015954742 -1.9062933
0000b0 63 2d 0e 3e 5a 59 bb bc 12 ec 62 be 53 36 84 bf
       0.13884501 -0.022869755 -0.22160366 -1.0329078
0000c0 81 6a 43 3e ec 21 e7 3d 4c 69 c3 3d ba 56 3a 3e
       0.19083597 0.11285767 0.09541568 0.18197146
0000d0 d8 a2 e5 bd 87 00 89 3d 10 fa 38 bf cd c4 99 be
       -0.112127006 0.06689554 -0.72256565 -0.3003296
0000e0 2b 03 5e bf b6 a1 9a 3d cc c0 76 3f 64 f3 95 bc
       -0.86723584 0.07550375 0.96387935 -0.018304534
0000f0 b7 2c 0f be 15 b1 a7 3e e1 b5 7d bf e1 9f ce bd
       -0.13981901 0.3275229 -0.9910565 -0.10089088
000100 c5 d3 ec bf 44 66 9e 3e 41 ad 06 3f ae 26 ee 3d
       -1.8502127 0.30937397 0.52608114 0.11628471
000110 44 91 6e 3c c3 a0 d0 3e 6d 29 37 bf 6e 66 a6 be
       0.014561001 0.4074765 -0.71547586 -0.32500023
000120 5e ec 29 3e ec 49 d1 3d 13 1a 14 bf 91 b9 fc 3e
       0.16594073 0.102191776 -0.57852286 0.49360326
000130 c3 f1 0f be d3 26 07 3d 60 f0 d9 3c a7 86 a0 3e
       -0.14057069 0.03299601 0.026603878 0.31352732
000140 ea 87 b8 3e fe 0b 35 bf 57 48 88 bd 08 d6 52 bf
       0.36041194 -0.70721424 -0.06654423 -0.82357836
000150 3b 43 b9 be 74 16 b2 bd ba 76 ff 3d 46 9a 94 bf
       -0.36184105 -0.08695689 0.12473817 -1.160958
000160 c6 58 2f be c1 72 80 3c 0f 90 5f 3e aa 2d 3b bf
       -0.17123708 0.015679719 0.21832298 -0.7311655
000170 3a 4a 06 bd 0a 32 d1 bb cb da e8 3e 43 f3 d5 be
       -0.03278563 -0.006384139 0.45479426 -0.41787156
000180 b6 44 9a bd 08 db 6b 3e 08 5d 3c bf e8 a0 c1 3d
       -0.07532637 0.23032773 -0.73579454 0.094545186
000190 06 94 0d 3e 2f 28 03 bd 12 a3 45 be c8 36 3d bf
       0.13825998 -0.032020744 -0.19300488 -0.73911715
0001a0 4a 9c 9b be a2 dc f7 3e 44 a6 55 bd 2e d2 cb 3e
       -0.30392677 0.48410517 -0.052160516 0.39808792
0001b0 24 9a 26 be 3b 12 87 3e c4 ab 65 3d 39 51 da 3e
       -0.16269737 0.26381096 0.05607201 0.42640093
0001c0 57 4e 04 bf 6d 9a aa 3c 7c bc 9a be 18 6b b0 3d
       -0.5168204 0.02082559 -0.30221927 0.086141765
0001d0 13 ee 9d 3e ea 8a a3 be 57 93 80 3e 0a 3a a2 3e
       0.308457 -0.3194192 0.2511241 0.31684905
0001e0 21 ac 30 bd 8f 54 2b be 7b 1b 36 3f 74 54 96 bd
       -0.043132905 -0.16731475 0.7113568 -0.07340327
0001f0 04 89 13 bf 01 e7 7f bf 65 ae 8f 3d 5d d0 c3 bd
       -0.57630944 -0.9996186 0.07015685 -0.095612265
000200 58 96 a6 be 17 ab a0 bd f1 67 9c 3e 1f 41 53 3e
       -0.32536578 -0.07845133 0.3054805 0.2063031
000210 4c c9 91 3c 33 07 7f be 59 ee b2 bf e7 ce 08 3e
       0.017796181 -0.2490509 -1.3978988 0.13360177
000220 08 e5 e4 be c3 93 ed bd 05 09 04 3d ef bc 26 be
       -0.44705987 -0.11600449 0.032235164 -0.1628301
000230 66 fa 3e bc 69 e8 a0 3e f7 74 1b bf 6f 36 04 ba
       -0.011656379 0.31427315 -0.6072535 -0.00050435116
000240 8a 35 08 3e c5 15 b5 be 8f fb d9 be 25 e3 b2 3d
       0.13301674 -0.3536817 -0.42574736 0.08734731
000250 a6 17 42 bf b9 f3 c9 be 66 79 1e 3f 6b 9b 8d be
       -0.75817335 -0.39443758 0.6190399 -0.27657637
000260 d1 8e df bd 9e e4 23 bc bf 90 aa bd e6 e1 02 bf
       -0.10915912 -0.010003237 -0.083283894 -0.51125944
000270 d9 a1 82 bd b5 e8 f4 ba 85 4c 2e be 3a 1b 3f 3e
       -0.06378526 -0.0018685075 -0.17021377 0.1866273
000280 20 aa 59 3d 2c 66 8c 3b 60 70 4c 3f 47 a6 ad be
       0.05314076 0.004284641 0.7985897 -0.33915922
000290 25 b2 4c 3f 8b 81 03 3f 24 21 9b 3d 21 c1 96 bf
       0.79959327 0.5136954 0.075746804 -1.1777688
0002a0 fb ce 17 be f1 6c 9b bc 8e fa a9 3d fe a4 d6 be
       -0.1482505 -0.018972846 0.08299743 -0.41922754
0002b0 10 56 d7 bd 43 56 94 be 59 f9 8e bd 26 4f 31 bd
       -0.10514462 -0.28972062 -0.06981153 -0.043288372
0002c0 36 78 8e 3e b9 79 e9 3e ad 75 8e 3e 85 61 71 3f
       0.2782609 0.4560068 0.27824154 0.9428943
0002d0 dd 57 64 3d 4a f3 89 be 86 96 2b bf 14 c2 2a 3d
       0.055747855 -0.26943427 -0.67026556 0.041688994
0002e0 98 30 51 bf 1c f3 31 3f 4b c9 7b 3f c2 20 3c bd
       -0.81714773 0.6951158 0.98354024 -0.045929678
0002f0 22 1d 84 be 43 7b c8 3d 67 76 3e bf 41 7e 7a 3e
       -0.25803477 0.09789135 -0.7439942 0.24462225
000300 1f 2f 9a bf 42 45 cc 3d b2 aa 01 bf 32 e2 f8 3d
       -1.204563 0.099741474 -0.50651085 0.12152518
000310 a7 1d 26 bf 37 59 93 3e f3 ff 5f be 97 68 bc bf
       -0.64888996 0.28779003 -0.2187498 -1.4719418
000320 8d 1e 90 bf c4 b0 cb 3d 9c 3b a4 be cd 69 ec 3e
       -1.1259323 0.09945825 -0.32076728 0.4617447
000330 38 e2 9b 3d 66 c5 46 3c 18 20 c3 be e0 8e fb bf
       0.07611507 0.012132024 -0.38110423 -1.9652977
000340 ed 06 98 3e 08 fb 4b bf a9 63 d5 bf 3d de af be
       0.29692784 -0.7967992 -1.6671039 -0.34349242
000350 bf b4 3d bf 21 fa 46 bc 7a 5a bd be 73 b2 44 bd
       -0.7410392 -0.012144596 -0.3698309 -0.048021745
000360 b4 29 0d c0 7c 9c a4 bd 45 84 17 bd a4 95 82 bf
       -2.2056704 -0.080376595 -0.036991376 -1.0201917
000370 97 e0 44 3c 9e 2d 89 3c af 6a 06 bf 1a 42 86 3e
       0.012016437 0.016745385 -0.52506536 0.26222306
000380 4e 47 cf bf 9f e7 39 3e 62 4d 28 bf b9 a0 87 bf
       -1.6193635 0.18154763 -0.65743077 -1.0595924
000390 2b ce bf be 10 8d 6d bf c2 6a 59 3e 59 2d 14 be
       -0.3746198 -0.9279337 0.21232131 -0.14470424
0003a0 b7 bc d1 be eb f8 2a 3f 55 91 15 c0 47 04 9a bf
       -0.4096429 0.6678607 -2.3369954 -1.2032555
0003b0 ad b0 dc 3d 6a 5f 4f 3e 29 ed 52 bc 50 5e c5 3e
       0.10775886 0.20251241 -0.012873926 0.38548517
0003c0 f9 69 58 bf 6e 4a bd bf 64 dd 20 bf 8c 1d e9 bf
       -0.845367 -1.4788339 -0.62837815 -1.8212142
0003d0 7d f9 1b bd 1b 8e f1 be 38 2f 3a bf 24 bc 10 3e
       -0.038079727 -0.4717873 -0.727283 0.1413427
0003e0 06 5f 5f bf ac dd c3 bf ac 1c 15 bf c8 0b 9c bd
       -0.8725437 -1.5302024 -0.58246875 -0.076194346
0003f0 0f 15 8d 3d 18 0c af bc a0 a3 d8 bf 8e f1 83 be
       0.06888782 -0.021368071 -1.6924934 -0.2577023

hidden_layer_2.bias f4 [32]
000000 80 66 80 3e e2 ec 24 3e c1 e8 4a 3e 3f 07 34 3e
       0.250782 0.16105989 0.19815351 0.17580889
000010 76 83 c9 3e 80 ec 82 3e f3 47 6d 3d 01 d6 1e 3e
       0.3935811 0.2557106 0.057929944 0.15511324
000020 9f 25 c9 3e 38 43 11 3e b5 7e 37 3e e3 fc 64 3e
       0.39286515 0.14185798 0.17919429 0.22362094
000030 7b 14 12 3e 40 09 38 3e 85 8d a7 3d 19 c1 08 3e
       0.14265625 0.17972279 0.081812896 0.13354911
000040 6d 8d 73 3e fc 58 65 3e 4d 2e 91 3e cd d9 bf 3e
       0.23784418 0.22397226 0.28355637 0.37470856
000050 a5 ad 7b 3e 62 c3 b8 3d 94 54 09 3e cc 33 0f 3e
       0.24577959 0.09021641 0.1341117 0.13984603
000060 7b 40 cf bc 3d 3f f4 3e cb 95 55 3d fe 36 b1 3e
       -0.025299301 0.47704497 0.052144807 0.34612268
000070 cf a5 59 3e a1 0f df 3d 00 fd 87 3d 88 f6 0e 3e
       0.21254657 0.10891653 0.06640053 0.13961232

hidden_to_output.weight f4 [7, 32]
000000 77 59 15 3e f8 a6 58 bf a5 c2 0f be 70 a7 e1 bf
       0.1458491 -0.84629774 -0.14039095 -1.7629223
000010 8c 3b a2 3d 54 d9 79 3e a4 97 81 be 5e ba 3c bf
       0.07921514 0.2439931 -0.25311005 -0.73721874
000020 ca 05 b2 3e d7 b5 0e bf ff 8e 9a 3e 64 3d d3 be
       0.34770042 -0.55746216 0.30187222 -0.41257775
000030 83 44 3b 3e 76 01 57 be 11 95 d5 3e 5c 86 6e bf
       0.18287854 -0.20996651 0.4171529 -0.93173766
000040 5c 13 96 3e 4c ea cb be 63 50 75 3e 57 ce 93 3e
       0.29311645 -0.39827192 0.23956446 0.28868362
000050 69 ad ab bd cd 44 c7 3e 94 d4 ab 3e f5 c0 15 bf
       -0.08382685 0.38919678 0.33560622 -0.58497554
000060 44 65 65 3e ce 7a 76 be 6d f3 79 bf 65 c8 86 3e
       0.22401911 -0.24070284 -0.97637063 0.26324764
000070 bd fb 4c 3e ac 62 05 bf 78 0c e1 3d 7e 77 8d 3e
       0.20017906 -0.52103686 0.10988706 0.27630228
000080 ee ea d9 3e 93 86 cd be 53 3c e5 3d 00 d5 3e bf
       0.4256205 -0.40141734 0.111931466 -0.7454376
000090 35 81 c9 3d 1b 60 02 bf c4 38 9d 3d c0 58 75 3e
       0.098390974 -0.50927895 0.07676843 0.23959637
0000a0 de 0f b1 3e 4a df a1 3d 2d cc 93 3e a9 ac 85 3d
       0.34582418 0.07903917 0.2886671 0.06527073
0000b0 fd b8 36 3e 4f 56 2f 3e d6 91 d9 3e 05 4c 52 bf
       0.17844005 0.17122768 0.42494076 -0.82147247
0000c0 4f ea bf be 75 79 cb 3d a8 23 c5 be da 51 c6 be
       -0.3748345 0.099352755 -0.38503766 -0.38734323
0000d0 f4 82 09 3e 59 17 40 bd f2 9b 18 bf 1d 94 d2 3d
       0.13428861 -0.046897266 -0.59612954 0.102821566
0000e0 92 be 5c 3e 1f d8 fc be 32 39 b9 be 59 65 8a 3e
       0.21557072 -0.49383637 -0.3617645 0.27030447
0000f0 c5 31 39 3e 52 b3 ed bd c1 5a ee 3d 43 dd 8e 3e
       0.18085392 -0.11606468 0.11638404 0.27903184
000100 38 67 f4 be f8 a6 66 3e 50 be 2d bf 82 6d ca 3e
       -0.47735 0.22524631 -0.6786852 0.39536673
000110 79 27 38 bf 72 2b 98 bf 6b dd bd 3d a2 e1 7e 3e
       -0.7193523 -1.1888258 0.09270748 0.2489076
000120 ab d4 6e bf d4 b5 bf 3d 76 00 80 bf b9 5c a8 3d
       -0.93293256 0.09360853 -1.0000141 0.082208104
000130 af 86 58 bf 08 93 d1 be 3e 9c a8 bf 02 58 52 bd
       -0.8458051 -0.40932488 -1.3172681 -0.051353462
000140 04 04 9e 3d 5a 23 11 3e 44 8c ca bf 1a f4 41 c0
       0.0771561 0.14173642 -1.5824056 -3.0305238
000150 b1 44 0c bf 18 72 5f c0 94 aa 38 c0 bc 2b 95 bd
       -0.54792315 -3.4913387 -2.8854113 -0.07283732
000160 a5 46 2e be 13 0e 15 bf 72 3b 70 3d 22 e5 82 3e
       -0.17019136 -0.582246 0.05865044 0.2556544
000170 a5 db 2f 3e 57 35 c2 bd 38 6a 43 b8 c0 8c e7 bf
       0.17173631 -0.0948283 -4.6590547e-05 -1.8089828
000180 fc f9 04 c0 02 37 88 3e 02 71 c4 3e 0f c9 d4 3e
       -2.0777578 0.26604468 0.38367468 0.41559646
000190 64 d5 d0 bf 15 5c 71 be a2 50 fe 3d 0d 03 15 3e
       -1.6315122 -0.23570283 0.12417723 0.14551945
0001a0 fe 4b 52 c0 75 c6 6a 3d cc 40 33 c0 fd 82 b0 be
       -3.2858882 0.05731817 -2.80083 -0.34474936
0001b0 6e 20 83 3e e6 8f a2 3e 90 52 11 c1 1d d6 b2 bc
       0.2561068 0.3175041 -9.082657 -0.021830613
0001c0 27 ad 85 3d 88 58 c5 3c cf 67 df bf 2b 56 df bf
       0.06527167 0.024090067 -1.7453555 -1.7448171
0001d0 53 00 ec bf 3c 02 47 c0 e5 5f 48 c0 44 b2 2a bf
       -1.8437599 -3.1095114 -3.130853 -0.6667826
0001e0 bc 18 c2 be c2 9a a4 bd 4f 8b b1 3d fa 40 96 bf
       -0.37909496 -0.0803733 0.08669149 -1.1738579
0001f0 43 f0 8a be 9c 4f a2 bf 1d b9 14 c0 1e ae fc bf
       -0.2713643 -1.2680545 -2.3237984 -1.9740636
000200 2e 89 f2 3e 78 86 f4 be 37 e4 56 bc 97 c6 23 3c
       0.47370285 -0.47758842 -0.013115934 0.009996078
000210 b9 15 11 bf 43 65 f0 3e 14 b9 89 3d 4c b9 8f bd
       -0.5667377 0.46952257 0.06724754 -0.070177644
000220 84 65 b6 3e 4f 83 76 be c4 de 77 bf 07 61 09 3d
       0.35624325 -0.24073528 -0.9682429 0.033539798
000230 c7 81 2a 3e 17 f6 ad 3e 25 c9 bd bc 0c 03 55 be
       0.16651069 0.33976814 -0.023167202 -0.20801944
000240 cd d7 be bf 15 e6 14 3c 2f 40 10 c0 03 2b 04 3f
       -1.4909607 0.009088059 -2.2539175 0.5162813
000250 9c a8 b1 be 9f 19 0c c0 1e ac 1d c0 ca a1 ef 3d
       -0.3469895 -2.1890638 -2.4636302 0.11700781
000260 c9 43 20 bf 50 9b 0f 3f 8c a4 6f bf 61 0b 89 3e
       -0.6260343 0.56096363 -0.93610454 0.26766494
000270 73 1e b2 bf 99 35 0d be 14 c1 8b 3d 5e 58 62 3e
       -1.3915542 -0.13789977 0.06823936 0.22104022
000280 cc e9 88 bf 15 f5 43 3e 80 99 6e 3e 4f 0d 53 3e
       -1.0696349 0.1913646 0.23300743 0.20610546
000290 17 f9 27 3e d6 1e 70 bf 9d ef ce be 74 4b 6e 3e
       0.16403614 -0.9379705 -0.40417185 0.2327097
0002a0 c2 d1 3d 3e 68 47 b2 3d 17 5a 08 c0 81 e8 a5 3d
       0.18537048 0.08705026 -2.1304986 0.08100987
0002b0 de 1c 44 bf 5f 7c 11 bf 83 1b d7 bd 87 d7 b6 bd
       -0.7660655 -0.568304 -0.10503294 -0.08927827
0002c0 25 09 08 be de 14 10 3e 7a 5b b2 bf c7 f2 8f bf
       -0.13284738 0.1407046 -1.3934166 -1.1245965
0002d0 87 ed 0e 3e e5 b3 3d c0 4b 34 23 c0 41 44 85 bf
       0.13957797 -2.964105 -2.5500667 -1.0411454
0002e0 a8 11 a3 bf 7e ae cd be 10 10 f0 3c 43 a6 e9 bd
       -1.2739763 -0.4017219 0.029304534 -0.11408665
0002f0 05 49 29 3e bb 07 28 bf 29 5e 9c bf 1e 8f 7e bf
       0.16531761 -0.65636796 -1.2216235 -0.9943713
000300 42 ca b4 bf e3 39 14 bf 24 8d ef bf 3c 5f cd bf
       -1.4124224 -0.5790083 -1.8714948 -1.6044688
000310 67 76 4b bf 82 67 06 be 16 55 21 3e 0b d5 4b bf
       -0.7947754 -0.13125423 0.15755114 -0.7962195
000320 bc 2d 36 bf b4 59 37 be c2 34 a4 3e c7 2f 98 bf
       -0.71163535 -0.17905313 0.320715 -1.188958
000330 80 35 11 bf aa 83 db 3e 04 a3 98 3c 12 45 b0 be
       -0.5672226 0.4287389 0.01863242 -0.34427696
000340 34 f7 aa 3e 38 27 b3 bf 59 9f 8c 3e 91 89 99 3e
       0.33391726 -1.3996344 0.27465323 0.29987767
000350 6a 88 7a 3e e3 37 cf 3e 21 3e b9 3e 7d d2 33 3b
       0.244661 0.40472326 0.36180213 0.0027438693
000360 3a c5 6f 3e 8e c7 83 bc 0d 64 da bf d7 77 5f bf
       0.2341508 -0.016086366 -1.7061783 -0.87292236
000370 73 99 9b 3b dc d6 9c bc 11 03 95 be 82 b4 95 3e
       0.004748517 -0.019145422 -0.29103902 0.2923928

hidden_to_output.bias f4 [7]
000000 97 dd 8a 3e 4e 6d 23 3e ed 4c b0 3e 89 87 84 bf
       0.27122185 0.15959665 0.3443369 -1.0353862
000010 3e 19 4d bf e2 97 2a 3f ee 8b 61 bf
       -0.8011664 0.66638005 -0.8810414
