models/dnn-classifier.pth (torch, 73429 bytes, 8 tensors)

input_to_hidden.weight f4 [128, 54]
000000 4e a2 2e 3d 0c 49 65 bc 6d c6 dc be a5 a2 60 3e
       0.042635255 -0.0139944665 -0.43120137 0.21937044
000010 df 53 ef bd f7 39 6e bd 80 4d 34 be f6 79 26 bf
       -0.11685919 -0.05816075 -0.17607689 -0.6502985
000020 09 20 81 bd b3 18 fc 3e 35 87 7f 3e 7f d5 33 be
       -0.06304938 0.49237594 0.24953921 -0.17561911
000030 76 27 16 bd 63 86 0c bf c0 cc bd 3d 9f 4c e4 3d
       -0.036658727 -0.5489256 0.092675686 0.11147427
000040 05 a9 90 bc d4 30 30 3e 2f 4a 29 3e 3a ae 2e 3e
       -0.01765872 0.17206126 0.16532205 0.1705865
000050 5c d2 2b 3e 88 f1 d7 3d 88 07 48 3e a0 14 54 3e
       0.16779464 0.10544115 0.19534123 0.20710993
000060 28 5f 8d 3d 69 44 ab be 34 b2 46 3e 81 c5 13 3e
       0.06902915 -0.3345063 0.19403917 0.1443081
000070 77 cc 06 3d e7 10 ec bd 08 e7 84 3c ea 9b 66 bd
       0.032909837 -0.11526661 0.016223446 -0.056301035
000080 85 35 91 3d dc af ef bc 61 c9 8a 3b a5 fb e3 3d
       0.07090286 -0.029258661 0.004235432 0.11131982
000090 ad e4 eb bd 8e 89 77 3e 4a 06 cf 3d af 0f c2 3d
       -0.11518226 0.24173567 0.101086214 0.09475648
0000a0 a2 9d 78 3c 80 8a 11 3e 2c cd bb 3d f3 23 4f be
       0.015174301 0.1421299 0.09169993 -0.20228557
0000b0 ec bf 7f 3e 46 21 08 be 01 77 53 3d 8d ec cd 3d
       0.24975556 -0.13293943 0.051627163 0.10054884
0000c0 87 d2 dc 3a 8b a6 d5 3d ab 33 98 3e 36 e3 be 3d
       0.001684741 0.10432156 0.2972692 0.09320681
0000d0 b8 1d 89 3c 97 6b 24 3e 45 a6 99 be 6f 99 68 bd
       0.016737804 0.16056667 -0.30009666 -0.05678695
0000e0 74 1a 4e 3e ca 01 07 3c 99 0b 3a 3e 7b 51 ac be
       0.20127279 0.008240173 0.18168487 -0.33655915
0000f0 33 46 a3 be 47 53 39 bd 0a 66 7c 3d a2 22 48 bf
       -0.31889495 -0.045245435 0.06162075 -0.78177845
000100 18 ce 66 3f ff ed 8d bd aa 22 95 be d9 7c d3 be
       0.90158224 -0.0693016 -0.2912801 -0.4130619
000110 d7 78 a2 3d ae c4 ad bc 31 35 f0 3d 91 46 5d 3e
       0.079332046 -0.021211948 0.117288955 0.2160895
000120 05 5d 80 3d fd bd 2c 3e a0 0d 44 3f f4 c3 18 3d
       0.06267742 0.1686935 0.7658329 0.03729625
000130 60 d9 fd 3d e9 5b 96 3e e0 df 97 3e 9e b1 d7 3d
       0.123949766 0.29366997 0.2966299 0.10531925
000140 15 70 81 3e c9 5c 69 bc 21 61 fb 3e 6a b6 df 3d
       0.25280824 -0.014243313 0.4909754 0.109234646
000150 65 d5 a2 3d e7 d4 5c 3d 1e 68 2d 3d 6a 7c 9c 3d
       0.07950858 0.053913977 0.042335622 0.076409176
000160 5f 2b ba 3d 31 21 33 bd e5 dc 70 3e 8b 12 94 3e
       0.09090304 -0.043732826 0.23521765 0.28920397
000170 b0 27 e8 3d 55 c8 6a 3e b8 9a e3 3d 0b 04 d8 3d
       0.11335695 0.22927983 0.11113495 0.10547646
000180 df 77 7f 3e 04 14 a0 3e 1f 9d 02 3f 39 ef 11 3f
       0.24948071 0.3126527 0.51021 0.5700565
000190 a5 72 a3 3e 44 eb 3f 3e b2 43 73 3d 04 7c ee 3c
       0.31923404 0.1874209 0.05939073 0.02911187
0001a0 3d ea 22 3f 6d 3a 8d 3e 3f af dc 3d 58 15 78 3e
       0.6363867 0.27583638 0.10775613 0.24226892
0001b0 a6 df 1b bf a7 5c a0 3d 71 f0 b0 be 4d 02 24 3f
       -0.60888135 0.07830172 -0.34558442 0.6406601
0001c0 d8 49 88 bd a2 fd 13 bd 58 e7 6d 3c 1e 59 7c be
       -0.066547096 -0.036130555 0.014520489 -0.2464337
0001d0 82 b8 1d be 97 47 a9 3e 7b 88 03 3f ef 6a b6 be
       -0.15402415 0.3306243 0.5138013 -0.3562846
0001e0 12 c6 5d be cf 89 64 be f7 87 3d 3c d9 8c 85 3c
       -0.21657589 -0.22318195 0.011568061 0.016302513
0001f0 40 2f 23 3e ea 30 e4 3c 66 ff 07 bc 5c e6 f0 3d
       0.15935993 0.027855355 -0.008300638 0.117626876
000200 6e 47 45 3e 29 80 a2 3d 29 44 6b 3d 5c 36 6c 3d
       0.1926553 0.07934601 0.05743805 0.05766903
000210 17 d2 f0 3c 6a e7 3e 3c 46 8e a4 3e 2d 52 4a 3d
       0.029397054 0.011651853 0.32139796 0.049394775
000220 6f db a3 3e 21 75 be 3d 80 2f 01 3e 90 71 07 3d
       0.32003352 0.09299684 0.12615776 0.033067286
000230 6f 4d 9d 3c fe 3f aa 3d 35 6f cb 3d 14 63 32 3d
       0.019201962 0.08312987 0.099333204 0.04355152
000240 a4 24 a2 3e e0 b3 fa 3d e2 5a a6 3d 04 8b 1e 3e
       0.3166858 0.1224134 0.08122803 0.15482718
000250 fb 43 f6 3d 0b dd 14 3d e4 60 25 3e eb d1 8c 3e
       0.12024685 0.036343616 0.16150242 0.27503905
000260 5b 52 ec 3e 04 d9 e5 3e fb ac 35 3f 5f e1 95 3d
       0.46156582 0.44892132 0.7096707 0.07318377
000270 1d e1 df 3c 91 5c 29 3b 0b 64 b4 3e 49 0c 70 3b
       0.027329022 0.0025842527 0.35232577 0.0036628416
000280 20 5b a6 3d ed 55 e6 3d ef 2a 03 be 34 13 7f 3d
       0.081228495 0.11246858 -0.12809347 0.062274173
000290 08 c0 4a bd cf 10 d2 be 9f 5e a8 3e af 05 c7 be
       -0.04949954 -0.4102845 0.3288469 -0.38871524
0002a0 11 e9 8d 3e f4 29 14 3f 83 a0 9e be 77 cc af 3d
       0.27716878 0.57876515 -0.30981836 0.085839204
0002b0 87 35 c7 bc 3a ef 33 be b1 42 95 3e f8 ec 1a bf
       -0.024317516 -0.17571726 0.29152444 -0.60517836
0002c0 f8 24 00 3e a8 1e 88 bc e2 fd 4e 3e 36 02 a2 bd
       0.12514102 -0.01661618 0.20214036 -0.07910578
0002d0 4c 84 f0 3d eb 2a 29 3e 0a c3 06 3f ca 4c f1 3d
       0.117439836 0.16520278 0.52641356 0.117822245
0002e0 60 40 6a 3d 76 09 34 3e 9e 7f 5b 3d d4 df 70 bb
       0.0571903 0.17581734 0.053588502 -0.0036754506
0002f0 ec 39 48 bd dd b4 f2 3d 35 e3 2c 3f 33 22 51 3d
       -0.048883364 0.11850903 0.6753419 0.051058006
000300 37 42 81 bd 5a 13 0c bd b0 15 70 3d 07 1a 02 be
       -0.063114576 -0.034198143 0.058614433 -0.12705241
000310 5f 47 48 3c 3c 8b a4 3d 76 f9 29 be 13 b1 c1 3d
       0.012224047 0.08034369 -0.16599068 0.09457602
000320 12 c2 00 3c 2c 8e 24 bd 7a 5a e3 3d 4a a0 76 3b
       0.00785877 -0.04017465 0.111012414 0.003763216
000330 20 fd dd 3e b8 0a 9b 3d 5f 34 aa bd 7a e7 e6 bd
       0.43357182 0.07570404 -0.0831077 -0.112746194
000340 06 2a c4 bd 03 2b d3 3d 61 63 0d bd b1 5d 21 3e
       -0.09578328 0.10310938 -0.034518603 0.15758397
000350 dd 56 0b 3f 2d 3c 85 bc 41 43 bf bc 91 6b 5a 3d
       0.5442942 -0.016264046 -0.023347499 0.05332524
000360 57 2e c2 bd 91 85 23 3c 76 d8 77 bd 4e 52 7a bf
       -0.09481495 0.009980575 -0.060509168 -0.97781837
000370 0f 7e d3 be fb c8 c5 3e 3e 64 40 3e 63 21 78 bd
       -0.41307113 0.38629898 0.1878824 -0.060578715
000380 30 2e 2f 3e b7 f2 ad 3d ad b0 6f be 6e fd e0 3e
       0.17107463 0.0849356 -0.2340724 0.43943352
000390 f4 f0 43 3e 21 d3 54 3e 75 0c a7 bd 9d ef 13 be
       0.19134885 0.20783664 -0.08156673 -0.14446874
0003a0 0c fb 02 be 2f e3 2c be fa f5 92 bd 3a 17 40 be
       -0.1279108 -0.16883539 -0.071758226 -0.1875886
0003b0 d5 3a c3 3e 64 b3 99 3e b7 68 8d 3e 20 99 b6 be
       0.38130823 0.30019677 0.27618954 -0.356637
0003c0 8a 64 55 be 2c 41 54 be 8b 19 26 be fe 6e 6f bd
       -0.20839134 -0.20727986 -0.16220681 -0.05845546
0003d0 80 1a a4 3e 65 67 e4 bd 07 61 e4 bd a0 87 c9 bc
       0.32051468 -0.111525334 -0.11151319 -0.024600804
0003e0 55 f4 e1 bd 3d 60 0f be f6 63 83 3e b2 fb 00 bf
       -0.11032931 -0.14001556 0.25662202 -0.50384057
0003f0 df 51 19 be a8 19 bc ba 2c 8a 8c bd 9a 78 ee bd
       -0.14972638 -0.0014350908 -0.06862292 -0.11644097

input_to_hidden.bias f4 [128]
000000 5f d0 ee be df 37 62 bf e3 81 56 bf 52 3e 65 bf
       -0.4664335 -0.883665 -0.8379194 -0.8954822
000010 90 2e 51 bf f7 36 ba bf 29 d5 68 bf e1 22 4c bf
       -0.81711674 -1.4548024 -0.90950257 -0.7974072
000020 9e 9d e1 be 41 48 38 bf dd b6 2e bf fb 44 3f bf
       -0.44065565 -0.7198525 -0.6824778 -0.7471463
000030 64 c0 34 bf d6 01 75 bf 37 64 63 bf 4a 8c 50 bf
       -0.70606065 -0.95705926 -0.8882479 -0.81464064
000040 92 98 fa be 25 fe 68 bf 59 4b a2 bf 02 a2 5a bf
       -0.48944527 -0.91012794 -1.2679244 -0.85403454
000050 0d 23 1b bf 18 62 45 bf 1f 42 b3 be 6d ba 4e bf
       -0.6060036 -0.77102804 -0.35011384 -0.80753213
000060 1c 4c 83 bf 11 8b 81 bf 14 83 a6 bf 1a 99 95 bf
       -1.0257602 -1.0120565 -1.3008752 -1.1687348
000070 6f 1f 00 bf e7 89 8e bf ba b7 5f bf 16 02 a5 bf
       -0.50047964 -1.1135834 -0.8738972 -1.2891262
000080 42 e1 54 bf c4 35 47 bf 08 15 85 bf 24 a3 1b bf
       -0.83156216 -0.77816415 -1.0397043 -0.6079581
000090 24 fc 93 be 9c ea 20 bf 11 b4 91 bf 62 67 b6 bf
       -0.28903306 -0.62857985 -1.1383077 -1.42503
0000a0 a7 4b a7 bf ef 8b 8f bf 35 f4 d8 be bc 6b 66 bf
       -1.3069962 -1.1214579 -0.42373815 -0.9000814
0000b0 8d 47 33 bf a9 77 95 bf d6 4e 7c bf 8c 1a a2 bf
       -0.7003105 -1.1677142 -0.98557794 -1.2664351
0000c0 ca 88 3f bf e0 f0 93 bf 06 f7 36 bf 91 00 44 bf
       -0.748181 -1.1557884 -0.7147068 -0.76563364
0000d0 d7 31 51 bf 85 38 4a bf fc ab 83 bf 3e e2 74 bf
       -0.81716675 -0.7899249 -1.028686 -0.9565772
0000e0 cd 0f 5d bf a8 64 10 bf 71 74 d4 be 58 d5 12 bf
       -0.86352235 -0.5640359 -0.41495088 -0.57356787
0000f0 22 3a 31 bf 97 d9 44 bf 6e 3e 54 bf 26 9e 8b bf
       -0.6922933 -0.76894516 -0.8290776 -1.0907638
000100 0e 25 30 bf 3c a5 8b bf d3 6a e6 be 7d 88 31 bf
       -0.6880654 -1.09098 -0.45003375 -0.6934889
000110 27 da a2 bf ba e4 61 bf 20 f4 55 bf d3 4b b3 bf
       -1.2722825 -0.88239634 -0.8357563 -1.4007515
000120 e4 8d 53 bf 63 e3 82 bf 26 a9 4b bf 77 eb 3e bf
       -0.8263838 -1.0225643 -0.79554975 -0.7457804
000130 93 3f 37 bf f2 4b 7c be d6 e6 a5 bf cb 63 62 bf
       -0.7158138 -0.24638346 -1.296107 -0.8843352
000140 4c f1 3e bf 89 ef 4d bf 47 33 55 bf 33 f4 36 bf
       -0.7458694 -0.80443627 -0.8328137 -0.7146637
000150 f9 1b 92 bf 43 cf 21 bf 1a 93 12 bf 2e ed 63 bf
       -1.1414787 -0.6320688 -0.5725571 -0.8903378
000160 18 9a 59 bf cf 47 5e bf ec 71 47 bf a9 82 5a bf
       -0.85000753 -0.8682832 -0.77908206 -0.8535562
000170 04 03 94 bf 3f 68 86 bf 78 2f 5a be f1 c3 63 bf
       -1.156342 -1.0500563 -0.2130717 -0.8897086
000180 08 28 03 bf 8c 78 97 bf e2 a7 7d bf 8a be 16 bf
       -0.5123296 -1.1833663 -0.99084294 -0.5888449
000190 3d 10 6a bf 35 b7 16 bf 67 93 82 bf 98 03 48 bf
       -0.9143103 -0.588733 -1.0201234 -0.78130484
0001a0 bb 89 f5 be ed 2a 3f bf c0 e6 82 bf 34 21 5d bf
       -0.47956643 -0.74674875 -1.0226669 -0.8637879
0001b0 1d 5c 99 bf 77 ef 0e bf c9 0f 4f bf 29 a2 52 bf
       -1.1981236 -0.55834144 -0.8088346 -0.82278687
0001c0 87 40 8a bf 74 c3 53 bf 87 54 a6 bf 76 ba 8c bf
       -1.0800942 -0.8272011 -1.2994546 -1.0994403
0001d0 65 cc 8c bf 9f 4f a0 bf 97 87 1c bf 48 df 68 bf
       -1.0999876 -1.2524298 -0.61144394 -0.909657
0001e0 4e 67 ea be 98 db 90 bf 26 a8 a7 bf b3 60 44 bf
       -0.4578194 -1.1317015 -1.309819 -0.7671005
0001f0 89 ad 41 bf 2f 12 95 bf 46 ed 00 bf c6 65 59 bf
       -0.7565542 -1.1646174 -0.5036205 -0.8492092

hidden_layer_1.weight f4 [64, 128]
000000 3e ea 5b 3e a7 4b 6d bf 7a e5 f0 bf 67 6a f2 3e
       0.21476075 -0.9269356 -1.8820031 0.47346804
000010 e6 11 3f 3d 56 b9 3b 3e be 05 ac bf 81 b2 3e bb
       0.04664793 0.18332419 -1.3439252 -0.0029098096
000020 9f d5 84 3c 88 0d 80 3c 15 a9 fd bf 2b 5e 5f 3d
       0.016215144 0.015631452 -1.9817225 0.054533165
000030 6f f3 68 3d f7 ee 35 bb a1 c8 90 3e 43 d4 4c be
       0.05687278 -0.0027760842 0.28278068 -0.20002846
000040 9a ca 46 bd 22 07 b8 bf e5 e9 eb be 4b c4 c3 3d
       -0.04853306 -1.4377177 -0.46076885 0.09558924
000050 8b 4e f2 b9 98 91 c5 bf cd da 07 bb ad 53 90 be
       -0.00046216356 -1.5435057 -0.002072978 -0.2818884
000060 df 91 ab bf 90 83 a0 bd 48 42 95 3e 97 18 ed 3d
       -1.3403891 -0.078375936 0.2915213 0.11576956
000070 07 78 38 c0 0e 65 3a 3e 67 0f 47 bf ee 8e 7a 3e
       -2.882326 0.18202612 -0.7775788 0.24468586
000080 b4 f0 f5 be 38 7b 29 3e 83 95 1f 3f f3 62 92 be
       -0.48035204 0.1655091 0.6233751 -0.28591117
000090 b3 05 32 3a 2c 0c 02 3e 0f 53 19 3e 7a bd a1 3e
       0.00067910104 0.12699956 0.1497309 0.31589872
0000a0 77 31 90 3e f2 44 f1 bf f1 f7 0a c0 79 ca 62 3d
       0.2816274 -1.8849165 -2.1713831 0.055368874
0000b0 7a e4 e2 bd 9b 22 49 be d6 8b 26 bf 21 4e eb be
       -0.11078735 -0.19642107 -0.6505712 -0.45958045
0000c0 2f 77 c0 3e 11 2d cc 3d e1 cc 07 c0 40 79 fa 3e
       0.3759093 0.09969533 -2.1218798 0.4892063
0000d0 89 8a b8 3d 4c 2d 51 bf 02 fe ad 3e a1 9e 2e 3e
       0.090107985 -0.8170974 0.33982855 0.170527
0000e0 76 ba 06 3e 66 fa 02 c0 7b 2d 8b bf 6f 77 0f 3d
       0.13157067 -2.046533 -1.0873255 0.03502601
0000f0 05 64 e9 bd 5e 29 ba 3e 4b 27 08 bd 17 19 99 bd
       -0.1139603 0.36359686 -0.033240598 -0.07475489
000100 48 79 07 bf 72 ed 91 bf 1f 65 43 c0 ee cf 9d bf
       -0.52919436 -1.1400588 -3.053047 -1.232908
000110 40 33 d5 bf 7c 83 a6 3e 0b 35 b8 bd e8 e0 94 3c
       -1.6656265 0.3252219 -0.08994492 0.01817365
000120 56 6b d2 bf fa b5 26 3d f4 56 13 bd f7 9c 57 3d
       -1.6439006 0.04070089 -0.035971597 0.052639928
000130 e5 41 c3 be 56 72 c1 3c 30 d6 55 3e d0 d3 f9 bd
       -0.3813621 0.02361409 0.20882487 -0.12198603
000140 73 10 20 bf 84 db 7b bf cc 59 e7 be 50 d2 8c 3b
       -0.625251 -0.9838183 -0.45185697 0.004297532
000150 f9 3f 0b bd 4d 11 b1 bf ef 0a 49 bf 28 90 fa 3c
       -0.033996556 -1.3833405 -0.7853231 0.030586317
000160 a4 dc 93 3c f6 2e b5 3d 0e d8 fa be 4b c5 6e bd
       0.018049546 0.08846848 -0.48992962 -0.058293622
000170 81 89 14 c0 f9 00 1b bf da 40 8e bf 09 31 05 c0
       -2.3208926 -0.6054836 -1.1113541 -2.0811179
000180 be c9 90 bf c3 98 26 3e 80 71 ab bf 6b 96 09 3f
       -1.1311567 0.16269211 -1.3394012 0.53745145
000190 73 c5 af 3d fd 0f 86 bf 7c 8d 1b 3c 47 2d 02 bf
       0.08582582 -1.0473629 0.009494182 -0.5085034
0001a0 b6 18 8e bf 75 ba bf 3d 8e db 7e 3e a5 3e c5 3d
       -1.1101291 0.09361736 0.24888441 0.09631089
0001b0 9f 97 6e 3e 03 88 90 bb 44 99 7e bc 8d c0 df 3d
       0.23300026 -0.004410745 -0.015539471 0.10925398
0001c0 b8 9f 66 3d 88 97 88 3e 6c e1 28 be 97 da b0 bf
       0.056304663 0.2667811 -0.16492242 -1.3816708
0001d0 23 c0 05 bf 76 05 9c 3d 1e 48 8a be a5 b9 04 c0
       -0.522463 0.07618229 -0.27008146 -2.0738308
0001e0 f9 0f 00 bd 2d dc 60 3e 49 ca 36 bf cf 2a 6d bf
       -0.031265233 0.2195899 -0.7140241 -0.92643446
0001f0 fe 36 84 bf 46 31 c7 3e 2d fc 11 c0 53 81 d0 3e
       -1.0329282 0.3890478 -2.2810166 0.40723667
000200 20 09 4d 3d 16 8d c4 be a5 f3 d0 3d b2 64 8e bc
       0.05005753 -0.3838889 0.102027215 -0.017382
000210 f3 41 07 bd 89 7a c9 bf cd dc c9 3d 07 c3 2d 3e
       -0.03302188 -1.574052 0.098565675 0.16968928
000220 9e 6b b7 3d 58 7c a0 bd b5 f5 8b 3c d1 02 c1 3d
       0.08956073 -0.07836217 0.017084936 0.09424365
000230 f3 9f b8 bf af ec eb be 85 73 e0 3e 89 48 cf 3d
       -1.4423813 -0.46079013 0.43838134 0.10121257
000240 df ec 57 3d 4c 85 19 bb 2a cf c4 3d 9c b8 14 3e
       0.052716132 -0.0023425398 0.09609826 0.14523548
000250 48 6e 91 3b 64 5f 33 3e f3 4a 46 3d 10 26 0e c0
       0.0044381954 0.17516857 0.04841132 -2.2210732
000260 a8 5e f6 3b 4f 88 0e 3e 87 e3 23 bf 5d 4a 1d be
       0.007518608 0.13919185 -0.64019054 -0.15360399
000270 23 4f 18 bc 1d dd 9d 3e f5 e9 cc 3d 84 f3 f7 3c
       -0.009296211 0.3083276 0.10005561 0.030267484
000280 d2 df 2c 3e e8 bc 92 bf 2b c5 32 bf 85 c0 30 bd
       0.16882256 -1.14639 -0.69832104 -0.04315235
000290 f9 3c ce 3c 31 e8 b0 bb 46 92 1c bd 6f 75 25 3e
       0.025175558 -0.005398773 -0.038225435 0.16158079
0002a0 df e6 9b 3e 8b f5 68 3e 88 fe f0 be 30 1f 00 3e
       0.30449578 0.22749917 -0.47069192 0.12511897
0002b0 18 9f 91 3d 3e b5 db bd 7c ae 46 3d c6 cd 7c 3e
       0.07110423 -0.107279286 0.048506245 0.24687871
0002c0 99 4f 88 3d 25 41 f3 bf 2f 10 ae 3e 4d 0c bc be
       0.06655807 -1.9004256 0.33996722 -0.36728135
0002d0 0d 16 2e 3d f6 23 8e 3d 57 41 08 3d 91 8d a6 3d
       0.042501498 0.06940453 0.033265438 0.081324704
0002e0 19 7b 70 be b9 21 8a bf 10 2e 1d 3d 3f b8 94 3d
       -0.23484458 -1.0791541 0.038374007 0.07261705
0002f0 00 cd e9 3b c1 dd b7 be 8e 1e 3f 3e 6f 8e 4e be
       0.0071350336 -0.35911372 0.18664 -0.20171522
000300 ca e5 d5 3c 25 96 85 bd b2 53 8d bc 5e bd 40 bf
       0.026110549 -0.065227784 -0.017251823 -0.7528895
000310 ae 39 97 3b 8e 39 28 be 3e cb 70 3d ea 6a 0e c0
       0.0046150303 -0.16428205 0.058787577 -2.2252755
000320 c4 8a 9a bc bd 24 f0 bd 3e 60 ec bc 60 8f b0 be
       -0.018864997 -0.11725757 -0.028854486 -0.34484386
000330 7d e1 7a bc aa 31 4c 3d 0e a9 c0 bf fd 4e 27 3e
       -0.01531255 0.04985205 -1.5051591 0.16338725
000340 86 cf 48 bc 1f 37 41 bd 00 bf 94 3d d3 03 2f c0
       -0.012256509 -0.04717171 0.07262993 -2.7346084
000350 31 17 9b bf 2b f7 69 3d ee 97 84 bd 65 5c 45 c0
       -1.2116452 0.057120483 -0.06474291 -3.0837643
000360 68 50 39 be ea 32 3b 3e 48 1b be 3d 3b 5e 8a bf
       -0.18097079 0.18281141 0.09282547 -1.0810007
000370 36 ae d4 be 9d 03 30 be 79 54 2c 3d bc 9c 93 3c
       -0.41539162 -0.17188878 0.042072747 0.018019073
000380 0b 89 9b be e2 06 2c bf 91 42 c7 bd 3d cc 58 bd
       -0.30377993 -0.67198 -0.097294934 -0.05292915
000390 d5 24 80 3d 5e f9 d6 be bc 7a bd bc 97 11 34 3e
       0.06257025 -0.41987127 -0.023129813 0.17584835
0003a0 b0 84 8d 3d 23 c7 d0 3d e9 99 e1 bf 0f 30 f4 bd
       0.06910074 0.10194232 -1.7625095 -0.11923229
0003b0 f0 7a f0 bf d5 aa 41 c0 7c 75 1b 3d 89 6f 63 3d
       -1.8787518 -3.0260518 0.03795384 0.05552629
0003c0 7b 3f b8 be db 3a 14 bc bf 77 65 3e 32 18 0e be
       -0.35985932 -0.009047235 0.22408961 -0.13876417
0003d0 f9 dc 15 3e c4 1f 5a 3e eb d1 bf bf f4 f3 c7 bd
       0.14635076 0.2130118 -1.4985937 -0.09763327
0003e0 e2 d8 d8 bd 27 46 88 be fe da c7 be e4 ee 2f 3d
       -0.10588242 -0.26616022 -0.39034265 0.042952433
0003f0 fb f5 8a bd 3d d6 31 3e 25 c8 a8 bd 3b 65 ab bd
       -0.06785198 0.17366882 -0.082412995 -0.083689176

hidden_layer_1.bias f4 [64]
000000 c9 70 7f be 56 c5 10 3c c0 87 8d 3d 4c 17 46 3e
       -0.24945368 0.008836111 0.06910658 0.19344825
000010 94 fe 5f 3d f2 e2 52 3e 4a ca ae 3e 19 19 d9 bd
       0.054686144 0.20594385 0.3413871 -0.1060049
000020 c9 2d 1b 3e 5e 50 0d 3e 5b 7b a4 3e 18 b8 ac bd
       0.15154184 0.13800189 0.32125363 -0.084335506
000030 8f 77 8e 3d 45 30 8c bd 19 5a a5 3e 39 cf ec be
       0.06956398 -0.06845144 0.32295302 -0.46251848
000040 70 45 63 3e 7d 8b 7b be db 63 3d 3e 04 1b c1 be
       0.22194457 -0.2456493 0.18495123 -0.37715924
000050 e9 51 5f 3c d3 2d 9e 3e d8 f3 c7 be 33 2b 1a be
       0.013630369 0.30894336 -0.39053226 -0.15055542
000060 90 52 01 bd 7a a5 88 3e fc 75 76 be 4b c7 5a 3e
       -0.03157288 0.2668875 -0.24068445 0.21365087
000070 e3 d5 90 3d 33 25 e2 bc 75 dc 9f be 6e 78 98 3d
       0.07072046 -0.027605629 -0.31222883 0.07444845
000080 3f 58 28 3f c9 5a 80 be 59 37 45 bf 05 4b 61 be
       0.6575965 -0.25069264 -0.7703758 -0.22001274
000090 66 c4 2b be df 3c 2c be 9d 66 78 3d 9e 9d 13 3e
       -0.16774139 -0.16820095 0.060644735 0.14415595
0000a0 47 a3 62 3d 74 7e b5 be f9 74 7d 3e e7 f8 83 3d
       0.055331495 -0.3544804 0.24751653 0.06443959
0000b0 0f c8 1f be ea 25 0d 3f e2 8c b6 bd a1 ed b9 3e
       -0.1560366 0.5513598 -0.0891359 0.3631411
0000c0 a6 7e 4a 3e 8a e8 ee 3c 18 7a 5a bd 27 cc 96 be
       0.19774875 0.029163618 -0.053339094 -0.2945263
0000d0 02 75 a5 3e 3a c3 15 bb c0 37 b6 3d 2c 0e 48 be
       0.32315832 -0.002285196 0.08897352 -0.19536656
0000e0 61 5d 05 be a3 61 6a bd 4b ab b2 3d 54 fc a8 be
       -0.13023902 -0.05722202 0.08724078 -0.3300501
0000f0 f7 14 93 be 7b 54 38 3e cf 7b b5 be 93 28 f8 bc
       -0.28726932 0.18000977 -0.3544602 -0.030292785

hidden_layer_2.weight f4 [32, 64]
000000 b0 c7 70 3e a7 0e 02 bf de e2 93 3e 43 bf 50 bf
       0.23513675 -0.5080361 0.28884023 -0.8154184
000010 9e e4 93 3e 4a 8d 88 3e 16 6f f0 bd b1 e6 4a be
       0.2888536 0.26670295 -0.11739938 -0.19814564
000020 bd 1c a9 be 83 c3 8b bd ce ba d5 be ac 36 63 3e
       -0.33029738 -0.068244 -0.41744083 0.22188824
000030 36 c7 b6 bf 30 c0 ee 3b 72 6c d8 3d 1d ca 3d 3f
       -1.4279544 0.007286094 0.10567559 0.74136525
000040 a3 4d 15 be 22 77 4e 3e 1a 29 dd be b5 af 34 3f
       -0.14580397 0.20162633 -0.4319542 0.7058061
000050 82 44 a4 3e 02 1f 73 bf 61 65 19 3e 5f d3 7a be
       0.32083517 -0.9496919 0.14980079 -0.24494694
000060 2f d1 22 bf 64 6f 29 bf ab be d6 3e a2 0e 30 bf
       -0.6360044 -0.66185594 0.41942343 -0.6877233
000070 d6 10 23 bf e1 35 b0 be 5f c3 c0 be 14 de 43 bf
       -0.63697565 -0.34416106 -0.37649056 -0.7651074
000080 b2 f5 78 bf e9 69 71 bd 02 f6 3b be 0c d5 23 3e
       -0.972499 -0.058938894 -0.18355563 0.1599924
000090 db d1 05 bd e4 1d 31 3c 6a e5 0f bf 8f 1b a9 3e
       -0.032670837 0.010810349 -0.56209433 0.33028838
0000a0 f9 ab b8 bf 83 39 a1 bc a1 f6 85 be 20 ab c4 3e
       -1.4427482 -0.019680744 -0.26164725 0.38411808
0000b0 9a 17 e5 be 92 c6 90 bf 56 65 b9 3e a8 a9 06 be
       -0.4474457 -1.1310599 0.36210126 -0.13150656
0000c0 55 63 94 bf 26 5a c6 be f5 ad 98 bd 2a 1e d6 3c
       -1.1592814 -0.38740653 -0.07455055 0.02613743
0000d0 78 21 ba bf 6b 71 c4 3d f7 63 26 3f 18 17 b2 be
       -1.4541464 0.09591945 0.64996284 -0.34783244
0000e0 59 ad 0d be bc c0 72 bc e2 b0 74 bd b0 27 4f 3e
       -0.13835658 -0.014816459 -0.059739 0.20229983
0000f0 31 e4 bc 3e f5 be 04 bf 6d 7c 96 be 6b d7 e5 be
       0.36892846 -0.5185388 -0.29391804 -0.44890913
000100 84 17 95 3f 98 42 15 be 1a 91 a7 3e d8 eb af be
       1.1647801 -0.14576185 0.3272789 -0.34359622
000110 4f 73 84 3e 95 81 91 3e 8a 2c 82 bd 1f 5d 81 bf
       0.25869223 0.28419176 -0.063561514 -1.0106543
000120 9a ed 6b bf ee ae 8f 3d 57 14 30 bf e7 c8 38 bd
       -0.92159426 0.07015787 -0.68781036 -0.04511347
000130 f0 de 23 bd 2f 08 37 3c a4 c8 69 3c 6c 0a 05 3e
       -0.04000753 0.011171385 0.014269028 0.12992257
000140 56 fe 6c bd d3 c8 0b 3f 48 61 a4 3a 04 a2 d0 bb
       -0.05785974 0.5460331 0.0012541199 -0.00636697
000150 91 e0 0e 3f ae 0d 1f bf da 7a 6b 3f f7 e6 cf be
       0.5581141 -0.6213025 0.9198433 -0.406059
000160 59 d7 c3 3e 08 13 90 bf 6c fa 54 be 3d f8 7a be
       0.38250235 -1.1255808 -0.20798653 -0.24508758
000170 0a 44 46 bf f2 52 21 bf a8 c9 68 3e b2 39 ce be
       -0.7744757 -0.6301719 0.22733176 -0.40278393
000180 e4 f7 8a 3e aa 4f 81 3d fb e9 c8 3e c4 a5 65 bd
       0.2714225 0.06314023 0.39241013 -0.05606629
000190 7a cf 45 be 65 32 4d 3e 9d 0a ea bc 43 d9 08 3f
       -0.19317427 0.20038755 -0.028569514 0.53456515
0001a0 8c 12 68 be dd 2d bb bd 85 d0 19 3f 3e db ac be
       -0.22663325 -0.09139607 0.600838 -0.3376102
0001b0 78 8c 96 be c7 43 c0 bf 6b 28 12 3e 43 3d 95 3e
       -0.29404044 -1.5020684 0.1427323 0.291483
0001c0 7c ac f2 be e8 fe b7 3e 8c ef b8 3d da 24 04 be
       -0.4739722 0.35936666 0.09030065 -0.12904683
0001d0 e5 32 a6 bf 07 e4 0f 3c 78 27 2e 3f 8a d2 9c 3e
       -1.2984282 0.008782393 0.68028975 0.3062938
0001e0 56 a1 bf be 41 a3 bf b8 eb cd 83 be b9 40 3f 3e
       -0.37427777 -9.137998e-05 -0.2574304 0.18677033
0001f0 23 50 46 3f 8a 0d 95 bf 2f 2e b6 be 0d 7b 81 be
       0.7746603 -1.1644757 -0.3558211 -0.25289193
000200 a0 4e 0d 40 5a 5a 13 bd ef 16 28 be 8c b8 47 3e
       2.207924 -0.035974838 -0.16414998 0.19503993
000210 37 2b 64 be 46 b4 82 3f 15 52 4d bd 7a 88 28 3f
       -0.2228211 1.0211265 -0.050127108 0.65833247
000220 f0 d6 3f 3f 90 17 5e bb 80 2e 4b 3f 5f c9 ea bb
       0.74937344 -0.0033888556 0.7936783 -0.0071651186
000230 25 64 8d bd a9 de a1 3e d2 85 88 bd 51 46 50 be
       -0.06903867 0.3161519 -0.06666149 -0.20339324
000240 36 6a 05 bc c9 4c 2b bc 7e 24 77 3d dc 86 5c 3f
       -0.008142998 -0.010455319 0.060337536 0.8614328
000250 91 5c 12 3f 8a f9 4b 3e fb 57 c3 3f ea f4 f3 3c
       0.57172495 0.1991941 1.5261225 0.02977987
000260 70 ff d1 bd 16 30 0c 3f 9e 47 96 3e f4 e9 1b be
       -0.10253799 0.54760873 0.29351515 -0.15225965
000270 71 43 dc 3b 5c 68 49 3f f5 98 13 3f 30 7b 3a 3f
       0.006721907 0.78674865 0.5765527 0.7284422
000280 e9 15 d8 bd 19 31 07 be 11 86 9f bd 22 f8 2e be
       -0.10551054 -0.13202323 -0.07789243 -0.17086843
000290 14 df 10 be b1 7b d4 bd c3 5d d7 3d 31 08 33 3f
       -0.14147598 -0.10375155 0.105159305 0.69934374
0002a0 60 23 c5 3e 48 06 22 3d f3 2d 96 3f e8 57 0d be
       0.3850355 0.03955677 1.1732773 -0.13803065
0002b0 1e e4 77 bd 1b 4e 40 3f fa fc e8 be 14 f5 b9 be
       -0.060520284 0.7511918 -0.45505506 -0.36319792
0002c0 ce 2c 3c 3f 31 ff 55 3a ce 9b a8 bd 21 0f ba ba
       0.73505867 0.00081633317 -0.082328424 -0.0014195183
0002d0 b3 c3 31 3d 59 99 d4 3e 8f ca b8 3f df 07 80 3e
       0.043399524 0.41523245 1.4436816 0.25006005
0002e0 b1 d0 1e 3e 05 e3 99 3c ea 20 81 3f f5 d2 e2 bc
       0.15509297 0.01878501 1.008817 -0.027688483
0002f0 99 07 d6 be be 15 e1 3e 47 df 22 3e f0 19 2f 3e
       -0.41802672 0.439619 0.15905486 0.17099738
000300 a3 d7 80 bf 6b d3 38 bf fc 00 8a 3e ed b9 7f bd
       -1.0065807 -0.721976 0.26953876 -0.062433172
000310 9f 1c 22 bf a5 3d c7 3e 23 94 40 bf c0 56 ae bd
       -0.6332492 0.3891422 -0.7522604 -0.0851264
000320 fc a7 08 3e b4 bb 49 bf a8 ea af bc d3 fd 02 bf
       0.13345331 -0.7880204 -0.021474198 -0.51168555
000330 fb d4 da bc cb 73 7a 3e 1f a2 a5 bd 38 72 03 3f
       -0.026712885 0.24458234 -0.08087563 0.5134616
000340 be de 43 be ac 1e 1c bf 37 58 ad be 4a 1c 21 3f
       -0.19127938 -0.609843 -0.33856365 0.6293379
000350 35 01 b4 3e 34 8b a5 bf 9e 23 a8 be 69 25 1b 3d
       0.3515717 -1.2933106 -0.32839674 0.037877474
000360 df 0c b5 3e 77 ab af bc eb 2b ed 3c 35 2d 1e bf
       0.35361382 -0.021444065 0.028951606 -0.6178773
000370 1b 10 ee 3c c0 b1 8b bd 79 54 f9 ba 11 39 36 3e
       0.029060414 -0.068210125 -0.0019022367 0.17795207
000380 8f 8f c1 bc 47 a4 74 bf 72 0e d7 3d cf a8 8a bf
       -0.023628024 -0.9556317 0.10500802 -1.0832766
000390 cb 95 27 bf 28 ce d8 be 89 4b be bd 55 b2 23 3e
       -0.6546294 -0.42344785 -0.09291751 0.15985997
0003a0 d9 ed b9 bc 9d 61 b6 bf 4e f9 19 3f 5c d3 01 bf
       -0.022696422 -1.4248539 0.60146034 -0.50713134
0003b0 ca c4 99 bf ee 78 20 bc 57 f2 5f be 5b 87 25 3f
       -1.201318 -0.009794457 -0.21869789 0.6465966
0003c0 03 ff 64 bd 58 bd d0 be 5e 28 6a 3d 1b b1 3e bf
       -0.05590726 -0.40769458 0.057167403 -0.7448899
0003d0 43 b9 ef 3d 64 fe ef 3d d3 8c 4c 3e 6f 2b 68 3e
       0.11705258 0.11718443 0.19975595 0.22672819
0003e0 ff 5f 2e 3e 7a 08 97 bf ee d4 ce bb 43 0d 27 bf
       0.17028807 -1.1799462 -0.0063120043 -0.6525461
0003f0 c7 ce a3 be 03 00 85 bc 3c 73 a7 bf 3d 4d 9f 3d
       -0.31993696 -0.016235357 -1.3082042 0.07778404

hidden_layer_2.bias f4 [32]
000000 59 91 6d 3e 48 9f 8c 3e 47 cc 23 3e 1e da 88 3e
       0.23199977 0.27465272 0.15995894 0.2672891
000010 b7 79 1c 3e a1 a4 81 3e 76 31 d9 3c 31 47 06 3e
       0.15280806 0.25320914 0.026512843 0.13113095
000020 6b 42 88 3e 91 e6 b0 3d fb 9e 0f 3e 5a 0a c4 3c
       0.26613173 0.08637727 0.1402549 0.023930717
000030 10 d7 8f 3e c7 00 42 3e bd c2 02 3e 2e 47 96 3e
       0.28093767 0.18945609 0.127696 0.2935118
000040 f4 92 ca 3e 0c a9 7e 3e 3d e9 bd 3e e6 69 37 3e
       0.3956524 0.24869174 0.3709201 0.17911491
000050 ff c7 5a 3d 78 36 82 3e 51 83 8f 3e 43 e0 be 3d
       0.053413387 0.2543218 0.28029874 0.09320118
000060 66 de 56 3e 93 a0 e1 3e 68 c4 86 3c ec 8f 5a 3e
       0.20983276 0.4406782 0.016451076 0.21343964
000070 2e 69 85 3e 0c 95 82 3d 81 94 72 3e 62 f7 29 3e
       0.26056808 0.06376085 0.23689462 0.16598275

hidden_to_output.weight f4 [7, 32]
000000 2a e2 2c bf 4a e1 0d bf 03 23 81 3e cd 30 e3 3d
       -0.675326 -0.5542189 0.25222024 0.110932924
000010 e0 52 db 3d 85 21 b8 be 08 03 04 bf f3 b0 fd be
       0.107091665 -0.35963073 -0.51567125 -0.49549064
000020 46 f6 df 3d ed a9 63 bd 5e f1 ed 3e 11 de 7d 3e
       0.10935645 -0.055581976 0.4647321 0.24791743
000030 64 09 a3 3e 74 cd 0a bf 81 b9 9f 3e 9a c0 d4 be
       0.31843102 -0.54219747 0.31196216 -0.41553193
000040 dc e3 b8 3d 27 3c 04 3f 19 c4 a0 3d 4c 19 d9 be
       0.09027836 0.51654285 0.07849903 -0.42402112
000050 55 2f 86 3e eb 07 29 3e e8 a7 31 be 26 0f 34 be
       0.26207986 0.16506927 -0.17349207 -0.17583904
000060 a8 4e 1b be 63 61 7e bc a0 f8 c5 3e d3 39 32 bf
       -0.15166724 -0.0155261485 0.38666248 -0.6961948
000070 31 3f 5b 3d 52 25 2e bd 0b 0a b8 3d b1 dd ab bf
       0.05352706 -0.04251606 0.089862905 -1.342703
000080 6d 7f 4e bf cf f6 31 bf 12 64 71 3e 7b 70 c6 be
       -0.80663186 -0.69517225 0.2357333 -0.3875769
000090 9b 00 69 3e c5 35 a8 3d 7f 89 c8 3d bd 5c 8c 3d
       0.22754137 0.08213381 0.0979185 0.06853626
0000a0 c5 c9 a2 be 7d 68 1b bf f5 75 ae be be 67 78 3e
       -0.31794563 -0.6070631 -0.3407437 0.24258325
0000b0 6f 92 9f 3e 70 51 9a 3d 22 5d a2 3e 65 e7 4b be
       0.31166407 0.07535064 0.3171168 -0.19912489
0000c0 76 98 a6 3d d8 b8 02 3f d7 50 a5 3d 49 10 3c 3d
       0.08134548 0.510633 0.080720596 0.04591397
0000d0 83 b1 80 3e e1 ce 23 3e 02 f2 7f 3e 2e b8 6d 3e
       0.2513543 0.15996887 0.24994662 0.2321479
0000e0 b4 1a 7e 3e ea 02 98 3e 97 15 2c bd 4d a6 8d bd
       0.24814874 0.29689723 -0.042012777 -0.06916485
0000f0 e4 46 c4 be 7e 88 5a bd 77 e7 a6 be 2d 06 05 bf
       -0.38335335 -0.053352825 -0.3259847 -0.5196255
000100 12 cb c4 3e 68 0d 10 3e e9 b3 96 bf d7 87 97 bf
       0.3843618 0.14067614 -1.1773654 -1.183833
000110 23 96 d6 be 28 02 f6 3d bc 21 42 3e 8e 2f 20 3e
       -0.4191142 0.1201213 0.18958181 0.1564314
000120 29 8a 22 be 68 56 88 bc 6b 94 ea bf db 23 64 bf
       -0.15873016 -0.016642764 -1.8326544 -0.8911721
000130 23 79 42 bf 18 6d 56 bd c1 43 9a bf cf 48 6e 3e
       -0.7596609 -0.052350134 -1.2051927 0.23269962
000140 38 c7 a4 3e fc 91 25 bf 4e 5b 74 bf 54 36 a0 3d
       0.32183242 -0.6467588 -0.9545182 0.07822862
000150 4f 11 1c bf 0c 1d b4 3c a8 1a 7c 3e 7f c2 5d 3e
       -0.6096391 0.021986507 0.24619544 0.21656226
000160 04 c6 5b 3e 25 96 91 3e c5 d5 41 bf 82 e4 4f bb
       0.21462256 0.28434864 -0.7571681 -0.0031721895
000170 23 18 1e bf 1a 5d 00 be 2c 8f 10 c0 b9 56 67 3e
       -0.6175558 -0.12535515 -2.2587385 0.22591676
000180 2b 80 df 3e 81 0f 5e 3e dc 0f ba bf ae 50 eb 3d
       0.43652472 0.21685602 -1.453609 0.11489998
000190 8e 37 16 c0 9d f7 46 3d a5 1a 4a 3e b7 c5 6e 3e
       -2.3471408 0.048575986 0.19736727 0.2331761
0001a0 e1 56 cd 3e e9 39 f2 3c 90 9e 97 bf 7e 90 1a c0
       0.40105346 0.02956863 -1.1845264 -2.415069
0001b0 a1 e5 7c c0 c9 2b 86 bf 8d 01 29 c0 0d 23 03 bf
       -3.9515154 -1.0482112 -2.6407197 -0.5122536
0001c0 dd 24 b7 3e 32 b4 53 c0 4c ab 86 bf e4 ea 0c bd
       0.35770312 -3.3078732 -1.0521026 -0.034403697
0001d0 c5 06 09 c0 07 c2 30 c0 98 a9 e8 be d6 b7 40 be
       -2.1410382 -2.7618425 -0.4544189 -0.18820128
0001e0 13 97 fd be fe 66 40 bf 22 6a 12 be 6d c2 01 3c
       -0.49529323 -0.75157154 -0.14298299 0.00791989
0001f0 1e 06 c0 3d c7 2a 41 bf 1e 83 c5 bf 01 68 89 3e
       0.09376167 -0.754559 -1.5430639 0.2683716
000200 6a 44 f3 bc 61 c6 af 3e b6 fe 11 bf fe f8 01 3f
       -0.029695708 0.3433104 -0.57029283 0.50770557
000210 ac 19 b7 3e bd f5 f4 be 16 74 84 be ba 2e b1 bd
       0.35761774 -0.47843733 -0.25869817 -0.086514905
000220 79 7d 9f bf 28 77 7b bf c9 68 5c bf 1c 9c 4e 3e
       -1.2460166 -0.98228693 -0.8609739 0.20176739
000230 2c 8d a0 3e fb c4 17 bd 30 7b 99 3e 43 27 49 3e
       0.31357706 -0.03705309 0.29976797 0.19643883
000240 77 54 62 bf 89 71 03 3f 76 80 af 3d 8f 3f 12 3d
       -0.88410133 0.51345116 0.08569424 0.035705145
000250 e8 4a 71 bf 29 51 85 be 92 e2 8d 3e 85 be 88 3e
       -0.9425492 -0.26038483 0.27711922 0.26707855
000260 4a 27 9e 3e 73 97 45 be 9d c2 85 bd 2e 5b cc be
       0.3088935 -0.19296055 -0.0653126 -0.39913315
000270 bd 78 58 bf f1 1e c0 bf 00 57 64 bf 1c e0 96 3d
       -0.8455923 -1.5009443 -0.8919525 0.07366964
000280 1b d3 4d be fb 44 f9 3d 96 cd 54 3d f5 75 45 bf
       -0.20100062 0.1217136 0.051953875 -0.77133113
000290 17 a1 84 3e 06 89 ec 3d ea 86 2e 3e a3 c7 ab be
       0.25904152 0.11549573 0.17043653 -0.33550748
0002a0 b1 35 99 3e 37 b7 13 be 94 e1 c6 bf 4c 7f ac bf
       0.29923776 -0.1442536 -1.5537591 -1.3476348
0002b0 96 e8 82 bf 89 80 04 bf f0 67 97 bd 70 33 bd be
       -1.022723 -0.5175863 -0.073928714 -0.36953306
0002c0 f3 13 aa 3e f7 96 3c bf fb 24 d3 3c bb 4d 8e 3d
       0.33218345 -0.73667854 0.02577447 0.0694842
0002d0 af 81 d8 bf c0 60 88 bf 57 36 77 3e 53 6c 8c be
       -1.6914576 -1.0654526 0.24141823 -0.27426395
0002e0 11 a0 06 bf e3 32 ae 3e 19 ea 91 bf 92 36 de bc
       -0.5258799 0.34023198 -1.1399566 -0.02712563
0002f0 07 48 0b bf 28 0e 2a be 4f 6d bc bf b2 9a 67 3e
       -0.5440678 -0.16606963 -1.4720858 0.22617605
000300 e1 0b 14 bf 7a a2 ba be 50 10 83 3e 3e 05 9e bc
       -0.57830626 -0.36452085 0.25598383 -0.019289609
000310 eb f4 5b bf a6 ea ee bf e0 f9 81 3e d3 9d 36 3e
       -0.8592059 -1.8665359 0.25385952 0.17833643
000320 f7 ca 05 3e d8 d2 9e bc 15 90 06 bd 34 a1 85 3e
       0.13065706 -0.019387648 -0.03285225 0.2609955
000330 f5 4e 83 be f6 c0 2b 3d ff 73 03 be f5 e0 9d 3e
       -0.25646177 0.04193207 -0.12837218 0.3083569
000340 a1 68 7b bf 24 5f ad be 60 67 88 bf 09 a8 b3 be
       -0.98206526 -0.3386165 -1.0656548 -0.35089138
000350 f0 10 8a 3e 65 8b 68 be a1 3d 80 be e8 19 8f 3e
       0.26966047 -0.22709425 -0.2504702 0.27949452
000360 11 1c c6 3e 50 16 13 c0 bc c5 dd 3e 22 3f 8a bf
       0.38693288 -2.2982368 0.43314922 -1.0800517
000370 e4 f3 b1 3d ce 4d f1 bc 80 9c e4 3d ed b1 9d c0
       0.086890966 -0.029456045 0.111626625 -4.9279695

hidden_to_output.bias f4 [7]
000000 f7 81 13 3d 24 d7 45 3e e4 d8 6a 3e fa 71 9c bf
       0.036012616 0.19320351 0.229343 -1.2222283
000010 40 1e d2 be 00 30 b8 3e 45 52 93 bf
       -0.41038704 0.3597412 -1.1509482
