models/rnn-regression.pth (torch, 453458 bytes, 14 tensors)

input_to_hidden.weight_ih_l0 f4 [128, 21]
00000000: 9017 81bd 7db7 86bd 02a8 b93a 70c1 883d
00000010: 06aa d93c d260 863d 0260 93bd ba65 a8bd
00000020: 4555 14bd 5b14 713d e73e a1bd 5e9c 39bc
00000030: af55 ab3c 98a7 f73b fa7a 8a3d cf2a 7f3c
00000040: 0bf0 183d 854d 1cbd 6a57 773d 1b50 5c3b
00000050: e897 17bc b21c 873c ec7f 803d 3f73 2d3d
00000060: 3cf9 4c3d 8794 313d 124f 033d 88fa 9fbd
00000070: 02da 663d 7a3a 15bd 8e58 a23d c038 82bd
00000080: 57a7 5cbd 03ab 6abc 3daf 9e3d 761b 163d
00000090: 7ea3 d63c 383c 9a3d 07d3 b0bd bd34 8abd
000000a0: f5ee 1f3c 517d 203d 87ad e63c 08f7 263d
000000b0: 9466 2a3d 7e66 d6bc 73aa 4e3d da7b 1dbd
000000c0: b23d 033d 1ecf 5cbd 3e63 a4bd beae fcbc
000000d0: 788c 9e3c 2470 85bd d9ad 3b3d 5aa0 f2bc
000000e0: 5701 393d c5fc 433b c309 25bd f4c3 0d3d
000000f0: 390f e2bc 549d a9bd c2b3 663d 1278 8c3d
00000100: ec98 393d 9d2d 48bd db1f ff3c e421 8bbd
00000110: 2ada 86bd e542 6b3d 6f17 fd3c 2351 c83c
00000120: 9ff7 263d de3a f2bc 9d74 823d cdb1 4ebc
00000130: 6bbf 883d a93d d4bb 8fcc 13bc 4b31 013c
00000140: 9ccc 75bc 6fb3 a53c 82e1 86bd 4a42 a63b
00000150: e93b 89bc 0786 523c 3184 4ebd dcdc d23b
00000160: b77e 403d 23ef fdbc cd1c a6bd 528d 113c
00000170: 35b5 93bd b3d7 8c3d 5301 f7b9 7a4a c2bb
00000180: c9ac 8f3d e291 293d 0b3c f5bc 58fe 103b
00000190: 6a91 2d3d 47bc fe3c d65e 80bd 0d2e c93c
000001a0: 4487 31bd 669c de3c ab25 903d 2cc0 6a3c
000001b0: a9e1 273d 7e88 38bd 7871 6c3d 8e5f d6bc
000001c0: b520 8c3d c0b2 0a3c 3751 053d 53ee 48bc
000001d0: f477 c4bc 5056 7b3c c85f 1b3c bc0c f1bc
000001e0: 8661 2ebd 47b1 ea3c 97b7 d13c 1d44 853d
000001f0: 97d1 923d ac7e 8e3c 577d 833d 649a 1bbd
00000200: 3db4 283a b109 e43c 45ed eb3b 3075 3dbd
00000210: e5a6 ae3d 5564 a0bd 6019 a53d a530 06bd
00000220: 94c3 113c abfd 10bd f60e 5cbd e153 8e3b
00000230: 4ace 40bd 0d11 3d3d c5a9 dd3c b4f0 40bd
00000240: b06f 7a3c 6401 49bd ff1f 14bd cd55 d0bc
00000250: f64e 583d ea71 cc3c 95de 6b3d da19 16bc
00000260: ef0e 4cbd 6daf 90bd 89a7 dcbb c2bc 233d
00000270: fe28 2f3c 28ea 58bd 4e75 5b3d 340b 5abd
00000280: b6bb 98bd b93d 38bd 81a0 24bc 74ba ee3c
00000290: 32fa 3abc e08c ad3c c87e 83bd f852 9b3d
000002a0: 690f 6e3c cd87 d6bc ce99 fd3c a77c a63c
000002b0: 5467 b6bc 87bf a03d e838 a1bd 9eef 33bc
000002c0: 6280 b0bd f224 e7bc 88e9 82bd e766 3e3b
000002d0: b8a5 903d 16eb bbbc 53bc 963d 9d03 01bc
000002e0: 1c2d 9f3d 3840 53bd 1ba4 a63d 0b09 20bd
000002f0: dd45 c03c 44f1 d9bb fa00 693d e3af 7bbc
00000300: 8bda a53d 8f13 3fbc e000 483d f08f 9fbd
00000310: 73af 0bbd bdf7 013d c28b dd3c f495 dbbb
00000320: 02a8 1dbd 27df 8d3d 6e41 3f3d 6770 a5bd
00000330: ab22 553d 3bdf 813d 1898 75bd 2ece ccba
00000340: f4f4 453d c4ef 953d 07ea 793d c142 06bb
00000350: aece e53c 7e1d 9ebc 58c9 343d 8a42 413c
00000360: aa6e 89bd 88ab 40b9 7b9c 883d c422 913b
00000370: 5745 9c3c ae4d abbd a9e8 80bd 3609 e13b
00000380: d81d a63d 99a9 9d3d 6e1f 87bb 7d03 1a3d
00000390: 3218 a8bc 1f02 233d df1b 913d a861 643d
000003a0: 903d 0dbd a804 08bd b25f a13a 527c febc
000003b0: 586d 023c d9b7 813d c92c 90bd bc0d 11bd
000003c0: d4db 833d cffb 0cbd d391 65bd 544d f53c
000003d0: 7ead 9b3d 9387 9fbc f71a 55bd 68b7 913d
000003e0: 97de 73bd 962f 6d3c fb56 2ebd a271 6ebd
000003f0: 49ac 823c 7c97 11bd 411d 863d de2e e33c
-0.06303322 -0.06577966 0.001416445 0.0667752 0.026570331 0.06561436 -0.071960464 -0.08222528
-0.03621413 0.058857303 -0.07873326 -0.011328785 0.02091488 0.0075578205 0.06761737 0.015574171
0.037338298 -0.038159866 0.0603861 0.0033617083 -0.009252526 0.016493175 0.06274399 0.042346235
0.050042376 0.043354537 0.03205783 -0.07811457 0.056360252 -0.03643272 0.07927047 -0.063584805
-0.053870525 -0.014322999 0.07748268 0.036647283 0.026201006 0.07531017 -0.08634 -0.0674834
0.009761562 0.03918201 0.028158916 0.04076293 0.041601732 -0.026171919 0.05045552 -0.038448192
0.03204126 -0.05390846 -0.080267414 -0.030845042 0.01935409 -0.0651553 0.04582009 -0.029617477
0.045167293 0.00299053 -0.040292513 0.034610704 -0.02759515 -0.08281961 0.056323774 0.06858839
0.045311853 -0.048871625 0.03114312 -0.067935735 -0.0658458 0.057436842 0.030894963 0.024452752
0.040763494 -0.029569086 0.063698985 -0.012615633 0.06677135 -0.006477077 -0.009020939 0.0078852875
-0.015002396 0.020227162 -0.06585981 0.0050738202 -0.0167522 0.012849337 -0.050419036 0.00643502
0.046995845 -0.030997818 -0.08110962 0.008883791 -0.07212297 0.06877079 -0.00047112498 -0.0059292885
0.07015378 0.04139889 -0.029935857 0.0022124257 0.042375006 0.031095637 -0.062680885 0.024558092
-0.04334189 0.027174186 0.070384346 0.014328044 0.04098669 -0.045052044 0.0577254 -0.02616861
0.06842176 0.008465469 0.032548156 -0.012263852 -0.02398298 0.015340403 0.009483285 -0.029425018
-0.042573474 0.028648986 0.025600238 0.06507132 0.07168882 0.017394386 0.06420391 -0.037989035
0.0006435549 0.027836652 0.0071999156 -0.046254337 0.08527926 -0.07831637 0.080614805 -0.032761235
0.008896727 -0.035398167 -0.053725205 0.0043434952 -0.047071733 0.04615884 0.027058491 -0.047104552
0.015285417 -0.04907359 -0.036163326 -0.025431538 0.052809678 0.024956662 0.057585318 -0.009161437
-0.04981893 -0.0706471 -0.006733839 0.039974935 0.010690926 -0.052957684 0.053578667 -0.05323334
-0.07457678 -0.04498074 -0.010048033 0.029141642 -0.01141219 0.021185338 -0.06420666 0.075841844
0.014530041 -0.026187802 0.030957129 0.02032311 -0.022266068 0.07849031 -0.07872182 -0.010982422
-0.08618237 -0.02821586 -0.06392199 0.0029053034 0.07062858 -0.022939246 0.07360139 -0.007874397
0.07772276 -0.051574916 0.081367694 -0.039071124 0.023470813 -0.0066510756 0.056885697 -0.015361759
0.080983244 -0.011662378 0.04882896 -0.07791126 -0.03410287 0.031730402 0.02704418 -0.0067012254
-0.038490303 0.069273286 0.046693258 -0.0807808 0.052035015 0.06341406 -0.0599595 -0.0015625411
0.04832931 0.07321122 0.0610142 -0.0020486566 0.028052654 -0.019301172 0.04413733 0.011795649
-0.067105606 -0.00018374447 0.06670471 0.004429193 0.019076033 -0.083644256 -0.062943764 0.006867553
0.08111161 0.07698364 -0.0041236198 0.037600983 -0.02051935 0.039796945 0.07085394 0.055757195
-0.03448254 -0.033207566 0.0012311845 -0.03106514 0.00796064 0.06333894 -0.07039792 -0.03541349
0.06438413 -0.03441983 -0.056047272 0.0299441 0.076014504 -0.019473827 -0.05202767 0.0711506
-0.05953845 0.014476677 -0.04256342 -0.058213837 0.015951293 -0.035544857 0.065485485 0.027732309

input_to_hidden.weight_hh_l0 f4 [128, 128]
00000000: e236 17bc 3d7a 053d eba4 a6bc 28cb fabb
00000010: 1abe 833d 214f 7ebd 6a37 7cbd 8d4f cbbc
00000020: 6f51 4a3c 86bc 47bd 130e f8bb f497 85bd
00000030: bdc3 293d 8fcb 883d 2f4b d1bb ed6a 6f3d
00000040: 544f c33c d802 a23d 35b3 1abc 6e6f be3c
00000050: 1b33 a9bd 1984 5e3d 5dd2 78bd ea1a 993d
00000060: 96f4 5bbd 12f3 6bbb 174a 28bd 9d47 38bd
00000070: f817 46bd 6ee2 efbc bb39 073d 0bc9 eb3c
00000080: 2f74 8b3d f1ea b4bc d0e8 46bd 4b60 8abd
00000090: e2c3 543d 4cfb 06bd 76c1 12bc cd3b 7fbd
000000a0: 1a02 5bbd 129c 803d dfc6 3bbd 0ec9 5ebd
000000b0: 6b72 92bd cdc3 013d 24d0 a63d 794a 7b3d
000000c0: 8e22 423d 5413 77bd 6204 92bd 6019 0b3b
000000d0: c33b 953d 80b5 9c3d bed3 24bd bd00 97bd
000000e0: 2dd7 913d a6bc db3c 1082 b73b dc9a 2abd
000000f0: 3bd7 babb 68a6 5e3b e8a5 80bd 7c57 65bc
00000100: 3fe1 a93d b91b 9fbd 7ad8 713d c191 843d
00000110: 7b09 0cbc 9e9d a4bd 6765 ecbb e23f a33d
00000120: bdda 89bd 097a 79bd f2b5 3d3c b88d 83bd
00000130: 54bf 8abd 1b88 35bd 09d1 3fbd 81b0 42bd
00000140: f0ef c13c a660 313c 9c7f a23d 7995 b53c
00000150: 78bf 9c3d 14b6 86bd b881 64bc de02 aa3d
00000160: 43f8 ab3d 4b47 293d 4c0a 4a3d bd68 89bd
00000170: 30c6 873d c57e 94bb 7221 88bd 771c 20bc
00000180: 15db 04bd 7457 5bbd 78fd 8e3d 780b 073d
00000190: 3cd4 efbc f1ff 473d 7488 823d 030f 443d
000001a0: c63c 46bd edca 2cbc 643c 61bd 1aaa 12bd
000001b0: a146 cf3b e7a8 3f3c 9250 f43c e23c 82bd
000001c0: 2ad4 8f3d 6235 7f3d 5322 1e3c f337 953d
000001d0: b35f 773d dfaf 6dbd aaf2 ac3b b229 6dbd
000001e0: ea60 4b3d db83 453d a0c6 83bc 2688 5a3d
000001f0: a755 db3a 735d 2c3d b834 783d c9fb 4a3d
00000200: b618 333d 1691 0d3d c80c a7bd 06a5 9cbd
00000210: bc36 1ebd 376f 073d 61fc 6f3c 93f4 223d
00000220: e008 65bd e583 1f3c 4489 dd3a c2a0 b4bc
00000230: 6255 96bb c6bc 92bd f9f3 78bd 3abd 163d
00000240: 9bda 18bd 9dab 4c3d 8be1 20bb 8f50 9d3d
00000250: b2df 6e3d f409 06bd cad4 bcbc 9038 c13b
00000260: dad3 7e3b d306 193a cf75 913d 2c7e 08bd
00000270: a169 05bd cb73 72bd f2e6 ce3c 4bf7 a53c
00000280: dc03 653c ba57 d13c 15a6 15bd 3ead 9ebd
00000290: f463 90bd 4a15 973d eafa 1cbd e3cd edbb
000002a0: 3c52 883d add5 d53c d9a8 123c 0140 36bd
000002b0: 78f1 2a3d cf2a 21bd 98ff 6c3d 64ef 2d3d
000002c0: 8470 df3c 887a a63c 4e12 1b38 ffbe e13c
000002d0: d5a3 37bd 2af3 293d 9380 453d c8a3 72bd
000002e0: 5ead ff3a 4091 93bc c75c a23d 8589 823d
000002f0: e7c8 fa3c b711 d7bc f866 8d3d e4a3 413b
00000300: c325 073d 329a 7f3d 2b93 973c c364 343d
00000310: c2e8 3dbd 011a ae3d 84ac 27bc a2b5 553d
00000320: f9ce 103d d39e 1c3c c2f0 86bd a2dc c43c
00000330: 4f62 9e3c 5316 b73b 8ab3 88bd 1cf4 8b3d
00000340: 2f35 703d 8cfa e83b f285 efbb 6eb8 143c
00000350: 603d e3bc 3f80 9ebc ffa1 a93d f680 78bd
00000360: c345 a5bd 8bae 1f3d d9e6 e7bc 3025 3b3d
00000370: b02d 1a38 33de 763d 0e20 3cbb 9114 a1bd
00000380: 344f 153d 3e3c 9cbd 6598 9dbd d842 3bbd
00000390: 4f11 0f3d 9c40 943d 14d0 963d 31c0 823d
000003a0: 6bf9 a0bd 0711 2cbd 1d3a 85bd 3ce5 3b3d
000003b0: 4434 883d 8798 90bd 4294 7abd 9609 6ebc
000003c0: 94c8 83bd 776e 083d 2f30 a83b ea1b a03d
000003d0: 2331 743c 4207 50bd 21d1 22bb 833c 0ebd
000003e0: b174 853d 1aa2 6fbd 285f 463d e796 a3bd
000003f0: 9657 aebb ba33 edbc f87c ffbc 3c22 8dbc
-0.009229394 0.03258728 -0.02034231 -0.0076536126 0.06432743 -0.062087182 -0.061576284 -0.024818206
0.012348517 -0.048763774 -0.007570037 -0.065231234 0.041446436 0.06679451 -0.0063871364 0.05845158
0.023841538 0.07910699 -0.00944214 0.023246493 -0.08261701 0.054325197 -0.060747493 0.074758366
-0.053700052 -0.0036003035 -0.041086283 -0.04499017 -0.048362702 -0.029282775 0.03301404 0.028782388
0.0680927 -0.022084685 -0.04856187 -0.06756648 0.05194462 -0.0329545 -0.0089572575 -0.06231289
-0.0534688 0.06279768 -0.045843955 -0.05439096 -0.0715073 0.03168087 0.081451684 0.06135032
0.047396235 -0.060321167 -0.07129742 0.0021224841 0.07286789 0.07651806 -0.040240996 -0.07373188
0.0712112 0.026823353 0.0056002215 -0.04165159 -0.005701927 0.0033973698 -0.06281644 -0.013997909
0.082949154 -0.077689596 0.05904434 0.06473113 -0.008547182 -0.080378756 -0.0072142365 0.07971169
-0.06731174 -0.060907397 0.011579024 -0.06423515 -0.06774774 -0.044319253 -0.04683021 -0.04753161
0.023673981 0.010826265 0.07934496 0.022166 0.07653707 -0.065776974 -0.013946943 0.08301328
0.083969615 0.041327756 0.049326226 -0.0670943 0.06629598 -0.0045317137 -0.06647004 -0.009772412
-0.032435495 -0.0535502 0.06981939 0.03296992 -0.029276006 0.04882807 0.063736826 0.04786588
-0.0483978 -0.010546428 -0.054989234 -0.035806753 0.0063255583 0.011697984 0.029823575 -0.06359269
0.07022889 0.06230677 0.009651738 0.07286062 0.060394 -0.058029052 0.0052779512 -0.057901092
0.04965297 0.04822145 -0.016085923 0.053352498 0.00167339 0.042081308 0.06059715 0.049556527
0.043724738 0.034562193 -0.08156735 -0.07648663 -0.038626418 0.033065047 0.014647574 0.039784025
-0.055916667 0.009736036 0.001690187 -0.022049312 -0.004587815 -0.07164912 -0.060779545 0.036801554
-0.037317853 0.04996835 -0.0024548497 0.07681381 0.0583188 -0.032724336 -0.023050684 0.0058966354
0.0038883598 0.00058375037 0.07102548 -0.033323452 -0.03257144 -0.05919246 0.025256608 0.02025952
0.013977971 0.025554527 -0.03653534 -0.07747887 -0.070503145 0.073771074 -0.038325228 -0.0072572096
0.0665631 0.026102865 0.008951389 -0.044494633 0.04173419 -0.039347466 0.05786094 0.04246463
0.027275331 0.0203221 3.6971927e-05 0.027556894 -0.044833977 0.041491665 0.04821832 -0.059238225
0.0019506624 -0.018013597 0.07927852 0.06373886 0.030613376 -0.026253564 0.06904405 0.002954715
0.032994997 0.06240291 0.018502792 0.044041406 -0.046364553 0.085010536 -0.010234002 0.05217517
0.035353635 0.009559351 -0.0658889 0.024030987 0.019333987 0.005587378 -0.06674869 0.068336695
0.05864447 0.0071099456 -0.0073096687 0.009077175 -0.027739227 -0.019348262 0.082828514 -0.06066986
-0.080699466 0.038984817 -0.028308319 0.04568976 3.675901e-05 0.0602705 -0.002870563 -0.07865251
0.036452487 -0.07628678 -0.076950826 -0.045718044 0.034928616 0.07238886 0.073639065 0.06384314
-0.07860073 -0.042008426 -0.06505225 0.04587291 0.06650594 -0.07060342 -0.061176546 -0.014528653
-0.064347416 0.033308472 0.005132697 0.07817824 0.014904293 -0.05078817 -0.0024843889 -0.034725677
0.06516398 -0.0585042 0.04843059 -0.07987767 -0.0053204997 -0.02895533 -0.03118752 -0.017228238

input_to_hidden.bias_ih_l0 f4 [128]
00000000: 966f 6bbd b9c7 1a3d 196d 0ebd 6db6 813d
00000010: 8ebc 35bd a2fa f53c 8329 a63d 4b20 9abd
00000020: 62f7 273b d152 9f3d 2682 dabc e879 72bc
00000030: 2c15 8ebd 8143 98bd 19a9 a63d 083f 50bd
00000040: ffaa 113c a85c 26bd 3339 593d 80a9 583d
00000050: 542d 2d3d 54e7 b1bb 1aed f7bc 6a01 9c3d
00000060: 37d7 933d 1498 a1bd 69fc 2bbc 4400 983d
00000070: da96 863d 07ab e53c 5799 9e3d 5b60 653d
00000080: 929c 013d df89 013d b922 52bd d905 083d
00000090: ec19 07bd 0d18 8b3d 9527 22bd c188 de3c
000000a0: 9019 29bb a6d9 893c b03d 89bd 6105 11bd
000000b0: 5fa0 993d 53d1 54bd 717e 9e3d 397d 2e3b
000000c0: 5ec5 0cbd 1783 3e3d cd74 5fbb 9867 83bd
000000d0: 0d7e ad3c d12e 33bd 3bdf 413d 37dc bbbc
000000e0: 38a4 373b 48f7 943d 9041 3fbd b468 24bd
000000f0: 4461 6d3d c1c1 153d 2e9a 503d 9aec 23ba
00000100: 13c1 70bc fd78 7e3d 4370 82bc 9a01 493d
00000110: 11e2 4abd aa80 2abd 389e 95bd f047 373d
00000120: 9631 993d 4b46 2ebb df62 1dbd a50c 213c
00000130: c158 93bc aa75 8c3d b2cd 363d 54af b33c
00000140: 4b46 a63d 10b1 a6bd 894d 943d f4fd 343d
00000150: cd16 613d 35d8 68bd 913f 01bd febc 03ba
00000160: 6d18 9f3d 43fb 9f3d 7968 8cbd f781 3cbc
00000170: 4a7a 933c 56ac 003d ca53 703d 9573 8b3d
00000180: c3bd f5bc 154e 593c 120a 9abd 1b40 b63c
00000190: c19e fa3c a69e a13d f41a 3d3b 3c80 953c
000001a0: 3874 a03d 59b1 8a3c d860 5b3d 122f 96bd
000001b0: 1373 593d 634c 29bc de85 453d 3d4b 04bd
000001c0: 9de8 59bc d4cf 69bb 4243 22bd 45e0 91bd
000001d0: 1108 783d cdf4 8d3d ac3b 9cbd 539d e5bb
000001e0: 4169 36bd 4818 833c 09ad 4b3c c191 a0bd
000001f0: eedc 95bd e985 76bd c5ec 1ebd 7860 813d
-0.057479464 0.037788127 -0.034772012 0.06333623 -0.044369273 0.030026738 0.081133865 -0.07525691
0.002562963 0.07779468 -0.026673388 -0.0147995725 -0.06937632 -0.0743475 0.081377216 -0.05084136
0.008890866 -0.040615708 0.053033065 0.052896023 0.042279556 -0.005429188 -0.030264426 0.07617457
0.07218783 -0.07890335 -0.010497191 0.07421926 0.065717414 0.028035654 0.07744091 0.056000095
0.031643458 0.031625625 -0.051302645 0.0332087 -0.032983705 0.06791697 -0.03958853 0.027164819
-0.002580259 0.016827416 -0.06701219 -0.03540552 0.075012915 -0.05195744 0.077389605 0.0026624931
-0.03436791 0.046511736 -0.0034096718 -0.06416243 0.02117827 -0.04374582 0.04733203 -0.022932155
0.0028021466 0.07273728 -0.046693385 -0.040138915 0.057954088 0.03656173 0.050928287 -0.0006253213
-0.01469447 0.062127102 -0.015922671 0.049073793 -0.049532 -0.04162661 -0.073055685 0.04474634
0.07480161 -0.002659219 -0.03842437 0.009829675 -0.017986657 0.0685838 0.04462976 0.021934189
0.08118876 -0.08139241 0.07241351 0.0441875 0.054953385 -0.056846816 -0.031554762 -0.00050254154
0.07768331 0.07811596 -0.06855864 -0.011505595 0.018002648 0.031414352 0.058673657 0.06809155
-0.029997712 0.013263245 -0.07521452 0.022247365 0.030593278 0.07891588 0.0028855177 0.018249623
0.07834667 0.01693027 0.053559154 -0.07333197 0.05308826 -0.010333153 0.04822337 -0.032298315
-0.013300088 -0.0035676854 -0.039614923 -0.07122854 0.060554568 0.06931458 -0.07628569 -0.00700728
-0.04453397 0.01600279 0.0124313915 -0.078403 -0.073175296 -0.0601863 -0.03880002 0.06317228

input_to_hidden.bias_hh_l0 f4 [128]
00000000: c062 95bd bbaa 13bd ea4f 9abc efe1 963d
00000010: b198 b9bc affe 3f3d 62c0 433d d097 31bd
00000020: ff58 083d f6d2 633d e896 aabd b7e0 453d
00000030: 1f3b 08bd 61ea 72bd b073 febc 1a27 423c
00000040: efe4 9e3d 8d44 853b 850a 8e3b 0b22 363c
00000050: 944a bb3c 886b 84bd 1ea9 803d a714 23bd
00000060: a584 87bd f5d9 f93c c19a 3abd 5709 2e3d
00000070: 8bcc e23b 7a17 89bd 8412 5cbd 5850 88bd
00000080: c13c 1b3c 5bed 163d 065e 21bd 312e 89bd
00000090: a1ec cb3c a1d9 02bd 420b 973d 20b8 9c3d
000000a0: 2b21 39ba 70b2 7f3c 836c c5bb 4df9 0abd
000000b0: 63ec debb c8a7 6c3d d848 66ba 5404 9a3d
000000c0: fc28 1c3c 4d2c febb 9add edbc 3ad8 883d
000000d0: d509 963d 48c5 debc eb83 673a b361 403d
000000e0: beef ebbb fb62 5dbd f8cd 873d 48a6 d03c
000000f0: 84f4 6d3c 6fc9 8c3c 1174 1ebd 95ff 153d
00000100: 0c73 a13d 1540 71bd d12c 8b3d 1c5f d83b
00000110: 92b5 9c3d c6ed d33c 06dd 36bd 42c3 3ebd
00000120: 507f 703d 208d 3dbd 9483 8fbd 7eaf e43c
00000130: 6b62 70bd 47c8 c93c 0ffe fdbc ff42 0cbd
00000140: a7b5 893c 7dc3 32bd 064c 823c 751f 01bc
00000150: 9e3d 6cbd a077 6fbd 9cf7 c9bc 72e0 93bb
00000160: 6973 e1bb 03b2 3d3d 9e33 993b 8b4d 5a3c
00000170: 5a23 29bd 8039 8bbd 0dc3 73bb 8b1c 8fbc
00000180: 6814 953c d324 733d 20d8 f33c 1c62 9bbd
00000190: 9a3e 6bbd 159c 64bd e9d0 173c 2665 03bd
000001a0: 861a 453c 2048 583d 135c 9bbd 1682 7ebd
000001b0: 74e7 89bc df35 933d 0d11 31bd a513 b4bc
000001c0: 2504 35bc 0e38 6c3d 319e 6abd 27d2 1f3d
000001d0: 4a71 83ba d861 16bd 9350 99bd c4d4 69bd
000001e0: 0d32 653d b290 aa3c 6b9f adbc b202 9d3d
000001f0: 33b2 92bd 47cc 57bc 04d4 5a3d a730 223d
-0.07294226 -0.036051493 -0.018836934 0.07367312 -0.022655817 0.046873745 0.047790892 -0.04335767
0.033288 0.05562111 -0.08329564 0.048310008 -0.033259507 -0.059305552 -0.031061023 0.011850143
0.07758509 0.00406701 0.00433475 0.011116515 0.02286271 -0.064658225 0.062822565 -0.039814617
-0.06617097 0.030499438 -0.04555774 0.042489376 0.006921356 -0.06693931 -0.053728595 -0.06655949
0.009474934 0.036847454 -0.03939631 -0.066982634 0.024893107 -0.03194583 0.07375194 0.076523066
-0.00070621324 0.015606508 -0.0060248985 -0.033929158 -0.006803082 0.057777196 -0.0008784658 0.07520357
0.009531256 -0.007756746 -0.029036332 0.06681867 0.07326094 -0.02719368 0.0008831608 0.046968173
-0.0072002104 -0.054049473 0.06631082 0.025469914 0.014523629 0.017185895 -0.03868491 0.036620695
0.078832716 -0.058899004 0.067956574 0.006603135 0.07651819 0.025870215 -0.044644378 -0.04657293
0.058715165 -0.046277165 -0.070075184 0.027915712 -0.05868761 0.024631632 -0.031004934 -0.03424358
0.016810251 -0.043643463 0.015905391 -0.007881035 -0.05767595 -0.058463693 -0.024654202 -0.00451284
-0.006880213 0.046312343 0.0046753427 0.013324152 -0.04129348 -0.06798077 -0.0037195117 -0.017469665
0.018198207 0.05936129 0.029766142 -0.07587072 -0.05743275 -0.055812914 0.009266117 -0.032078885
0.012030249 0.05280316 -0.07585921 -0.06213578 -0.016833998 0.071880095 -0.04322915 -0.021982023
-0.011048351 0.057670645 -0.05727977 0.039018776 -0.001002827 -0.036714405 -0.074860714 -0.057087675
0.055955935 0.02082095 -0.02119418 0.0766653 -0.07162895 -0.013171262 0.05342485 0.03959718

input_to_hidden.weight_ih_l1 f4 [128, 128]
00000000: 4b5c 10bd b9ca 883d 7fd9 6abd 2af1 8dbd
00000010: 7d41 1a3d ebe8 97bc b7df 30bb 4065 753d
00000020: 6813 d93c 9149 ffbb ba85 43bd 8a72 b3bc
00000030: 9fd7 a9bc c7f7 e8bc 36ce 02bd c2e0 83bc
00000040: d3e7 8ebd 04fd c93b 109a 493c 41e6 b1bb
00000050: 63ba 3d3d bb01 513d aa9c 6cbc 8f4b 92bc
00000060: 4704 a9bc adc3 a23c e8e6 453d 84bc 2fbd
00000070: f376 503d eb6a 8dbc 8aaf 3bbb 4f33 4bbd
00000080: 77cc 8ebc 7dd8 363d 128a 85bd 5535 9fbd
00000090: 8ea7 99bd 1708 1f3d 677b 62bd 5f6c ae3d
000000a0: ad3e 8d3d 20e2 d4bc 31d6 70bd bd21 373d
000000b0: 36ec 84bd d87e 04bd 5543 53bd 2f4f 5d3b
000000c0: b2c2 a6bd 18ee 76bd 9436 153d f39d 66bd
000000d0: b035 6e3d 96e7 513d c733 d3bc 8d2d 72bd
000000e0: ea42 9c3c 5061 e83c 7012 f83c 6406 36bd
000000f0: 67fe 8abd 123b b23c ed79 403c 9a2c 58bc
00000100: c9cb 4f3d 740d 1b3d 098a 7dbc 6689 63bd
00000110: 41de 0dbd 65b2 d33c 37b3 9ebd cd3f 4bbd
00000120: b4e1 18bc 11a2 3d3b d2b7 04bd 3bbd 50bd
00000130: 7b47 483d 1f36 163d 6440 35bd 6160 c73c
00000140: 2047 273d 4bf7 d4ba e735 c73c cf7e 193d
00000150: 2795 86bd 6143 643d 395e a6bb 7bc5 6abc
00000160: d873 7f3b be38 a13d 2fb8 803d 32f0 5fbd
00000170: 31d1 7fbd 8035 a13d db00 af3d df6e 4fbd
00000180: 6a4c 4abd 0592 8dbd be8f 303c 27c5 8b3d
00000190: 743c d43c 009d 983d 3a4c 93ba e536 af3c
000001a0: 4f2b e5bb 1501 ee3b f4a2 dd3b e6d1 c23c
000001b0: ffba 9abc 1c03 263d d7e7 183d c74c 38bd
000001c0: 8cc7 493d d51d 48bd 1c05 3b3d 08a6 1bbd
000001d0: e0f2 483c 4207 083b 7efb 863d 36f5 72bd
000001e0: af3c a0bd 7da8 76bd c109 06bd 0d23 2f3d
000001f0: b256 f1bc d584 b2bc 6230 563d 93eb 33bd
00000200: 2abe aebc b3a2 083d 76a9 b23c 28e9 353d
00000210: f622 883d abdf 2e3d 1027 cb3c 9677 903c
00000220: e396 483d c3bc eb3c 58b9 86bd fcf6 0abd
00000230: a2fd 9b3d 5d6d 8cbd 938e 68bd 96b3 e63b
00000240: 0cb4 98bc 481d 25bc e7e2 9ebd 8497 49bc
00000250: 63e3 483d f564 6cbd ece5 63bd 0b00 a83d
00000260: f862 9e3c 3369 a43d 27d8 ae3c 7aad 3cbd
00000270: 4305 9abd 57f9 b2bc 9aa7 f8bb e74e a0bd
00000280: 11aa 3f3c a7e0 063c aaef 94bd f4af 34bd
00000290: 5921 a53d 3320 61bd d5ba 86bd e057 943d
000002a0: 9f72 94bd 82d8 cc3c 0147 e7bc c42c 5f3d
000002b0: 493e 80bd 6e00 203b 0484 dc3b 7b7f 27bd
000002c0: 920a 343d e4e4 11bd 0333 9fbc fdaa 96bd
000002d0: d460 97bd 9909 5d3c 5ece 39bd 9d2f a4bc
000002e0: 0586 c4bc e7b8 0bbd 2731 973d f503 223d
000002f0: 959b 7f3d d235 4a3d 1d81 7abb befd 4e3d
00000300: 2861 853c adb9 203c ac92 9bbd 044e 18bd
00000310: 0718 823d 6cd5 113d 3d60 813c 8961 e93b
00000320: e1f7 4b3d be5d 1b3d b162 a739 67ed 78bc
00000330: 3c79 043a 38cd 633d a771 15bd 3661 873c
00000340: 8d20 91bb 9b26 8c3b e541 1b3c 6382 313d
00000350: 5d67 00bd e111 973d 4985 9fbd d460 31bd
00000360: 2838 dabc 3c39 c6bb bf50 5cbd 39d2 ac3c
00000370: ecc2 00bd 868b 5fbd a171 31bd 2355 9bbd
00000380: cba8 b43c d713 ea3b 3ab0 eb3c 8823 803d
00000390: a46f 8abb b6ee 93bd a88f 013d ee04 61bd
000003a0: 2e52 c0bc 644e 93bd 2da8 213d 0380 42bd
000003b0: 32af 073d 8c5a ef3a 72d0 1b3d 11f4 e23c
000003c0: 0058 a3bd 2965 1dbd 5cc8 8c3d f148 713d
000003d0: 4167 383d 26aa 223a 44da cf3c 8db5 e0bb
000003e0: d61b f7bc c6ce 673d b964 2d3d e132 fbbc
000003f0: 4f5f a93d 3c2a 3d3d a12f 97bd 833a 4fbd
-0.035244267 0.06679291 -0.057336327 -0.06930764 0.03766011 -0.018543681 -0.0026988813 0.059911013
0.026498511 -0.007790752 -0.047734953 -0.021905202 -0.020732699 -0.028438462 -0.03193494 -0.016098384
-0.06977811 0.006164195 0.012304798 -0.0054290597 0.04632033 0.05102704 -0.0144416485 -0.017858295
-0.020631922 0.019868696 0.048315912 -0.042904392 0.05089469 -0.017262897 -0.0028638565 -0.04960948
-0.01743148 0.044640053 -0.065204754 -0.07773844 -0.07502662 0.038826074 -0.055293467 0.08516764
0.0689672 -0.025986731 -0.05879802 0.04470991 -0.06490366 -0.03234753 -0.051577885 0.003376912
-0.08142604 -0.060285658 0.036429003 -0.056302976 0.05815667 0.05124625 -0.025781525 -0.05912547
0.019074876 0.028366715 0.03028223 -0.04443969 -0.06786805 0.021756683 0.011747819 -0.013194228
0.050731454 0.037854627 -0.015474805 -0.055550955 -0.034635786 0.025841901 -0.07749026 -0.049621392
-0.009331156 0.002893571 -0.032401867 -0.050961714 0.048896294 0.036672708 -0.04425086 0.02433795
0.040839314 -0.0016248015 0.024317695 0.03747445 -0.06571417 0.05572832 -0.00507715 -0.01432931
0.003897896 0.07872151 0.0628513 -0.054672427 -0.06245536 0.078715324 0.08545085 -0.050642844
-0.04938928 -0.06912617 0.010776458 0.06824713 0.025907733 0.074518204 -0.0011237927 0.02138848
-0.006993688 0.0072633126 0.0067638103 0.023781728 -0.018887995 0.04053031 0.037330475 -0.044995096
0.04926257 -0.048856575 0.04565917 -0.038000137 0.012264937 0.002075628 0.06590937 -0.059315883
-0.078240745 -0.060219277 -0.032724146 0.042758036 -0.029460285 -0.021791855 0.052292235 -0.043925833
-0.021330912 0.033358287 0.02180932 0.04441181 0.06647293 0.042693775 0.0247989 0.017635148
0.04897202 0.028776532 -0.0657832 -0.03392695 0.07616736 -0.06856797 -0.056776594 0.0070404513
-0.01864054 -0.010077782 -0.07758122 -0.012304191 0.049044978 -0.057713468 -0.055639192 0.08203133
0.019334301 0.08027878 0.021343304 -0.046063878 -0.07520535 -0.02184741 -0.007588339 -0.078275494
0.011698262 0.008232272 -0.07272275 -0.044113114 0.08063001 -0.05496235 -0.06578604 0.07243323
-0.07248425 0.025005583 -0.0282321 0.05448605 -0.0626188 0.0024414319 0.0067296047 -0.04089306
0.043955393 -0.035618678 -0.019433504 -0.07356832 -0.073915154 0.013491058 -0.045362823 -0.020042235
-0.023989687 -0.034111883 0.07382422 0.039554555 0.062404234 0.049367733 -0.003822393 0.050534956
0.01628168 0.009809894 -0.07596335 -0.037183776 0.06352239 0.035603926 0.01579296 0.007122223
0.049796943 0.037931196 0.00031926253 -0.01519332 0.0005053466 0.055615634 -0.03648534 0.016525846
-0.004428929 0.004277063 0.00947616 0.043337237 -0.031348575 0.07376457 -0.07789094 -0.043305233
-0.026638106 -0.0060493033 -0.053787943 0.021096336 -0.031435892 -0.05457642 -0.043321256 -0.07584598
0.022053143 0.0071434784 0.028770555 0.06256777 -0.0042247344 -0.07223265 0.031631142 -0.054936342
-0.023476686 -0.07192686 0.039467026 -0.047485363 0.033126064 0.0018261238 0.038040586 0.02770427
-0.07975769 -0.038426552 0.06874153 0.058907453 0.045020346 0.00062051637 0.025372632 -0.00685758
-0.03016464 0.05659368 0.042332385 -0.03066391 0.08270132 0.046182856 -0.07382131 -0.05059291

input_to_hidden.weight_hh_l1 f4 [128, 128]
00000000: 3da0 5ebd 0c79 5b3d 61ea 1c3d fed5 103c
00000010: 9da1 c7bb faa0 7e3d 9839 0e3c 3923 7dbc
00000020: 45a6 393d a6d6 92ba 133a 193d 26c0 233d
00000030: 880f 1bbd 7954 dc3b 697d 18bd f590 b8bc
00000040: 8815 32bd 9427 f9bc dae4 a13b 48a3 94bd
00000050: a332 cfbb d811 a5bd 8432 a7bd cb62 f83b
00000060: 5355 61bd d952 263d 376a e6bc 279c 333d
00000070: eec4 7e3d 23cd c2bc 6b4e 273d ad2b f0bc
00000080: bc5b a93d ab1f 51bd 2800 91bd 1555 5bba
00000090: d5ae 393c c43c 85bd 88ab 1abd 7af8 7bbc
000000a0: 5d81 7abc 1c0f 22bd 15f8 103d dcb8 453d
000000b0: 2e9e 5e3d c56c 9fbc 9ef8 0dbd 19e7 513d
000000c0: 65a7 21bd df0e 263d ced8 2fbd 6343 bc3c
000000d0: 1d10 ff3b 90b0 a6bd dc10 713d 6422 703c
000000e0: 4b85 c73c 5f6f 20bd ef7c f73c a3d2 83bd
000000f0: 50fb c93c 0245 133d 4e2f 9a3d c51e 8e3d
00000100: 5ffa 283d 3452 5c3d 52c1 3bbd 7c7b e6bc
00000110: 363d 553d 5058 c43c 5886 a9bd b348 5c3d
00000120: 1c3a 223c 3562 60bb 6b04 3c3c d464 2f3d
00000130: 03cd 23bd 55e2 5e3d 46ee 4d3c 06a5 3a3c
00000140: 3faf 93bb c157 5c3b c092 9bbb d6d5 623d
00000150: 1a4f 9cbd 3388 75bd a44d 723d 5396 423d
00000160: fc24 3bbd 3f5b 95bd fb16 d2ba e965 8dbd
00000170: 88cf 873d 47e1 363d 99de 3a3c b05d b73c
00000180: c76a 85bd 8151 82bc 8f30 ed3c 1e16 2ebd
00000190: 4e33 d1bc 86ea 84bd 2b0d 1f3d e5c8 0abd
000001a0: 8603 bd3c 76de 98bd 094d 7abd f060 843c
000001b0: d4a9 19bc 5a4b 9d3d bdef cc3c aa2d 40bc
000001c0: d9f2 973d abfe 833d 8118 43bd ce46 f33c
000001d0: bd45 a9bb 2832 493c 9f95 07bc c0ed b4bc
000001e0: 8990 443d 50c0 7cbd 7a27 7fbd 8620 a2bd
000001f0: 92e6 9dbd a036 8c3d 8eaa 333d f837 7dbd
00000200: 9bc0 0cbd c6e0 a43d 06cc 87bd 812e 833c
00000210: 7f3d bebc ab63 4d3d b803 9c3d 7434 c83c
00000220: f33f 5b3d d0db d3bb ee7f dfbb 545f 073d
00000230: aadd a33d 7218 97bd f179 133d cd5e 253c
00000240: 009f 673d 9f40 613c cb1e 673d 0061 54bc
00000250: 362a 6a3c c937 0e3d 6407 64bd e726 24bd
00000260: c725 95bd c354 a13d 2f86 853d 09b1 ad3a
00000270: bc78 6dbd eaeb 9cbd 19a1 0d3d 6f6a 91bd
00000280: 29a4 18bd 4150 ae3d fb99 bc3b 9657 1cbd
00000290: a917 98bd e3f4 1ebd 38bd 8cbd 96d6 ef3c
000002a0: d01a fabb b2fc 5cbd 41e6 763c 2676 863d
000002b0: f4c0 46bd 471e 0a3d 20fd 1f3d cb87 3abd
000002c0: 7b94 febc 4bd8 a33d 1d12 8dbd 9a63 d33c
000002d0: 54bb 383c 5691 66bc c0c3 91bd efca a0bc
000002e0: eb13 993b a53c 95bd 2578 89bd 71a0 a6bd
000002f0: 95d8 83bd 186b 80bb f9a3 473d ba26 6d3b
00000300: a984 4dbd d540 85bd d7ee 49bd be56 96bc
00000310: 0cd0 8fbd c34b 723d 8b7c 9c3d ce1b 87bd
00000320: e0a7 2ebd 80fb 79bd d8f3 6abd c715 8bbd
00000330: 73cd f63c 1aad 8abd 5f98 aa3d 8a4b 07bc
00000340: 86c1 bf3c 37cd 173d 7ded 2abd 44e7 5fbd
00000350: 5bb6 993d 754b bd3c b611 14bd dbff 6a3d
00000360: 029e 40bd 5a44 e6bb 8f27 8e3c 0ee4 febb
00000370: 7f95 e93c 3c45 9f3d 29f3 bdbc 6cb0 cbbc
00000380: 5917 a63d daed 5fbd cdb4 4fbd 3f92 66bd
00000390: 4f03 833d f20c 473d 2b76 4dbd b3d8 393d
000003a0: cd81 963c c9a7 c6bc e47d 90bd a55f 543d
000003b0: 5241 3dbd 70b9 abbd 4037 a73d ea65 9abc
000003c0: dac9 8f3d 482f 8b3d b630 0cbd 3a96 a63a
000003d0: 1cfd 15bd 7948 923d 2e7d ce3c 2224 823c
000003e0: 5ea6 8f3d d8de c0bb e134 fbbc 4789 2c3c
000003f0: c421 7ebd c60f 7cbd 3294 99bd 43ac 813d
-0.054352034 0.053582236 0.03830946 0.008840082 -0.006092264 0.062165238 0.008680724 -0.015450292
0.045324583 -0.0011202886 0.0374089 0.03997817 -0.03785661 0.006723937 -0.037228975 -0.022530058
-0.043477565 -0.03041438 0.0049406113 -0.07257706 -0.006323175 -0.08060044 -0.08163932 0.0075801364
-0.055013012 0.040606353 -0.028126819 0.04385009 0.062199526 -0.023779457 0.04084627 -0.029317701
0.0826945 -0.05105559 -0.07080108 -0.0008366865 0.011333187 -0.06505731 -0.03776124 -0.015379066
-0.015289632 -0.03956519 0.03539284 0.048272 0.05435007 -0.019461045 -0.034660928 0.051245783
-0.03946628 0.040541526 -0.04293137 0.022981351 0.0077839033 -0.081391454 0.05885397 0.014656637
0.024355551 -0.03916871 0.03021094 -0.0643666 0.024655968 0.035954483 0.07528554 0.069394626
0.041254397 0.053789333 -0.04583866 -0.028135054 0.05206033 0.023967892 -0.08277577 0.05378027
0.00990155 -0.0034238223 0.011475663 0.042820767 -0.039990436 0.054415066 0.012569016 0.011391884
-0.004506975 0.0033621641 -0.0047477186 0.05537971 -0.07632275 -0.059944343 0.059156075 0.04750664
-0.045689568 -0.072927944 -0.0016028577 -0.069042034 0.0663138 0.044648435 0.0114056105 0.02238354
-0.06514507 -0.015908005 0.028953819 -0.04250156 -0.02553716 -0.06490044 0.038830917 -0.033882994
0.02307297 -0.07464306 -0.061108623 0.016159505 -0.009378869 0.07680388 0.02501666 -0.011729637
0.074193664 0.064450584 -0.04763079 0.029696848 -0.005165784 0.012280025 -0.008275419 -0.022086024
0.047989402 -0.06170684 -0.062293507 -0.079163596 -0.077099934 0.068463564 0.043863826 -0.061820954
-0.03436337 0.08050685 -0.06630711 0.016013386 -0.023222683 0.05014388 0.07617897 0.024439074
0.053527784 -0.0064654127 -0.0068206703 0.033049896 0.080012634 -0.073777094 0.036004964 0.010093403
0.05654812 0.013748317 0.05642585 -0.01296258 0.01429229 0.03472117 -0.05567111 -0.040076163
-0.07282596 0.07877495 0.06519734 0.0013251613 -0.05797647 -0.076621845 0.034577463 -0.07100379
-0.03726593 0.08511401 0.0057556606 -0.038169466 -0.07426388 -0.03880776 -0.06872028 0.029277127
-0.007632591 -0.053951927 0.015069545 0.06565504 -0.04852386 0.03372028 0.03905976 -0.04553966
-0.03107666 0.08000239 -0.068882205 0.02580433 0.011275131 -0.014072737 -0.071174145 -0.019628016
0.004671564 -0.07286958 -0.06712369 -0.081360705 -0.06437794 -0.0039190166 0.04874036 0.0036186413
-0.050175343 -0.06506506 -0.04930004 -0.018351909 -0.07022104 0.059154283 0.07640942 -0.065971
-0.042640567 -0.061030865 -0.057361454 -0.06791263 0.030127263 -0.06771298 0.08329844 -0.008257756
0.023407709 0.037060943 -0.041730393 -0.05466391 0.07505485 0.02310727 -0.036149703 0.05737291
-0.047025688 -0.007027191 0.017352847 -0.007778651 0.028513668 0.07776877 -0.023187237 -0.024864398
0.08109922 -0.054670192 -0.050709534 -0.056291815 0.063971154 0.04859633 -0.050161522 0.045372676
0.01837244 -0.024249928 -0.07055262 0.051849026 -0.046204872 -0.08384979 0.08164835 -0.018847425
0.07020922 0.067961276 -0.034226142 0.0012709566 -0.036618337 0.07142729 0.025206175 0.01588637
0.07014154 -0.00588594 -0.030664863 0.010530776 -0.06204392 -0.06153848 -0.07498969 0.063316844

input_to_hidden.bias_ih_l1 f4 [128]
00000000: 63ff 00bc d6b9 6d3d a1b4 70bd 44fc 49bd
00000010: 5e53 a23d d805 45bd bd33 5ebd b965 0a3d
00000020: f654 833d c2c7 3d3c d485 053c 5eb5 06bc
00000030: 734e 89bd fa36 96bd 7299 66bd 9c1b 213b
00000040: 9099 ec3c b997 80bd 778a 1fbc 7eca d63c
00000050: 4a52 66bd fd8c d73c c548 a5bd 46a4 4bbb
00000060: 4d74 3dbd 56f3 5dbc b7e6 613c 870f f53c
00000070: 2fa9 cfbc 5032 2c3d ae4b 11bd c718 28bd
00000080: 6449 8fbd 0b76 0abd 8ac5 833d e5ce c83c
00000090: 0bdf 633d eec9 153d 2ace a03c 2d26 9e3d
000000a0: 2852 663d 1452 67bd 3d97 fb3a 248c 513d
000000b0: 1797 4d3d be1e 37bd d5cc 49bc 7109 a03d
000000c0: b2b3 45bd 3799 61bd 7beb 323d 3e10 9f3c
000000d0: 749a 6fbd 297d d33c 7038 453c ac88 98bd
000000e0: cf99 233d 83a0 b8bc 4042 1bbd 83ea 20bb
000000f0: c687 70bd 8c71 30bd 8d4f 9bbd 6467 d5bc
00000100: 4a1c 5a3d 7dc8 5dbd f604 81bd b761 8fbd
00000110: b643 f8bb e528 99bd 0c74 80bd c0f9 293d
00000120: af86 a03c 1d08 74bd 2af7 393d 3682 c4b9
00000130: 32d0 b6bc 6ded 98bb ac41 b6bc 625d 4bbd
00000140: da22 463d f070 36bd 0e4f a73c 6b68 47bc
00000150: 48f2 5cbb e7d4 463c 713c 5d3d fc66 9dbd
00000160: 3472 8a3d c220 6a3d 1321 cebc 40e9 30bc
00000170: f3b6 0e3d 49b8 5abd cff0 fbbb 90fe a83d
00000180: 0c1f a43c 6ddb 7e3c d52a 963d 8b85 c73c
00000190: 3f98 d1bc d38f 843d d666 7ebd 1bdd 5bbd
000001a0: 06dc 0abd 00e3 9a3d 6933 6ebd 22f7 3e3d
000001b0: 7f68 38bc 300a 61bc 76c6 78bd 2e91 5c3c
000001c0: b0db 273b 97bf 27bd c9ec 7bbd 437f 16bd
000001d0: a66d 733c 5ee9 5e3d 069e d03b 523a 83bd
000001e0: 875f d7bb cb06 d9bc 4c17 f7bc 1b6d 9ebc
000001f0: 1efa 96bd 0a98 babc 93da 933d 6efb b1bc
-0.007873389 0.058038555 -0.05876601 -0.049312845 0.07926057 -0.048101276 -0.05424856 0.033788417
0.064126894 0.0115832705 0.008149583 -0.008221952 -0.06704416 -0.07334705 -0.05629868 0.0024583107
0.028881818 -0.06278939 -0.009737602 0.026219603 -0.05623082 0.026312346 -0.0807052 -0.0031073256
-0.04625349 -0.013546785 0.013787917 0.02991463 -0.025349228 0.04204017 -0.035472564 -0.041039255
-0.0699642 -0.03380398 0.06434162 0.024512718 0.055632632 0.03656953 0.019629557 0.07722125
0.056230694 -0.05647476 0.0019194853 0.05115904 0.05019292 -0.044707052 -0.012316902 0.07814301
-0.048267074 -0.055077758 0.043681603 0.019416925 -0.058496907 0.025816517 0.0120373815 -0.07447943
0.039941605 -0.022537475 -0.037904978 -0.0024553842 -0.058723234 -0.043077037 -0.075835325 -0.026050277
0.053249635 -0.05414628 -0.06299774 -0.070010595 -0.007576431 -0.07478503 -0.06272134 0.041497946
0.019595472 -0.05957805 0.04540173 -0.00037481048 -0.022316072 -0.0046669752 -0.022248112 -0.049649604
0.04837308 -0.0445413 0.020423438 -0.012170891 -0.0033713747 0.012135721 0.05401272 -0.07685658
0.06760064 0.057160147 -0.025162255 -0.010797799 0.034842443 -0.053398404 -0.0076886187 0.08251679
0.020034336 0.015555245 0.07332388 0.02435567 -0.025585292 0.06472745 -0.06210979 -0.05367766
-0.033901237 0.07562828 -0.058154497 0.046622403 -0.011255383 -0.013735339 -0.060736142 0.013462348
0.0025613122 -0.0409542 -0.061505113 -0.03674246 0.014857685 0.054421775 0.006366494 -0.06407608
-0.006572667 -0.026492497 -0.030162476 -0.019339135 -0.07371925 -0.022777576 0.07219424 -0.021726336

input_to_hidden.bias_hh_l1 f4 [128]
00000000: 255e 893c f593 ba3c 154c 383d e6b5 9ebd
00000010: fe1c fcbc cb03 e7b9 31f1 debc 22ba a03d
00000020: 0ca6 e53c 7c2a 7e3c 6cf0 17bd ff12 f3bc
00000030: d02b dfbc 0c0d a73d 3ce0 59bd aad5 fc3b
00000040: b276 9e3d 89a8 f6bc d3fa 97bd ff22 9bbd
00000050: 1b46 20bd 9cf2 893d 203c a63c 603c 1dbc
00000060: a5c0 803c ed3b 60bd 4c25 82bd 462f 4c3d
00000070: 2913 84bc b8fa 033d 5b9b 98bd e8b4 823d
00000080: d0ac a23c 37f6 6ebd 7b8b 833d 969a b53b
00000090: d417 2a3d e81a 113d 0e97 4b3d b8b3 5bbd
000000a0: 85e6 99bd bbca a53d 70b0 7c3c 12ca 9d3c
000000b0: d482 b5bc 7c21 3f3d 44f1 57bd d76d 86bd
000000c0: 01cb 82bd a8ff b9bc 953d 83bd 9657 9ebb
000000d0: ea0a 9e3d 01b0 893d ff80 28bd afa5 933d
000000e0: 96d2 f0bc c83c a43d 9f62 3ebc 7248 a73c
000000f0: 5217 3b3c 2f32 08bd 73ce 063d ae38 7fbd
00000100: d8b1 953c c0b4 1abc 67f5 a2bd b9d1 a13d
00000110: ad24 563d 6388 573d 5fe8 883d 78ea 5bbd
00000120: 5d6e a3bd 7f1c 273d d446 4dbc 66bf 1dbd
00000130: df92 ac3d afce 35bd 14a4 bf3b 3cea ba3a
00000140: e18e 89bd 31bb 27bb 1111 4ebd df3e 103d
00000150: 2d0d 353d 7b79 7cbd d313 79bd 5b8e 61ba
00000160: 300a c73b 58d9 bb3d f4ae 493d 38c6 783c
00000170: a98c 8b3d c054 8abd 79b2 27bd 17f6 9bbd
00000180: 0814 91bd 555f 8c3d cfe6 89bc 34f7 f3bc
00000190: 4fd6 22bd 6ca7 0c3d 6f0b 9b3c f334 73bd
000001a0: d97f a53d c731 2f3d 2bc9 683d 1c5a 13bd
000001b0: 9392 7b3c 4c4a 483d 1f9c 22bb 294a 4b3c
000001c0: 2591 9ebd 96d0 e23c 437d 0bbd 5748 163d
000001d0: 904a a0bd 6abf 88bd b541 f33c 909e 1ebd
000001e0: 11ea 18bd 737a 4ebd aa27 07bc 4f84 533d
000001f0: 74fe af3b 4599 c03c 1b51 993d ba8b 3dbb
0.016768524 0.02277563 0.044994432 -0.07749538 -0.030775543 -0.0004406258 -0.027214618 0.07848002
0.028033279 0.015513059 -0.03709452 -0.029672144 -0.027242571 0.08156785 -0.053192362 0.0077159004
0.07737483 -0.03010966 -0.07420888 -0.07575034 -0.039129358 0.06735727 0.020292342 -0.009596914
0.01571686 -0.05474465 -0.0635477 0.04984977 -0.016122418 0.032221526 -0.07451507 0.063821614
0.019857794 -0.058340278 0.06423088 0.0055421097 0.04152663 0.03542605 0.049704604 -0.05363819
-0.07514671 0.080953084 0.015422925 0.019261394 -0.02215711 0.046662793 -0.052720323 -0.06563919
-0.06386376 -0.022704914 -0.0640823 -0.0048322184 0.077169254 0.06723023 -0.041138645 0.07209336
-0.02939729 0.080194056 -0.011620193 0.020420287 0.011419134 -0.033250984 0.03291173 -0.062309913
0.01827328 -0.009442508 -0.07956963 0.079013295 0.05228107 0.052620303 0.06684946 -0.053690404
-0.079800345 0.04079866 -0.012529094 -0.03851261 0.08426451 -0.044386562 0.005848417 0.0014260481
-0.06716705 -0.0025593753 -0.050309245 0.03521621 0.04420202 -0.06163929 -0.06080992 -0.00086042815
0.0060742125 0.091723144 0.049239114 0.015183978 0.06813938 -0.06754446 -0.04094169 -0.07615297
-0.07083899 0.06854121 -0.01683369 -0.029780962 -0.03975516 0.034339353 0.01892635 -0.05937667
0.08081026 0.04277208 0.056832474 -0.035974607 0.01535477 0.04889898 -0.0024812294 0.012407818
-0.07742528 0.027687352 -0.034055006 0.036690082 -0.07826722 -0.06677134 0.029694417 -0.038725436
-0.037332598 -0.050409745 -0.008249203 0.05163985 0.0053709093 0.023510585 0.07486173 -0.0028922395

fc1.weight f4 [64, 896]
00000000: 7ef2 003c 284f e2bd 0678 3e3d 9979 22bd
00000010: c007 80bd cdf1 523d b3b0 f23c 0dce 9dbc
00000020: 1c46 443d 6b1d 02bd 7235 073d 00cf 1c3c
00000030: aa35 073c bf36 babc 182a 9cbd ec10 2739
00000040: ab50 5b3c 9576 62bb cb91 bd3c fe49 8bbd
00000050: 280d 373c 6c6d 96ba 8d3c 8e3d b547 3abc
00000060: 3676 6b3b 594e 06bc 394b 09bc baad 1cbd
00000070: c574 16be 2f02 5e3d a399 223d ff29 85bc
00000080: 48d2 a93d d8b7 75bd 09b8 503b 93ac 33bd
00000090: 094c 973b 7926 f13b 0946 3b3c dbaf 68bd
000000a0: 6201 003c 64ff aebc d9a0 8cbd 3aaf e13b
000000b0: 7873 4d3d d258 6cbc 0d4d 0f3c 328f 253d
000000c0: e3cc 98bc 735f cc3c a772 273c db34 80bb
000000d0: f603 1b3c bc5d 073b 9661 21bd 7cbb 70bd
000000e0: fbd1 8f3c 01cc 133c 568b eabc 1f7c 803c
000000f0: 6d0d 873d 6fda 8e3d d82e 4e3b 54c3 0fbd
00000100: 0743 1d3d a9a7 20bd 3a2f a7bc 7d98 75bc
00000110: 8354 ecbb db67 c83a 4821 8c3d c465 513d
00000120: c10c 13bd b788 46bd c558 34bc e9d1 ab3c
00000130: 494c 853c d8ac 4dbc 9fc6 0cbc 3578 38bc
00000140: 5ce0 dbbd f585 8b3c 9f09 2c3d 2bbe f53c
00000150: 9fe6 243d a6c1 103d f3cc 483d 9192 2dbd
00000160: 62bd 96bd bd72 25bd 4002 5dbc 04f1 d73c
00000170: f478 83bc 0dbf 193d 378a e0bd 848e 053d
00000180: 6598 73bd 7857 6dbb c4ff dabc 0717 3fbc
00000190: 48bb 323c 4257 35bc 07ec 99bc 263a bc3c
000001a0: 8cbc 56bd b181 a63b f7c4 fdbd 9a35 433b
000001b0: 4d95 553c aaa1 8a3c 4a72 51ba f99f 69bd
000001c0: 8756 86bd 0b5c e43b a70d af3c 46c9 8d3c
000001d0: 5d2a 553d f487 2abb 0c49 94bb 10d0 79bd
000001e0: 6c3c cf3b 57c6 60bd 92e9 debd d720 acbb
000001f0: dd53 febc 97c7 b73d 9b50 3abc 80eb 08bd
00000200: 6c6d 2b3d 4c2e 5cbb 8d51 60bc ddab 533d
00000210: f69c 7d3c ca7c 583c 1716 283d f96a 4e3d
00000220: 9bf6 95bd b5b1 6f3c c0cf 18bd 6de4 563d
00000230: 013a fc3c afec 26bd dca7 543d 812f 983b
00000240: 0163 a5bd ecc4 3a3d 4c5d 6bbc 0a07 33bd
00000250: 618f 80bb 51e7 8b3c 8f03 823d 8f83 0cbd
00000260: 50ef 933b 2827 053e 978b 813c 91c5 433d
00000270: c575 25bd 0a5a 75bb bfc3 9a3d 361e a93d
00000280: 21c9 cf3c d144 973d bc55 29bd c1b9 b03c
00000290: c09d 403d aca1 21bc 2a95 373d 3764 a23c
000002a0: 7fa1 82ba e5b4 3cbc 161d 893c a207 9fbc
000002b0: 27b9 afbd 4975 3a3c 978d 063d 475d 28bc
000002c0: d30c 103c 9177 7bbd 8db0 a03b 1530 6cbd
000002d0: 5f65 b13c 8611 933b b93e 893d a079 fcbb
000002e0: 746c 3bbd 4f7a 6dbb c1c6 eb3b 146a a93d
000002f0: ced3 d9ba 7cdc c73d 7838 9d3c 4c28 ba3c
00000300: 2209 b8bd e6f8 46bc 7afc 593c abd9 893b
00000310: d716 28bc faf9 083d f9a8 c23d 0848 6a3d
00000320: 6cd6 a1bc c98f 6a3c 70b1 bb3d 1dde 7b3b
00000330: 8964 463d 9b2d 773d e08d aabd 1993 e93b
00000340: 2837 903d f2aa 023d e258 aa3d f6ab e23c
00000350: c439 75bb adfe 2c3d b2b9 f5bc 4161 97bc
00000360: 9cdf 013d 871d 2abd 02b0 5ebd 0291 773d
00000370: 4aea ad3c 351f 08bd a86d 41bd 4065 04bd
00000380: 7add 9fbb aed4 9abd 9586 873c 17cb 6fbd
00000390: 5288 f7bb bc6f 16bd f1f8 5c3d c1a6 b3bb
000003a0: 24a0 69bc bbd1 683c d61e 023d d0fa ddbc
000003b0: 60b2 5ebd 8966 1bbd eed6 e2bc d225 2e3d
000003c0: 64fc b63c 1706 fc3b cbe5 cfbd 0663 44bd
000003d0: 9692 41bd a139 863d 5f72 753d 9423 2a3c
000003e0: 47f5 a53c c266 14bd 76e8 dcbc dcc0 a83d
000003f0: 513d 923d bb79 063d 231b bb3b 8936 95bd
0.007870315 -0.11050254 0.046501182 -0.039666746 -0.06251478 0.05150013 0.029625272 -0.019263292
0.047918424 -0.031766336 0.033009954 0.009570837 0.008252541 -0.022731183 -0.07625216 0.00015932665
0.013385932 -0.0034555544 0.023140809 -0.06801222 0.01117257 -0.0011476702 0.06945143 -0.011369635
0.0035928614 -0.0081973905 -0.008379751 -0.038251616 -0.14692982 0.0542013 0.0396973 -0.016255377
0.08292061 -0.05998978 0.0031847975 -0.04386575 0.0046172184 0.0073593226 0.011430272 -0.056808334
0.00781283 -0.021362014 -0.06866617 0.0068873437 0.050158948 -0.014425473 0.008746398 0.040419765
-0.018652385 0.024947857 0.010220206 -0.003912551 0.009461394 0.0020655235 -0.039399706 -0.05877255
0.017556181 0.009020806 -0.028630894 0.015684186 0.06594358 0.06975257 0.0031461027 -0.03509839
0.038394 -0.039222393 -0.020408262 -0.014989969 -0.007212223 0.001528974 0.068422854 0.051122442
-0.035900835 -0.048470225 -0.011007492 0.020974116 0.016271727 -0.012553416 -0.008592277 -0.011259128
-0.107361525 0.01703165 0.042001363 0.029997906 0.040259 0.035340928 0.04902358 -0.042376105
-0.07360341 -0.040392626 -0.013489306 0.026360042 -0.016048886 0.037535716 -0.109638624 0.032606617
-0.059471507 -0.0036215466 -0.026733287 -0.011663205 0.010908909 -0.011068167 -0.018789304 0.022976946
-0.052425906 0.0050813784 -0.12391084 0.0029786588 0.013036084 0.01692279 -0.00079897477 -0.057037327
-0.065594725 0.00696898 0.021368815 0.017307889 0.052042354 -0.0026020976 -0.0045253094 -0.06098944
0.0063243415 -0.05487665 -0.10884394 -0.0052529383 -0.031045849 0.089736156 -0.011371757 -0.033427715
0.0418524 -0.003359693 -0.013691318 0.051677573 0.015479317 0.013213346 0.04103669 0.050394986
-0.07322427 0.014629771 -0.0373075 0.052463938 0.030789377 -0.040753063 0.051917896 0.004644335
-0.08075524 0.045597956 -0.014365505 -0.043707885 -0.003923342 0.017078074 0.06348335 -0.03430515
0.0045146123 0.13003218 0.015813632 0.047795836 -0.040395517 -0.00374377 0.07556867 0.082577154
0.02536446 0.073861726 -0.04134153 0.02157295 0.047025442 -0.009865206 0.04481999 0.019823177
-0.0009966342 -0.011517738 0.016737502 -0.01941282 -0.08580237 0.011380502 0.032849874 -0.010276145
0.00879212 -0.061393324 0.004903859 -0.057663042 0.021654783 0.004488173 0.067014165 -0.0077049285
-0.045757726 -0.0036236232 0.007195324 0.08272186 -0.0016618909 0.09758851 0.019191965 0.022724293
-0.08986117 -0.012144303 0.013304824 0.0042068562 -0.010259352 0.03344152 0.09504885 0.0571976
-0.019755565 0.014316508 0.09164703 0.003843195 0.04843572 0.060346227 -0.08327842 0.007128131
0.0704177 0.031901307 0.08317734 0.027669888 -0.0037418464 0.042235065 -0.029995773 -0.018478991
0.03170739 -0.041532066 -0.054367073 0.060441025 0.021229882 -0.033232886 -0.047223717 -0.032323122
-0.004878697 -0.07560097 0.016543666 -0.05854329 -0.0075540924 -0.036727652 0.053948347 -0.005482525
-0.014259372 0.01421016 0.03176769 -0.027097136 -0.05436933 -0.037939582 -0.027690377 0.042516537
0.022337146 0.0076911557 -0.101512514 -0.047946 -0.047258936 0.065539606 0.059923526 0.010384459
0.020258559 -0.03623081 -0.026966315 0.0823991 0.071406014 0.032830935 0.005710022 -0.072857924

fc1.bias f4 [64]
00000000: 661b 6639 0136 a63a a207 b8bb f20a 9abc
00000010: fbe5 a23c 25ce 483c 2d6c d53c f344 a3bc
00000020: 1229 153d 3e1b c9bb 89a1 cc3c 195d b33c
00000030: e199 6c39 e5d7 bcbb 9e80 403b 7d13 e4bb
00000040: 1f7e d73b 66fe f5bb 2a9b 8ab9 d675 1fbb
00000050: 247b 773c 2dd1 1abc cf18 01bd b106 cabc
00000060: 8a5f b1bc d695 b1bc d9ea 4cbc bad4 d4ba
00000070: c1c5 49bb 0396 c6bc 01d0 96b9 d68d bdb9
00000080: 00ee 8dbc 59ea 5b3a b6c7 3dbb eafe a13c
00000090: 9eb1 9f3c ff49 8c3b e003 c43c 645a a13c
000000a0: b2c1 3f3c e140 293c b40b 8a3c 9efd be3c
000000b0: d953 eebc e7c4 d93b 3fcb c2bc 6857 27bc
000000c0: ed09 abbc 7f41 f7ba 6afa 1cbc 128a 8a3c
000000d0: a9c8 7f3c a0a4 abbc c33c d33c 2042 f23c
000000e0: aabd 79bc ab7c 05bd c749 92bc b3b7 033b
000000f0: 08dd 103c 44e9 96bb 968d 89bc b28c 803c
0.00021944716 0.0012680889 -0.0056161443 -0.018804047 0.019885054 0.01225618 0.026052559 -0.019930338
0.03641612 -0.0061372807 0.02497937 0.021894978 0.00022564038 -0.0057630413 0.0029373537 -0.006960331
0.006576314 -0.0075071333 -0.00026437017 -0.002433171 0.015105043 -0.009449285 -0.0315178 -0.024661394
-0.021652002 -0.021677893 -0.012507164 -0.0016237714 -0.0030788037 -0.024241453 -0.00028765204 -0.00036154565
-0.017325401 0.00083891075 -0.0028958148 0.019774873 0.019493874 0.004281282 0.023927629 0.019696422
0.011703895 0.01033041 0.016851284 0.023314293 -0.029092716 0.006645787 -0.023778556 -0.01021371
-0.020878756 -0.0018864124 -0.009581188 0.01691154 0.015611806 -0.020952523 0.02578581 0.029572546
-0.015242973 -0.032589596 -0.017857445 0.0020098507 0.00884176 -0.004605444 -0.016791146 0.015692089
