models/rnn-regression.pth (torch, 453458 bytes, 14 tensors)

input_to_hidden.weight_ih_l0 f4 [128, 21]
0	0x3d8a8b80	0.06764889
1	0x3d28c0b3	0.041199397
2	0x3d99f5ce	0.07517587
3	0xbd45f390	-0.048327982
4	0x3d0a703e	0.03379845
5	0xbc71b6f5	-0.014753093
6	0xbcf41080	-0.029793024
7	0x3d144236	0.036195956
8	0x3cc694f6	0.024240952
9	0x3d8b0290	0.06787598
10	0xbd8a5b46	-0.0675569
11	0x3d9222bc	0.07135531
12	0x3d76d16c	0.060258314
13	0x3d82254a	0.063547686
14	0xbc35a732	-0.011087226
15	0x3caf75bd	0.021418447
16	0x3cd15af6	0.025556069
17	0x3cf2dcef	0.029646365
18	0x3d8f04b9	0.06983323
19	0xbcfdf6ed	-0.031001532
20	0xbd1484f3	-0.036259603
21	0xbd4a2b84	-0.049357906
22	0xbd3a0735	-0.04541703
23	0xbd3b4791	-0.045722548
24	0xbcaf1a91	-0.021374973
25	0xbd14a85f	-0.036293384
26	0xbca4f47c	-0.02013611
27	0x3c79f367	0.015255786
28	0xbc337301	-0.010952712
29	0x3da18869	0.07887346
30	0xbd10fc46	-0.035396837
31	0xba81a7cb	-0.0009891925
32	0x3cb9ef19	0.022697018
33	0xbd96f435	-0.073707975
34	0xbcbc9d8e	-0.023024347
35	0xbda7a796	-0.08186261
36	0xbd52195f	-0.051293727
37	0xbda03157	-0.07821911
38	0xbd9c520b	-0.07632836
39	0x3d16a15b	0.036774974
40	0x3d2cfe18	0.04223451
41	0x3ce36352	0.02775732
42	0x3c45565f	0.012044518
43	0xbd7d6327	-0.061862137
44	0xbd8abc0a	-0.06774147
45	0x3ce9ea08	0.028553978
46	0xbd8cbbba	-0.068717435
47	0x3cb5700f	0.02214816
48	0xbcf6bccb	-0.03011932
49	0xbdc1ff46	-0.09472518
50	0x3d80917a	0.062777475
51	0xbd65f4b9	-0.05614159
52	0x3daaac4a	0.08333643
53	0x3baae4ec	0.005215278
54	0x3d4a7bab	0.049434345
55	0xbd7f822b	-0.062379997
56	0x3db1c6b9	0.086804815
57	0x3cff1aa0	0.031140625
58	0xbd542827	-0.051796105
59	0xbd0e4469	-0.03473321
60	0x3cbd5816	0.023113292
61	0xbd87f854	-0.06639162
62	0xbd86cf39	-0.06582493
63	0xbd77e253	-0.060518574
64	0xbcbbd1a8	-0.02292712
65	0xbd976756	-0.07392757
66	0x3c2afef3	0.010436761
67	0xbc970f6e	-0.018439975
68	0x3d6c47ab	0.057685535
69	0xbbf0f380	-0.007353246
70	0x3cc74929	0.024326878
71	0x3d9b29af	0.0757631
72	0x3d696cd1	0.05698854
73	0x3d325f30	0.04354781
74	0xbd2a1aa5	-0.041529316
75	0x3cb9536f	0.022622792
76	0xbd6a3a39	-0.05718443
77	0xbd53b1a8	-0.051683098
78	0xbc4c0430	-0.01245217
79	0xbd283fa0	-0.041076303
80	0x3d2ebac9	0.0426586
81	0xbcdba0c2	-0.026810054
82	0xbd33fa73	-0.04394002
83	0x3d9b0ab4	0.07570401
84	0x3d101606	0.035177253
85	0xbd5e9ab2	-0.054346748
86	0xbd83c1d7	-0.064334564
87	0x3ccb6a7e	0.024831053
88	0xbd73c4ee	-0.05951398
89	0xbd276d7f	-0.040875908
90	0x3d685750	0.056723893
91	0xbc101080	-0.008792996
92	0xbaf2a646	-0.0018512688
93	0xbcf4441b	-0.029817631
94	0xbd96ae93	-0.07357516
95	0xbd9b1d41	-0.07573939
96	0xbcdf785e	-0.027279075
97	0x3d09204a	0.03347806
98	0x3a9e9c81	0.0012101085
99	0x3d3ea070	0.046539724
100	0xbcbfb80c	-0.02340319
101	0xbdc06e82	-0.09396078
102	0x3d7438bb	0.059624415
103	0x3bfa615b	0.007641
104	0x3d66c09c	0.05633603
105	0x3dab1c87	0.083550505
106	0xbd4665b3	-0.04843683
107	0x3d70342d	0.05864351
108	0xbd868383	-0.065680526
109	0xbd72ae95	-0.059248526
110	0x3ce088c8	0.027408972
111	0x3daa09ad	0.08302627
112	0x3c368dbc	0.011142191
113	0xbd887f64	-0.06664923
114	0xbd1139a7	-0.035455372
115	0xbd8767fb	-0.066116296
116	0x3d572ae2	0.05253113
117	0xbd20457f	-0.039128777
118	0xbd95ff03	-0.0732403
119	0xbca9d3d5	-0.020730892
120	0xbd5e163c	-0.054220423
121	0x3d40075e	0.046882026
122	0x3b5296e8	0.0032133404
123	0x3c6140c4	0.0137483515
124	0xbbb64721	-0.0055626784
125	0xbd909a09	-0.0706063
126	0xbd05ab5b	-0.03263412
127	0xbd8b54ef	-0.06803309
128	0x3d5d3321	0.05400384
129	0x3d2a395f	0.04155862
130	0x3d310d54	0.0432256
131	0xbc8e23bf	-0.01735103
132	0x3c8fa683	0.017535454
133	0xbcacc97c	-0.021092169
134	0xbd70fdb3	-0.058835696
135	0x3d865e4a	0.06560953
136	0xbd6f158d	-0.05837016
137	0xbda9309f	-0.08261227
138	0xbd6eb024	-0.05827345
139	0x3d2b04e2	0.041752703
140	0xbbb3c447	-0.0054860446
141	0x3abc83fd	0.0014382597
142	0xbc38210f	-0.0112383505
143	0x3c1707e5	0.009218191
144	0xbd0c837e	-0.03430509
145	0xbd383d22	-0.044980176
146	0x3d4d73fd	0.050159443
147	0x3d098a0a	0.03357891
148	0xbd80c990	-0.06288445
149	0x3c8f6339	0.017503368
150	0xbd4e04ae	-0.05029743
151	0x3d1033a5	0.035205502
152	0xbd2daade	-0.04239928
153	0x3d9fc789	0.0780173
154	0x3cd67d85	0.0261829
155	0x3d8111aa	0.06302197
156	0x3d99bd7c	0.075068444
157	0xbd45e7d9	-0.04831681
158	0x3d923d08	0.07140547
159	0x3d944927	0.07240515
160	0xbd2a9c13	-0.04165275
161	0xb9fbe887	-0.00048047697
162	0xbd033f72	-0.032042928
163	0xbd7b519a	-0.06135712
164	0xbdb40935	-0.087908186
165	0x3c0ece3f	0.008716165
166	0x3d696802	0.056983955
167	0xbd9a7d99	-0.07543487
168	0xbcd3037c	-0.025758497
169	0xbd6f37fb	-0.058402997
170	0xbd68d306	-0.056841873
171	0x3d93a6a4	0.072095186
172	0x3da5ea83	0.0810137
173	0x3d78084f	0.0605548
174	0xbd538290	-0.051638186
175	0xbd35367a	-0.044241406
176	0x3d98df19	0.074644275
177	0x3d949b38	0.07256168
178	0x3cc3a820	0.02388388
179	0xbd87a304	-0.0662289
180	0x3da64472	0.08118524
181	0xbc76470d	-0.015031588
182	0xbc9bca2c	-0.019017301
183	0xbbf44c55	-0.0074553885
184	0x3c1bdb6f	0.009512766
185	0x3d463a13	0.048395228
186	0x3d81d127	0.06338721
187	0x3cda00e1	0.026611747
188	0x3d8e71a5	0.0695527
189	0x3c9b1af8	0.018933758
190	0xbd3dcd30	-0.04633826
191	0xbd64088a	-0.055672206
192	0xbd92e369	-0.07172281
193	0xbd85d100	-0.06534004
194	0xbcc75755	-0.024333635
195	0x3cfdf7d9	0.031001972
196	0xbc2570ab	-0.010097663
197	0xbd824218	-0.06360263
198	0xbbb83801	-0.0056219106
199	0xbdabe139	-0.08392567
200	0x3d66170c	0.056174323
201	0x3d930473	0.07178583
202	0xbd9858aa	-0.07438786
203	0xbc3b5afd	-0.0114352675
204	0xbd6b655f	-0.057469722
205	0x3d6e7a9d	0.058222402
206	0x3d435a8f	0.047693785
207	0x3d12ef1b	0.03587256
208	0xbc2ffbd0	-0.010741189
209	0x3d25b355	0.040454227
210	0xbcaeef7f	-0.021354435
211	0x3cfd1572	0.030894015
212	0xbc340daf	-0.010989591
213	0x3c66f799	0.014097118
214	0xbd99f2bb	-0.07517
215	0x3d323f44	0.043517366
216	0xbcbf7629	-0.023371773
217	0xbd2f95fa	-0.04286764
218	0xbd8a82db	-0.0676324
219	0x3d5b00d0	0.05346757
220	0xbd1d2186	-0.03836205
221	0xbd9a953f	-0.07547998
222	0x3ca968f9	0.020679938
223	0x3d3f47c2	0.046699293
224	0xbdaebdaa	-0.08532269
225	0x38b7568f	8.742243e-05
226	0xbd6b94a2	-0.057514794
227	0x3d89436b	0.06702312
228	0x3d00f8f2	0.031487413
229	0x3c855a11	0.016278299
230	0x3d962dda	0.07332964
231	0xbd0e4544	-0.034734026
232	0x3d399654	0.04530938
233	0xbd43b51f	-0.047780152
234	0x3d272a4a	0.040811814
235	0x3d301b66	0.04299488
236	0x3d9f9545	0.07792143
237	0x3d7ad6f0	0.061240137
238	0xbc1556e8	-0.009114958
239	0x3d915f2f	0.07098233
240	0xbd84eb7a	-0.06490226
241	0x3d399a7b	0.04531334
242	0xbd99389e	-0.07481502
243	0x3da2ba48	0.079456866
244	0x399fbd6f	0.00030467982
245	0xbd8208e6	-0.063493535
246	0xbd84190d	-0.064500906
247	0x3d43a45d	0.04776417
248	0xbd11d11a	-0.035599805
249	0x3d9ab6b0	0.07554376
250	0x3d6892bc	0.05678056
251	0x3c5ed7c3	0.013601246
252	0xbc28ae09	-0.010295399
253	0x3cad09f2	0.021122906
254	0x3d9c76ed	0.07639871
255	0xbc64ca68	-0.013964273

input_to_hidden.weight_hh_l0 f4 [128, 128]
0	0xbd042532	-0.032262035
1	0x3c5fc1f6	0.013657084
2	0x3b0a7eda	0.0021132738
3	0x3d215f1b	0.03939734
4	0xbd272917	-0.04081067
5	0xbc032507	-0.0080044335
6	0xbd9009af	-0.07033097
7	0x3c922f83	0.017844921
8	0xbda2eed5	-0.0795571
9	0xbcd881bf	-0.026429055
10	0x3d445842	0.04793573
11	0xbd98f59d	-0.07468722
12	0x3da7ba97	0.08189886
13	0xbd8cf774	-0.068831354
14	0xbcba9d6c	-0.022780143
15	0x3d828ce0	0.06374526
16	0xbc48d3d7	-0.012257538
17	0x3d867711	0.06565679
18	0xbd706b59	-0.058696125
19	0xbd9314aa	-0.07181676
20	0xbbcfc712	-0.0063408697
21	0xbc6269eb	-0.013819198
22	0xbcfc4f42	-0.030799512
23	0xbd8fa128	-0.0701316
24	0x3da5eadd	0.08101437
25	0x3c9b1bc1	0.018934133
26	0x3d90137f	0.070349686
27	0xbd82c398	-0.06384963
28	0x3d6d5d76	0.05795046
29	0xbd1bfab7	-0.038080897
30	0x3d8eb765	0.069685735
31	0x3d3b04e2	0.045658953
32	0x3c32e9e4	0.010920022
33	0x3d83d677	0.0643739
34	0xbd2bc3f1	-0.04193491
35	0x3d87ac01	0.06624604
36	0x3ce38dcb	0.027777573
37	0x3c4a4335	0.012345125
38	0xbd52ae9c	-0.05143605
39	0xbd2e8247	-0.04260471
40	0x3ba70571	0.005097084
41	0x3d48a85b	0.04898868
42	0x3d8f8180	0.07007122
43	0xbd0f3afb	-0.034968358
44	0x3d30948a	0.043110408
45	0x3c35bca6	0.011092341
46	0xbd9bb9aa	-0.07603772
47	0x3cb00660	0.021487415
48	0xbd1b24f7	-0.03787705
49	0x3c016d8c	0.007899653
50	0x3d49f879	0.049309228
51	0xbd9e63da	-0.07733889
52	0x3d840057	0.06445377
53	0xbc3eeda5	-0.011653339
54	0xbb8509d9	-0.004060012
55	0x3c8fe3ad	0.017564619
56	0x3d6ca600	0.057775497
57	0xbd78bbbe	-0.06072592
58	0x3d678da0	0.05653155
59	0xbc2fbcd1	-0.01072617
60	0x3c642e65	0.013927077
61	0xbd165818	-0.036705106
62	0x3d8f02b4	0.069829375
63	0x3c25c47d	0.010117647
64	0x3d841d80	0.06450939
65	0x3ce0ef40	0.027457833
66	0xb9c8ff74	-0.000383373
67	0xbd8aa9a8	-0.067706406
68	0xbd4f0d8c	-0.05055003
69	0xbd0c4134	-0.03424187
70	0x3da37ed9	0.07983179
71	0xbc802333	-0.015641784
72	0xbd03b266	-0.032152556
73	0x3ba8f0c4	0.0051556546
74	0xbc3de970	-0.0115913
75	0xbd924695	-0.07142369
76	0x3d51eaac	0.05124919
77	0xbb6a7f6e	-0.003578152
78	0x3d9ce470	0.076607585
79	0x3a67825b	0.0008831375
80	0x3d87b848	0.06626946
81	0x3d1351b7	0.0359666
82	0xbda7880c	-0.08180246
83	0x3d43bcda	0.047787525
84	0xbb8737f6	-0.004126544
85	0x3d719f32	0.05898971
86	0x3d8bb3b2	0.068213835
87	0xbbc01444	-0.005861791
88	0x3d995cd6	0.0748841
89	0xbd93b6dc	-0.07212612
90	0xbd7ffe6f	-0.062498506
91	0x3cbbe271	0.022935124
92	0x3d6282e4	0.05530061
93	0xbd140742	-0.036139734
94	0xbd8eb6ec	-0.06968483
95	0xbd20664e	-0.039160065
96	0x3da44c04	0.08022311
97	0x3d3f4975	0.046700913
98	0x3da9cdbd	0.082911946
99	0xbbc128ad	-0.0058947415
100	0xbda91b76	-0.08257191
101	0xbd12c63b	-0.03583358
102	0xbc9bec1c	-0.019033484
103	0x3c65569c	0.0139977
104	0x3dabc7c1	0.083877094
105	0x3d905e84	0.070492774
106	0xbd7c19a2	-0.061547883
107	0xbc14cd13	-0.009082097
108	0x3d9ebbb1	0.07750643
109	0xbb1d350e	-0.0023987922
110	0x3ce59f11	0.02802995
111	0x3d90176d	0.07035718
112	0x3d30567e	0.043051235
113	0xbd96b0fd	-0.073579766
114	0xbcc94a13	-0.024571454
115	0xbc3439ee	-0.01100014
116	0xbc0a2522	-0.008431705
117	0xbd805479	-0.06266112
118	0x3c4d5997	0.012533567
119	0x3d850394	0.06494823
120	0x3ce30c5a	0.02771585
121	0x3d371931	0.04470176
122	0x3c0ad844	0.008474413
123	0x3da0741f	0.07834648
124	0xbc76e6dd	-0.0150696905
125	0xbd94e0e1	-0.07269455
126	0xbb9574fa	-0.004561064
127	0xbd78221a	-0.060579397
128	0x3d19bbb5	0.037532527
129	0x3d3547eb	0.04425804
130	0x3c98d5cd	0.018656636
131	0xbd6778c4	-0.056511655
132	0x3d06e196	0.03292998
133	0xbda9a208	-0.08282858
134	0x3bc85c45	0.006114515
135	0x3d74d0a7	0.0597693
136	0xbd9a0612	-0.07520689
137	0xbd7bae76	-0.061445676
138	0x3d48fc21	0.049068574
139	0x3da6b4e1	0.08139969
140	0x3cd8e884	0.02647806
141	0x3d615d4b	0.05502061
142	0xbd0afb7f	-0.03393125
143	0x3be1fd62	0.0068966607
144	0xbcc4531e	-0.023965415
145	0x3c8e12e0	0.017342985
146	0xbd9ceed3	-0.076627396
147	0xbc020ede	-0.007938115
148	0x3b4ef2d5	0.0031577845
149	0x3c9600e5	0.018310973
150	0x3c847a3a	0.016171563
151	0x3d809976	0.0627927
152	0xbd8711ef	-0.065952174
153	0x3da08c4f	0.07839262
154	0xbcda4f65	-0.026649186
155	0xbd64d88d	-0.05587058
156	0xbbef2dfa	-0.007299182
157	0x3c3761ec	0.01119278
158	0x3c003445	0.007824962
159	0x3d3aee6c	0.045637533
160	0x3d9ccc9b	0.07656213
161	0xbcdf8f6c	-0.027290069
162	0xbd125d74	-0.035733655
163	0xbd95d308	-0.07315642
164	0x3cdd744d	0.027032996
165	0x3d6a5a7b	0.057215195
166	0xbda0cf99	-0.07852096
167	0xbcbe7a68	-0.023251727
168	0x3c8589fd	0.01630115
169	0xb99d948b	-0.00030056047
170	0x3d574055	0.052551586
171	0x3d718579	0.05896518
172	0xbce5234c	-0.027970932
173	0x3d0b4e63	0.034010302
174	0x3a4c70ac	0.0007798772
175	0xbcfa384d	-0.030544424
176	0xbd090cbf	-0.03345942
177	0x3c3ad037	0.011402181
178	0xbd642a2e	-0.05570429
179	0xbc8e0fe4	-0.017341562
180	0xbd27ef35	-0.04099961
181	0xbdab4ca0	-0.083642244
182	0x3c91c3d3	0.017793572
183	0xbd121d24	-0.035672322
184	0x3d062258	0.032747597
185	0x3cf730b5	0.030174593
186	0xbc2ffbc5	-0.010741179
187	0x3cdd0b53	0.026982939
188	0x3b89b7ab	0.004202803
189	0xbc45e1a8	-0.012077726
190	0x3cff4d4f	0.031164793
191	0xbda7e86b	-0.08198627
192	0x3d57eadb	0.05271421
193	0xbc570379	-0.013123387
194	0xbd006634	-0.03134747
195	0x3d68f2c0	0.05687213
196	0x3d521117	0.05128583
197	0x3da9397e	0.08262919
198	0x3d5b0e1f	0.053480264
199	0x3c96a96f	0.01839134
200	0x3d8a3540	0.06748438
201	0xbd4cc64e	-0.049993806
202	0x3d7783ec	0.060428545
203	0xbce4aa7e	-0.027913328
204	0xbc432125	-0.011909758
205	0x3cc1ee5d	0.02367323
206	0x3c03e7d3	0.008050877
207	0xbd341d74	-0.0439734
208	0xbd1ae548	-0.037816316
209	0x3d9125a0	0.070872545
210	0xbd85f133	-0.06540146
211	0x3d3b4fad	0.04573028
212	0xbc25bdb7	-0.010116032
213	0x3d87b1a9	0.06625683
214	0xbd9c3824	-0.076278955
215	0xbd22b38b	-0.039722007
216	0x3b3d0b3d	0.002884581
217	0xbda24b33	-0.07924499
218	0xbd14ea6c	-0.036356375
219	0xbd370f24	-0.044692174
220	0xbd832596	-0.06403653
221	0x3c3a505c	0.011371698
222	0x3d07fecc	0.033201978
223	0x3c060330	0.008179471
224	0xbd151a5c	-0.03640209
225	0x3cb8cb14	0.022557773
226	0x3d409861	0.04702032
227	0xbd071532	-0.032979198
228	0xbd564dc1	-0.052320246
229	0xbca746ad	-0.020419443
230	0xbcc2cf36	-0.023780446
231	0xbda61f1f	-0.08111405
232	0x3d7d85a1	0.061895017
233	0xbb8a2f8f	-0.004217095
234	0x3d87e37b	0.06635185
235	0x396328b6	0.00021663573
236	0x3d5eda45	0.054407377
237	0xbd2abfb7	-0.04168674
238	0x3d249273	0.040178727
239	0x3d12fa38	0.03588316
240	0xbd2e7a9e	-0.042597406
241	0xbd0c9619	-0.03432283
242	0xbd0e391b	-0.03472243
243	0xbd7ba5ec	-0.061437532
244	0x3da370bf	0.07980489
245	0xbd181142	-0.037125833
246	0xbc9ba3b9	-0.018998967
247	0xbda1a4ca	-0.07892759
248	0xbd025d1e	-0.031827085
249	0xbc599013	-0.013278979
250	0x3d1287a8	0.035773903
251	0xbc62f92c	-0.0138533525
252	0x3cc58228	0.024109915
253	0xbd7d2e46	-0.061811708
254	0xbc5a2aab	-0.013315837
255	0x3d9d5c2d	0.07683597

input_to_hidden.bias_ih_l0 f4 [128]
0	0xbd26c489	-0.040714774
1	0xbd01ea65	-0.031717677
2	0xbb8c1a3c	-0.0042755883
3	0x3d519a7f	0.05117273
4	0x3d825c30	0.063652396
5	0x3d0d6d0c	0.034527823
6	0x3d21ecc6	0.039532445
7	0xbcd57d58	-0.026060745
8	0xbd05a743	-0.032630216
9	0x3d809900	0.062791824
10	0xbcced98e	-0.025250223
11	0xbced8511	-0.028994115
12	0x3d3eae27	0.046552803
13	0x3c3848c0	0.011247814
14	0xbd14bf0f	-0.03631502
15	0x3d848a0e	0.06471644
16	0xbd8469d8	-0.064655006
17	0xbcdb8b9c	-0.02679997
18	0xbd3bdf76	-0.045867406
19	0x3c90dc0d	0.017683053
20	0x3d8e51e5	0.06949214
21	0xbcda988b	-0.026684066
22	0x3d3c53f4	0.0459785
23	0x3cd22803	0.025653845
24	0x3d88ec95	0.066857494
25	0x3b2d6496	0.002645766
26	0xbcc810d3	-0.024422085
27	0x3d5e7916	0.054314695
28	0x3cd7afa4	0.02632887
29	0xbd2995fd	-0.041402806
30	0xbd78c926	-0.060738705
31	0x3c6eb6ae	0.014569921
32	0xbba42185	-0.0050088787
33	0xbdabca67	-0.083882146
34	0xbca092c0	-0.019601226
35	0x3d5e4919	0.05426893
36	0xbd550781	-0.05200911
37	0x3da40ec4	0.08010629
38	0x3d88a491	0.066720136
39	0xbb5d9b3c	-0.003381445
40	0x3bd55e2b	0.00651147
41	0xbd2f7728	-0.042838246
42	0x3c010d5e	0.007876722
43	0xbd6df143	-0.058091413
44	0xbb810a5a	-0.0039380016
45	0xbce0e9b3	-0.027455186
46	0x3d38207a	0.044952847
47	0x3bee3493	0.007269451
48	0x3da2742b	0.079323135
49	0x3d5d0cd5	0.053967316
50	0x3cbf2e7c	0.023337595
51	0x3d29ae5e	0.041426055
52	0x3d1238f1	0.035698835
53	0x3d073c57	0.03301653
54	0xbb4e7b4d	-0.0031506598
55	0x3d912b1a	0.07088299
56	0xbcf043ed	-0.029329265
57	0x3d9714a3	0.07376983
58	0x3cc22b0d	0.023702169
59	0x3d8a28f0	0.067460895
60	0x3d9bc8ca	0.07606657
61	0x3d6870f7	0.056748357
62	0x3c233102	0.009960415
63	0xbc87cc21	-0.016576828
64	0xbc32a6b8	-0.010904007
65	0x385353a6	5.0384224e-05
66	0x3cf22283	0.029557472
67	0x3d3d89e5	0.046274085
68	0xbc87c134	-0.016571619
69	0xbcf76119	-0.030197667
70	0xbd34c0ba	-0.04412911
71	0x3d278600	0.040899277
72	0x3d1f105b	0.038833957
73	0x3d927044	0.07150319
74	0xbd53e377	-0.0517306
75	0xbbec2bde	-0.007207378
76	0x3b6d940a	0.0036251568
77	0xbd906111	-0.07049764
78	0xbd90ef40	-0.07076883
79	0x3d1ae926	0.037820004
80	0x3d3b68a9	0.04575411
81	0xbda14e33	-0.078762434
82	0xbd28f8ab	-0.041252773
83	0xbd827b9f	-0.06371235
84	0x3d57db99	0.05269966
85	0xbd9046d4	-0.070447594
86	0x3bb8fe36	0.0056455387
87	0x3cc0fedc	0.023559026
88	0xbda41a3a	-0.08012815
89	0xbd3a696f	-0.045510706
90	0x3d3a09d2	0.04541952
91	0xbda79848	-0.08183342
92	0x3d7f58c3	0.06234051
93	0x3ceebe8b	0.029143592
94	0xbbe17332	-0.0068801874
95	0x3d4aaa58	0.04947886
96	0x3d83769b	0.064191066
97	0x3ced180e	0.028942134
98	0x3c2cc54c	0.010545086
99	0xbd62ae31	-0.055341903
100	0xbc71a2ea	-0.014748314
101	0x3d253539	0.04033396
102	0xbda0097f	-0.07814311
103	0xbd1072df	-0.0352658
104	0xbbfcbc6b	-0.007712891
105	0xbd119a7a	-0.03554771
106	0xb9b8b9de	-0.00035233697
107	0xbbe0cdfb	-0.0068604923
108	0xbd1634ff	-0.036671635
109	0xbd0c11cf	-0.03419667
110	0x3d3c0f68	0.04591313
111	0x3bb49107	0.0055104527
112	0xbd5bcd32	-0.053662486
113	0xbd142bbd	-0.036174525
114	0xbc186a3c	-0.009302672
115	0x3d756ef2	0.05992026
116	0x3d9d8023	0.07690456
117	0x3d0c7c07	0.03429797
118	0x3c1ac7b4	0.009447027
119	0xbd94c8c3	-0.07264855
120	0x3ce4f109	0.027946966
121	0xbcc52326	-0.024064612
122	0xbc98d483	-0.018656021
123	0xbd3ab4d5	-0.04558261
124	0x3d9a81f9	0.075443216
125	0x3cf678f0	0.030086964
126	0xbd2e9e52	-0.042631455
127	0xbd894668	-0.06702882

input_to_hidden.bias_hh_l0 f4 [128]
0	0x3dab0711	0.08350957
1	0xbd55a120	-0.052155614
2	0xbd861ee5	-0.065488614
3	0xbca2e2e3	-0.019883579
4	0xbc9666e0	-0.018359601
5	0xbb0eced0	-0.002179075
6	0x3b52b1dc	0.003214947
7	0xbd957f98	-0.07299727
8	0xbaed38af	-0.0018098558
9	0x3c69c9cf	0.014269306
10	0xbd7de294	-0.06198366
11	0xbd113a58	-0.03545603
12	0x3b4721ff	0.0030385253
13	0x3d36d4fe	0.04463672
14	0x3bae3bc8	0.005317185
15	0x3c9c0b32	0.019048307
16	0xbd12084c	-0.035652444
17	0x3daad78f	0.08341896
18	0xbbc5db4a	-0.006038104
19	0x3cbcf9ef	0.023068396
20	0x3d2ad36a	0.041705526
21	0x3d45129b	0.048113447
22	0x3d809314	0.06278053
23	0x3d08e6e1	0.03342331
24	0xbd2932cb	-0.041308206
25	0x3c870c1f	0.016485272
26	0xbda9d4b7	-0.08292525
27	0x3d8311a8	0.06399852
28	0xbbc7f5a3	-0.00610228
29	0xbd26f472	-0.040760465
30	0x3bcdfce1	0.006286249
31	0x3d7c89ed	0.061654974
32	0x3d93363d	0.071880795
33	0x3cc23420	0.023706496
34	0x3cc9a13d	0.024613017
35	0xbd1cba8d	-0.038263846
36	0xbd4349bc	-0.04767774
37	0x3d145e82	0.036222942
38	0x3d7596cf	0.059958275
39	0x3d71249a	0.058872797
40	0xbcf645e2	-0.03006262
41	0x3da4df94	0.08050457
42	0xbd42119e	-0.047380082
43	0xbd9568e4	-0.07295397
44	0xbd57139d	-0.05250894
45	0x3bb21a54	0.0054352675
46	0xbd41450a	-0.04718498
47	0xbd9f3f5c	-0.07775757
48	0x3d9029d1	0.07039226
49	0x3d0dbc79	0.03460357
50	0xbcef1b5c	-0.02918785
51	0x3d95b234	0.0730938
52	0xbc16c6de	-0.009202687
53	0x3d9146ad	0.070935585
54	0x3d2275d9	0.03966317
55	0x3969fad7	0.00022314057
56	0xbd7c038f	-0.06152683
57	0xbd5ac692	-0.053412028
58	0x3d172cf6	0.036908112
59	0xbcbe1bff	-0.023206709
60	0x3d695192	0.056962557
61	0x3d31c449	0.043400083
62	0xbc77c8e5	-0.015123581
63	0xbd6b8da3	-0.057508122
64	0x3d889bad	0.06670318
65	0x3d7d0f4e	0.061782174
66	0xbcf97a45	-0.03045381
67	0x3ca5377f	0.020168064
68	0x3b0bf06b	0.0021353017
69	0x3d0624c5	0.03274991
70	0x3d35550f	0.04427057
71	0xbd37d666	-0.0448822
72	0xb840bd82	-4.595286e-05
73	0x3d5ac14f	0.05340701
74	0x3d0e0753	0.034674954
75	0x3d98295f	0.07429766
76	0xbccd6205	-0.025071153
77	0x3da1c9fa	0.07899852
78	0x3d10bd75	0.03533693
79	0x3b940257	0.0045168805
80	0xbdb245b1	-0.08704699
81	0x3d1fe723	0.03903879
82	0x3d716b28	0.058940083
83	0xbd42d4a2	-0.047566064
84	0xbd30815c	-0.043092117
85	0xbd015eb0	-0.03158444
86	0xbd9ca426	-0.07648496
87	0x3d243682	0.040091045
88	0x3d1e3264	0.038622275
89	0x3b17b930	0.0023151152
90	0xbd8c050c	-0.068369
91	0xbd15b30b	-0.0365477
92	0x3d0da17b	0.034577828
93	0xbc587bb1	-0.013213084
94	0x3d9926cf	0.07478105
95	0xbcdfd5a7	-0.027323557
96	0xbd123489	-0.035694633
97	0xbd7a8568	-0.061162382
98	0x3d8c1c96	0.0684139
99	0x3d84d514	0.06485954
100	0xbd5049c2	-0.05085159
101	0x3d1fdc40	0.039028406
102	0x3d7fae98	0.062422365
103	0xbd887cc3	-0.066644214
104	0x3cc95866	0.024578284
105	0x3d5d03df	0.05395877
106	0x3c9c88db	0.019108227
107	0x3d83747a	0.064187005
108	0x3ca418da	0.020031381
109	0xbc540139	-0.012939745
110	0x3d7ee48f	0.06222969
111	0x3d712b6e	0.05887931
112	0x3ca04762	0.019565288
113	0xbba269b9	-0.004956451
114	0xbd72b606	-0.059255622
115	0xbd69bc98	-0.057064623
116	0x3da5b8df	0.08091902
117	0xbd706ad6	-0.058695637
118	0xbd7e5cf8	-0.06210038
119	0x3bac11f7	0.005251165
120	0xbb932f3d	-0.004491715
121	0x3bca1057	0.0061664986
122	0x3bf7c753	0.007561603
123	0xbb98c5d3	-0.0046622544
124	0xbd485e6d	-0.048918176
125	0xbd678912	-0.056527205
126	0x3b9af1d6	0.004728536
127	0x3c31f77f	0.01086223

input_to_hidden.weight_ih_l1 f4 [128, 128]
0	0x3d9b14dd	0.07572339
1	0xbd07308c	-0.033005282
2	0x3c6e7db6	0.014556339
3	0xbc84cc6e	-0.01621076
4	0x3d7e909d	0.062149633
5	0xbd9f8973	-0.07789888
6	0xbcbe3d48	-0.02322258
7	0xbda0ea85	-0.07857231
8	0xbd1244ea	-0.035710253
9	0x3c65ad92	0.014018433
10	0x3d833ad6	0.064077064
11	0xbda201c3	-0.07910492
12	0xbc8876cb	-0.016658207
13	0x3d2ced49	0.04221848
14	0xbd0297bf	-0.031882998
15	0x3a1e4cfd	0.0006038694
16	0x3d8b2266	0.0679367
17	0x3cb2f5bf	0.021845696
18	0x3c81d65e	0.015849289
19	0x3c018465	0.0079051005
20	0xbba59650	-0.005053319
21	0xbd949e18	-0.072567165
22	0xbd282978	-0.041055173
23	0xbd8709df	-0.0659368
24	0xbd3c2866	-0.045936964
25	0xbc6e39e4	-0.014540169
26	0x3d90470b	0.070448
27	0x3ca31f1b	0.019912293
28	0x3caa9bac	0.020826183
29	0x3d90af04	0.070646316
30	0x3d07c6c8	0.033148557
31	0x3ca0e137	0.01963864
32	0xbab0f1bf	-0.001349978
33	0xbd8f48e7	-0.06996327
34	0x3d4c328e	0.0498529
35	0xbd9bb71d	-0.076032855
36	0xbd8c7fbf	-0.06860303
37	0x3d833bd3	0.06407895
38	0x3d8a2176	0.067446634
39	0x3cf10b33	0.029424286
40	0x3d83c8e3	0.064348005
41	0x3d2d8e9e	0.04237234
42	0x3d0741c2	0.033021696
43	0xbd88d67d	-0.066815354
44	0xbcb75946	-0.022381436
45	0x3c8a2428	0.016862944
46	0x3d83e606	0.06440358
47	0xbcda8888	-0.026676431
48	0xb9485945	-0.00019106742
49	0xbd5c7d79	-0.053830598
50	0x3d4c1159	0.04982123
51	0x3cda12ed	0.026620353
52	0x3d8bfe91	0.06835664
53	0x3da8e309	0.082464285
54	0xbd4f59f8	-0.05062291
55	0x3d7134a7	0.058888104
56	0x3d2a0328	0.041506916
57	0x3ce6e2ef	0.028184382
58	0x3d6d66a5	0.057959218
59	0xbd866348	-0.06561905
60	0xbd977943	-0.07396176
61	0xbd77ce6d	-0.060499597
62	0xbd42c6c2	-0.04755283
63	0xbd8aa048	-0.067688525
64	0x3d9b1f02	0.07574274
65	0xbd7b9055	-0.061416943
66	0x3c38ef1c	0.011287477
67	0x3d513169	0.05107251
68	0x3bc74f3a	0.0060824426
69	0x3cc647cd	0.02420416
70	0xbd486db9	-0.048932765
71	0xbd272f90	-0.040816844
72	0xbc37c0d1	-0.011215405
73	0x3cdb4b45	0.02676929
74	0x3c78a177	0.015175215
75	0x3d196979	0.037454102
76	0x3da51aca	0.0806175
77	0xbcf279bd	-0.029599065
78	0x3d0905bd	0.033452738
79	0x3bf73727	0.0075444165
80	0x3cd13b8a	0.025541086
81	0xbc8ba974	-0.017048575
82	0x3d04cb6e	0.03242057
83	0x3da1d954	0.0790278
84	0x3d874520	0.066049814
85	0x3d4b5398	0.049640268
86	0x3cdc20cf	0.026871113
87	0xbcd3293f	-0.025776504
88	0xbafb9b5a	-0.0019196079
89	0x3c49c21b	0.012314345
90	0xbb4ca19f	-0.0031224263
91	0xbd106636	-0.035253726
92	0x3b93a292	0.004505464
93	0xbcc6703d	-0.024223441
94	0xbd419747	-0.04726341
95	0x3a0352e8	0.00050096074
96	0xbd25a656	-0.040441833
97	0x3bb9c5af	0.0056693177
98	0x3cf7cdda	0.030249525
99	0xbd9318af	-0.071824424
100	0xbd9dd087	-0.07705789
101	0x3d3cbe72	0.04608006
102	0xbd7b0f70	-0.06129402
103	0xbcaf7272	-0.021416876
104	0xbc949fac	-0.018142544
105	0xbd4fc274	-0.050722554
106	0x3d1e6e9f	0.038679715
107	0xbd2587ca	-0.0404127
108	0xbc9183d3	-0.017763054
109	0xbbbd354f	-0.005774177
110	0xbd53ea1e	-0.051736943
111	0x3c4d7396	0.012539765
112	0x3ba43457	0.005011122
113	0x3d62fe0f	0.05541807
114	0x3d210960	0.03931558
115	0x3b94c84a	0.004540478
116	0x3d3e1f1c	0.046416387
117	0x3d0c7706	0.034293197
118	0xbc2a072f	-0.010377689
119	0xbd56560c	-0.052328154
120	0xbd268785	-0.040656585
121	0xbb1f0065	-0.002426171
122	0xbcf5889f	-0.029972373
123	0xbcddecca	-0.027090449
124	0xbda6b0bc	-0.08139178
125	0xbcaaa44a	-0.020830292
126	0x3d2640da	0.04058919
127	0xbbc06cde	-0.005872353
128	0xbd91eff2	-0.07125844
129	0x3cc21b02	0.023694519
130	0xbc563f78	-0.013076656
131	0xbd1ec334	-0.03876038
132	0xbd8ed6c3	-0.06974556
133	0x3d17d3a9	0.03706709
134	0xbd980eca	-0.07424696
135	0xbd7ae201	-0.06125069
136	0x3c372c77	0.011180035
137	0x3c85edcd	0.016348744
138	0xbd9a0918	-0.07521266
139	0xbd695464	-0.056965247
140	0xbd91b95c	-0.071154326
141	0xbd2f1da1	-0.042752866
142	0x3d717edc	0.058958873
143	0xbd4d881f	-0.050178643
144	0xbd0d1764	-0.034446135
145	0x3da9be92	0.082883015
146	0xbda490a0	-0.080353975
147	0x3cea93f5	0.028635005
148	0xba67e282	-0.0008845703
149	0x3d5fd6ce	0.054648213
150	0x3c399709	0.0113275135
151	0xbd19b283	-0.037523758
152	0xbd1617d0	-0.036643803
153	0x3d630d21	0.055432443
154	0x3ca8e159	0.020615267
155	0xbd5d76cc	-0.05406837
156	0x3cb3fdf6	0.021971684
157	0xbb928208	-0.0044710673
158	0xbd0340db	-0.032044273
159	0x3d56f6d4	0.052481487
160	0x3cefac76	0.02925704
161	0x3d4e1da6	0.050321244
162	0x3d1fc16e	0.03900283
163	0xbd0b7961	-0.034051303
164	0xbcfe7958	-0.03106372
165	0xbc51a5fb	-0.0127959205
166	0xbd9ce002	-0.076599136
167	0xbd84bf62	-0.06481816
168	0x3d5d4983	0.054025184
169	0xbcdf26b5	-0.027240137
170	0x3d0c7e8a	0.034300365
171	0x3d9e0236	0.077152655
172	0xbd83ffb3	-0.06445255
173	0xbc2a380e	-0.010389341
174	0x3af63568	0.0018784227
175	0x3d8322fe	0.064031586
176	0xbd04413b	-0.03228877
177	0xbd052777	-0.03250834
178	0x3d3c3632	0.045950122
179	0xbd9fe7de	-0.07807897
180	0x3da441f1	0.0802039
181	0xbc659bae	-0.014014168
182	0x3d04c441	0.032413725
183	0xb91fe32c	-0.0001524805
184	0x3d48bd5b	0.04900871
185	0xbd8addaf	-0.06780564
186	0xbd7cecf2	-0.061749406
187	0xbb27f5ab	-0.0025628607
188	0xbcb81c3f	-0.022474406
189	0xbc176e75	-0.009242644
190	0x3ccd9123	0.02509362
191	0x3c21ab2b	0.00986747
192	0x3d7b8f64	0.061416045
193	0xbc49ac5d	-0.012309161
194	0xb8ad8a33	-8.2750244e-05
195	0x3d857d0f	0.06517994
196	0xbd873657	-0.066021614
197	0x3c62d205	0.013844018
198	0xbc85054a	-0.016237874
199	0xbb3239b8	-0.0027195048
200	0x3da844fc	0.08216283
201	0x3ca76a65	0.020436475
202	0xbd57047d	-0.052494515
203	0x3cda9123	0.026680535
204	0xbcdef16e	-0.027214732
205	0xbd37deb4	-0.04489012
206	0x3c28bbc1	0.01029867
207	0xbc814c28	-0.015783384
208	0x3d31061c	0.043218717
209	0x3d6c9faa	0.057769455
210	0xbd7345ee	-0.059392862
211	0x3c82bfda	0.015960623
212	0x3d7404d8	0.05957493
213	0x3d0f725d	0.035021175
214	0xbb453bd9	-0.0030095486
215	0x3d213c86	0.03936436
216	0x3ced29ba	0.02895056
217	0xbd9b0a86	-0.075703666
218	0xbd87fcf3	-0.06640043
219	0x3d7fa55a	0.06241355
220	0xbcea5d69	-0.028608995
221	0x3d1dba59	0.038507793
222	0x3d179e34	0.03701611
223	0x3cc7fbf0	0.024412125
224	0x3cfe9e19	0.031081246
225	0x3cb41230	0.021981329
226	0x3d4ea34f	0.050448712
227	0xbda4e365	-0.080511846
228	0xbcb0cf98	-0.021583363
229	0x3d38b343	0.045092832
230	0xbd5d8fc5	-0.054092187
231	0x3d452925	0.04813494
232	0x3caf0519	0.021364735
233	0xbd79ca11	-0.06098372
234	0x3c84d960	0.016216934
235	0xbc6f326e	-0.014599426
236	0x3bda3276	0.0066588474
237	0x3d870030	0.06591833
238	0xbd99bd1c	-0.07506773
239	0xbb20a08c	-0.0024509756
240	0x3cbb8465	0.02289028
241	0x3d71a09c	0.05899106
242	0x3c040975	0.008058895
243	0x3d2fd857	0.042930927
244	0xbc37e102	-0.01122308
245	0x3bfa30b4	0.0076352004
246	0x3d12fcc9	0.035885606
247	0x3b937904	0.00450051
248	0x3c9d34ea	0.01919027
249	0xbc630651	-0.013856486
250	0x3d3437a9	0.043998394
251	0xbd2d8d69	-0.042371187
252	0xbc7e9ad5	-0.0155398445
253	0xbb19deee	-0.0023478824
254	0xbd6e0ab7	-0.058115687
255	0x3adbc9c7	0.0016768508

input_to_hidden.weight_hh_l1 f4 [128, 128]
0	0x3cf1fd34	0.029539682
1	0x3d928c4b	0.07155665
2	0xbb72f1c3	-0.003707037
3	0xbda030c4	-0.07821801
4	0x3d069aaa	0.032862343
5	0x3ca4ab80	0.020101309
6	0xbc543427	-0.012951887
7	0x3da1713e	0.07882927
8	0xbcc3ccd1	-0.023901375
9	0x3cab8f39	0.020942317
10	0x3cfb7ddd	0.030699665
11	0xbd187d03	-0.037228595
12	0x3b5fd084	0.0034151385
13	0x3d743363	0.05961932
14	0xbd14a067	-0.036285784
15	0x3d9ddf14	0.077085644
16	0xbd89dd61	-0.06731678
17	0xbd6b5c3f	-0.05746102
18	0x3d916b31	0.07100523
19	0xbd059d16	-0.032620512
20	0xbd993ed7	-0.07482689
21	0x3d463237	0.048387732
22	0xbc59c467	-0.013291455
23	0x3d22016e	0.039552145
24	0x3d28971d	0.041159738
25	0xbc54fb84	-0.012999419
26	0x3c92da2b	0.017926296
27	0x3d8d20c0	0.06891012
28	0xbd96e0c5	-0.0736709
29	0xbd934b35	-0.07192079
30	0x3c3ae4de	0.011407105
31	0x3cdbbe47	0.02682413
32	0xbd967486	-0.07346444
33	0xbc8e4a6c	-0.017369471
34	0xbda04baa	-0.07826932
35	0x3bcab017	0.0061855423
36	0x3cbbb39b	0.022912791
37	0x3da0d5e8	0.078532994
38	0x3d91b373	0.07114305
39	0xbccb0e29	-0.024787026
40	0xbbcfaa19	-0.006337416
41	0x3da79409	0.08182532
42	0x3da32a46	0.079670474
43	0x3d2ad45f	0.04170644
44	0xbd8e70fc	-0.06955144
45	0x3d630e04	0.05543329
46	0xbca665fa	-0.020312298
47	0xbc42b4a0	-0.011883885
48	0x3c263dad	0.010146541
49	0xbd9165d3	-0.070994996
50	0x3cec8193	0.02887038
51	0x3d69ed76	0.057111226
52	0x3cc97246	0.024590623
53	0x3d074716	0.033026777
54	0x3d2ae7fc	0.041725144
55	0x3c98929d	0.018624598
56	0xbc891b2d	-0.016736591
57	0xbd6deede	-0.05808913
58	0x3d502ad8	0.05082211
59	0xbd8d05d1	-0.06885875
60	0x3b8ddaf5	0.00432908
61	0x3d27f92c	0.041009113
62	0x3d93a6c4	0.072095424
63	0x3d5508fb	0.052010518
64	0xbcb220ad	-0.021744097
65	0x3caf1d7d	0.021376366
66	0x3d66b787	0.05632737
67	0xbd501958	-0.05080542
68	0x3cd6dcd8	0.026228353
69	0xbd12d8d5	-0.03585132
70	0xbd82d94a	-0.06389101
71	0xbc635bf5	-0.013876905
72	0xbcb39c07	-0.021924986
73	0xbc89d126	-0.016823363
74	0xbcf85783	-0.030315166
75	0x3a9518da	0.0011375204
76	0xbc59dffb	-0.01329803
77	0x3cb19241	0.021676185
78	0xbd501409	-0.050800357
79	0xbda3f8c6	-0.08006434
80	0xbd339634	-0.043844417
81	0x3d7bff5d	0.06152283
82	0xbc9e701c	-0.019340567
83	0xbd8ead33	-0.06966629
84	0x3d0e18a3	0.034691464
85	0x3d9ee6eb	0.07758888
86	0xbd0473d0	-0.03233701
87	0x3cb01a37	0.021496875
88	0x3c994773	0.018710827
89	0xbcee5db8	-0.029097423
90	0xbd0b36dd	-0.03398787
91	0x3d6c0f09	0.057631526
92	0xbb2a0238	-0.0025941264
93	0x3d16206e	0.03665202
94	0x3c02dcfa	0.007987255
95	0xbd1097f8	-0.03530118
96	0xbd9b7812	-0.07591261
97	0xbd5a8b5a	-0.053355552
98	0xbd91a609	-0.07111747
99	0xbd0e747b	-0.034779053
100	0x3d059fef	0.032623228
101	0xbda2758f	-0.07932579
102	0x3c83d903	0.01609469
103	0x3ce8ead0	0.02843228
104	0x3d6f2c6e	0.05839198
105	0x3cbc565a	0.022990394
106	0xbd991ff7	-0.074768
107	0x3d4f69ab	0.050637882
108	0xbc34a9f1	-0.011026845
109	0xbd7ceeb5	-0.061751086
110	0xbb6adc14	-0.0035836743
111	0xbd2320db	-0.039826255
112	0xbda48acb	-0.08034285
113	0x3ba26b6a	0.0049566524
114	0xbd84c480	-0.06482792
115	0x3c54e8d9	0.012994968
116	0xbd8009d5	-0.06251875
117	0xbc9e800c	-0.019348167
118	0xbd7d7a1f	-0.061884042
119	0x3d81a38f	0.063300245
120	0xbd3f6cf6	-0.046734773
121	0x3d9357e7	0.071945004
122	0xbbbdeebd	-0.005796282
123	0xbd5e6979	-0.054299805
124	0xbd8070cd	-0.06271515
125	0xbc05b829	-0.008161583
126	0xbd8fa2f2	-0.07013501
127	0xbcfa7bbe	-0.030576583
128	0x3d8c1a3b	0.068409406
129	0x3d1ac95a	0.03778968
130	0x3d091cf9	0.033474896
131	0xbd89c716	-0.06727426
132	0x3c03eebc	0.008052524
133	0x3d93a9c4	0.072101146
134	0x3d4155d3	0.04720099
135	0xbbd68c9a	-0.0065475227
136	0xbd79a1d2	-0.06094534
137	0x3d93b425	0.07212094
138	0xbccf2ea9	-0.025290804
139	0x3d6d9aaf	0.058008846
140	0x3d2ad007	0.041702297
141	0x3d8f8a25	0.07008771
142	0x3d421823	0.0473863
143	0xbd183593	-0.037160467
144	0xbd47de45	-0.048795957
145	0xbd8d2525	-0.068918504
146	0x3d6b07ed	0.057380605
147	0xbda3f129	-0.08004982
148	0xbd32c595	-0.04364546
149	0xbd0e98b4	-0.034813598
150	0x3d293e74	0.041319326
151	0x3d93c6ca	0.072156504
152	0x3b548951	0.003243048
153	0xbac98e2d	-0.0015377455
154	0x3d303393	0.043017935
155	0xbcac17ed	-0.021007502
156	0xbd5e3cd1	-0.054257218
157	0x3d9e1b05	0.07719997
158	0xbd621406	-0.055194877
159	0x3b89e217	0.00420786
160	0x3d41f47f	0.04735231
161	0xbcad7118	-0.021172091
162	0x3c680888	0.01416219
163	0x3c626c87	0.01381982
164	0x3d8b8e43	0.06814244
165	0xbdaa8754	-0.08326593
166	0x3d98dfc5	0.07464556
167	0x3ca236d3	0.019801533
168	0x3d598cde	0.053112857
169	0x3b080e67	0.0020760538
170	0xbd28a79f	-0.04117548
171	0xbd228195	-0.03967436
172	0xbc803385	-0.015649566
173	0x3cb9aa53	0.022664225
174	0x3c1122e4	0.008858416
175	0xbc68dfac	-0.014213484
176	0x3d827839	0.06370587
177	0xbd4e7438	-0.050403804
178	0x3d98c1ce	0.0745884
179	0xbd963421	-0.073341615
180	0xbd69d299	-0.057085607
181	0x3d3a066f	0.04541629
182	0xbd3f3f09	-0.046690974
183	0xb8fe9773	-0.000121398734
184	0xbd7543e0	-0.059879184
185	0x3d27a369	0.040927324
186	0x3d07ccc0	0.03315425
187	0xbd087d69	-0.033322725
188	0xbd86c21a	-0.06579991
189	0xbda3a34b	-0.0799013
190	0x3cd0177c	0.025401823
191	0xbcf3d748	-0.02976574
192	0xbda7ce14	-0.08193603
193	0xbc1bfb00	-0.009520292
194	0xbcea8612	-0.028628383
195	0xbd47eaf4	-0.048808053
196	0x3d9e356e	0.07725035
197	0xbd960c69	-0.07326586
198	0x3d77f63e	0.06053757
199	0x3d1ec15e	0.038758628
200	0x3d0064fb	0.031346302
201	0xbbfef244	-0.007780345
202	0xbcd14b45	-0.025548587
203	0xbd454ae1	-0.048167113
204	0xbda1a657	-0.07893055
205	0xbb684b48	-0.0035445262
206	0x3afd3a67	0.0019319773
207	0xbd85f731	-0.06541289
208	0xbc99214c	-0.018692635
209	0xbc71c1a9	-0.014755645
210	0xbc4572b9	-0.012051278
211	0xbd24e2e4	-0.040255442
212	0x3d86bc92	0.06578936
213	0x3d96aee0	0.073575735
214	0xbd7ca6d8	-0.061682552
215	0xbd367525	-0.04454531
216	0x3cc01f35	0.02345238
217	0x3d7f1235	0.062273223
218	0x3d50255c	0.05081688
219	0xbd8923d9	-0.066962905
220	0x3c025a3c	0.007956084
221	0x3d10aeb4	0.03532286
222	0x3d7fbe3b	0.062437277
223	0x3d7f2b51	0.06229717
224	0xbc6886e8	-0.01419232
225	0xbd03000d	-0.03198247
226	0x3d07231e	0.032992475
227	0xbd1d56a8	-0.03841272
228	0xbd52bd49	-0.051450048
229	0x3c75c9af	0.015001698
230	0xbd8a85b8	-0.06763786
231	0x3c3deb58	0.011591755
232	0xbd7840dd	-0.060608733
233	0xbd8dd01e	-0.06924461
234	0xbdabc6c5	-0.08387522
235	0x3c8455da	0.016154218
236	0xbbf2a6ae	-0.0074051237
237	0xbc29ce8a	-0.010364184
238	0x3da5c255	0.080937065
239	0x3a972f22	0.0011534432
240	0xbd187111	-0.037217204
241	0x3bcfa52c	0.0063368287
242	0xbda504ca	-0.08057554
243	0x3d1e5c45	0.038662214
244	0xbd8f0d3f	-0.06984948
245	0xbd9d74d9	-0.076883025
246	0xbc93c74b	-0.018039366
247	0xbb64d1c2	-0.0034915064
248	0xbce9fb4a	-0.028562207
249	0xbcae05fb	-0.021243086
250	0x3bb64a9b	0.005563093
251	0x3d6d4d8e	0.05793529
252	0xbd22f87d	-0.03978776
253	0x3d9e8ab7	0.077413015
254	0xbcde2c30	-0.02712068
255	0x3d9174c1	0.07102347

input_to_hidden.bias_ih_l1 f4 [128]
0	0xbd224e6e	-0.039625578
1	0xbd267bcd	-0.04064541
2	0xbbedc67b	-0.0072563267
3	0x3d082fb8	0.033248633
4	0x3bc64404	0.0060505886
5	0xbd83a6c9	-0.06428296
6	0x3d35328b	0.044237655
7	0x3d94ab18	0.07259196
8	0x3cf70287	0.030152572
9	0xbd2d728d	-0.042345572
10	0xbd2002ff	-0.039065357
11	0xbd928b10	-0.0715543
12	0x3d8a9f13	0.06768622
13	0xbc38f591	-0.011289016
14	0x3c65f79b	0.0140360845
15	0xbd9c66e7	-0.076368146
16	0xbd6c8d79	-0.057752106
17	0x3d8fc9c7	0.07020908
18	0xbd5d55e6	-0.054036997
19	0x3d8bdb6f	0.06828963
20	0x3d08e0f3	0.033417653
21	0x3d5846c9	0.05280188
22	0xbd8b1159	-0.06790418
23	0xbd997b73	-0.07494249
24	0x3c34f53e	0.011044798
25	0x3d137cbe	0.036007635
26	0xbbb6cee0	-0.0055788606
27	0x3d4dc04a	0.05023221
28	0x3d44da8a	0.048059978
29	0xbda70a82	-0.08156301
30	0xbdae929e	-0.08524059
31	0xbd142d61	-0.03617609
32	0x3d5f50a5	0.054520268
33	0x3c2bba60	0.010481447
34	0xbcaf700f	-0.021415738
35	0xbd725355	-0.059161503
36	0x3d7bf77a	0.06151531
37	0xbd96b33f	-0.07358407
38	0x3d41b98d	0.047296096
39	0x3c88fa60	0.01672095
40	0x3cb93fb3	0.022613382
41	0x3d53a2b0	0.051668823
42	0x3da3aea8	0.079922974
43	0xbd3a8c09	-0.045543704
44	0x3d506f15	0.050887186
45	0x3d938785	0.07203583
46	0x3d8de4d3	0.069284104
47	0x3b621641	0.0034498128
48	0xbc81d539	-0.015848743
49	0xbc7a8ae9	-0.015291908
50	0x3d33b1b6	0.04387065
51	0x3d801b70	0.06255233
52	0xbd8363e9	-0.06415541
53	0xbc286267	-0.010277367
54	0x3d7221c4	0.059114233
55	0xbd2d4bb4	-0.042308524
56	0xbd8a5700	-0.06754875
57	0xbcee6e8a	-0.029105444
58	0x3da94307	0.082647376
59	0x3d4650e0	0.048416972
60	0xbd4dd51a	-0.050252058
61	0x3d87c5af	0.06629502
62	0x3da3c3ce	0.07996331
63	0x3ce75930	0.02824077
64	0x3d265aee	0.04061406
65	0x3d3e3f1b	0.0464469
66	0x3c583735	0.013196756
67	0xbd549547	-0.051900174
68	0x3c8afd9f	0.01696664
69	0xbd4c3c99	-0.049862478
70	0x3d5b8142	0.053590067
71	0xbc0d5542	-0.008626284
72	0xbd479e5e	-0.048735015
73	0xbd6bbba4	-0.057551995
74	0x3d83b4dc	0.064309806
75	0xbd3bc304	-0.04584028
76	0xbcdac220	-0.026703894
77	0xbd89fe50	-0.067379594
78	0x3d1be5ad	0.038060833
79	0xbd84ca49	-0.06483895
80	0x3d8affad	0.067870475
81	0x3d0045b2	0.031316467
82	0x3c8471bd	0.016167516
83	0x3d989829	0.07450897
84	0xbcfc3b78	-0.030790076
85	0xbd2e5960	-0.042565703
86	0x3d527eb6	0.051390372
87	0x3d604cf3	0.054760884
88	0x3dac521a	0.08414097
89	0x3d563abc	0.052302107
90	0x3d4709e6	0.048593424
91	0xbd1cabdb	-0.03824983
92	0x3d8cce86	0.06875329
93	0xbdaf682c	-0.08564791
94	0x3d0cbd6f	0.034360345
95	0x3caf1373	0.021371579
96	0x3d543964	0.051812544
97	0x3d1ff797	0.03905448
98	0xbd3a8937	-0.045541015
99	0xbd25c2cd	-0.04046898
100	0xbd4e79c9	-0.050409112
101	0xbd952908	-0.07283217
102	0x3d650b9f	0.055919286
103	0xbb9e0020	-0.0048217922
104	0x3cf19b76	0.029493075
105	0xbd94fd2d	-0.07274852
106	0x3cebdc3e	0.028791543
107	0xbc813551	-0.015772494
108	0x3cdb4c8f	0.026769904
109	0x3cb1e24f	0.021714358
110	0x3d5e2696	0.054236017
111	0x3c3c64dc	0.011498656
112	0xbce36a04	-0.027760513
113	0xbda7b286	-0.081883475
114	0xbd98c965	-0.07460288
115	0xbb0f4df4	-0.0021866532
116	0xbb91a967	-0.004445243
117	0x3d12dfa4	0.03585781
118	0xbd60bfdb	-0.054870468
119	0x3d6b12ff	0.057391163
120	0xbd0208ab	-0.031746548
121	0x3ceaa78b	0.028644344
122	0x3bf72862	0.007542656
123	0x3d3edf0e	0.04659944
124	0xba99973a	-0.0011718043
125	0xbd6a05cb	-0.05713443
126	0x3d80db0f	0.06291782
127	0x3d46749e	0.04845106

input_to_hidden.bias_hh_l1 f4 [128]
0	0x3cee2435	0.02907
1	0xbce48a2b	-0.027897915
2	0x3cf4dd34	0.029890634
3	0xbd93154e	-0.07181798
4	0x3cfc48fb	0.030796519
5	0xbcb1ad19	-0.021688985
6	0xbbb46ebb	-0.005506364
7	0x3d8da7ae	0.06916748
8	0x3d8010fe	0.06253241
9	0xbd70a4eb	-0.058751028
10	0xbd951be3	-0.072807096
11	0xbd507333	-0.050891113
12	0xbd2af24f	-0.04173499
13	0xbd91c05a	-0.07116766
14	0x3da04dba	0.07827325
15	0xbd07e124	-0.033173695
16	0x3db64191	0.088992245
17	0xbd9d5a64	-0.07683256
18	0x3b8277a2	0.0039815465
19	0xbd1c2656	-0.038122497
20	0xbd19f2cd	-0.03758507
21	0x3d328a61	0.043589
22	0xbcff606d	-0.03117391
23	0xbc9ffb6f	-0.019529073
24	0x3bc789df	0.0060894336
25	0x3d382bf7	0.044963803
26	0xbdb1c103	-0.08679392
27	0x3d543453	0.051807713
28	0xbd996a87	-0.074910216
29	0xbd924ac7	-0.07143169
30	0xbd362aaf	-0.0444743
31	0x3d20b62c	0.039236233
32	0xbd656ff2	-0.056014962
33	0xbda64816	-0.08119218
34	0x3c2547a9	0.010087886
35	0x3d93fe8f	0.072262876
36	0x3d563501	0.052296642
37	0x3b885a35	0.004161144
38	0xbd5cee0e	-0.053937964
39	0x3d9637d9	0.07334871
40	0x3cfb29a3	0.030659502
41	0x3d8ada7e	0.06779955
42	0x3c31c706	0.010850674
43	0x3d481ffe	0.048858635
44	0xbd92a7e2	-0.07160927
45	0x3c30cf4b	0.01079161
46	0x3d7d886b	0.061897676
47	0xbbc39483	-0.0059686317
48	0xbd558e30	-0.052137554
49	0xbc088d27	-0.008334435
50	0xba9159d1	-0.001108939
51	0x3d6f72bf	0.05845904
52	0x3d2f051b	0.04272948
53	0xbc3540e5	-0.011062835
54	0x3cf9009d	0.0303958
55	0x3d87f290	0.06638062
56	0x3cf7ef70	0.03026554
57	0xbbc4c6bf	-0.0060051377
58	0xbca875ad	-0.020563925
59	0xbc99d69c	-0.018779092
60	0x3ce60c18	0.028081939
61	0xbd37bab3	-0.044855785
62	0xbc94ef72	-0.018180583
63	0x3d5ebfdf	0.0543822
64	0xbd4a3d0d	-0.04937463
65	0xbc1c8d8a	-0.00955523
66	0x3cb90d6c	0.022589408
67	0xbcb042d1	-0.021516236
68	0xbcf85476	-0.030313712
69	0xbd8c4efd	-0.06851003
70	0x3da2328e	0.07919799
71	0xbcdd6f7d	-0.0270307
72	0xbd8e30fe	-0.06942938
73	0xbcc99b2c	-0.024610125
74	0x3d2e56e6	0.04256334
75	0xbc05eba2	-0.008173855
76	0x3c43d38a	0.01195229
77	0x3d4bb158	0.049729675
78	0xbc1c0bdc	-0.009524312
79	0xbcb68a7f	-0.022282837
80	0xbd8ffb35	-0.07030336
81	0xbd59bdc3	-0.053159487
82	0x3d56d804	0.052452102
83	0xbd4b6fa0	-0.049667
84	0xbd889018	-0.06668109
85	0x3d946861	0.07246471
86	0x3d3effab	0.046630543
87	0x3d9f4420	0.07776666
88	0x3c43dd25	0.01195458
89	0xbcccc29f	-0.024995146
90	0x3b368c06	0.0027854457
91	0x3d0d9f02	0.03457547
92	0x3d803cb1	0.06261576
93	0x3d1f6450	0.038914025
94	0x3d67e9fe	0.056619637
95	0x3d190293	0.03735597
96	0xbc92b66d	-0.017909253
97	0xbd984555	-0.07435099
98	0x3d901037	0.07034343
99	0xbd1b7a77	-0.03795859
100	0x3c4317c5	0.011907523
101	0x3dad953f	0.08475732
102	0xbc90da49	-0.017682211
103	0x3d9aa1c4	0.075503856
104	0x3d992ac8	0.07478863
105	0xbd70faf7	-0.05883309
106	0x3d768c20	0.060192227
107	0xbcb978b8	-0.022640571
108	0xbd50c81a	-0.05097208
109	0xbd3e8d5a	-0.046521522
110	0x3d8562e0	0.065129995
111	0xbce99b0e	-0.028516319
112	0xbd33841f	-0.043827172
113	0xbd53f828	-0.051750332
114	0x3d716870	0.05893749
115	0x3d13cac9	0.036082063
116	0xbd749286	-0.05971005
117	0xbc8fd747	-0.017558707
118	0xbd837296	-0.0641834
119	0xbd9e4999	-0.077288814
120	0x3d3a54ba	0.045490958
121	0xbce8a767	-0.028400136
122	0x3d858069	0.06518633
123	0xbd52d75c	-0.051474914
124	0xbdaabdba	-0.08336969
125	0x3d980aa2	0.07423903
126	0xbd629a81	-0.055323128
127	0x3c63a730	0.013894841

fc1.weight f4 [64, 896]
0	0x3c9eb013	0.019371068
1	0x3ce70a89	0.028203266
2	0x3d8ef095	0.06979481
3	0x3c348ea1	0.0110203335
4	0x3d94e860	0.072708845
5	0x3d051187	0.03248742
6	0x3c1347e5	0.008989309
7	0x3d46fac3	0.04857899
8	0xbc4c1b91	-0.012457744
9	0xbc0e837f	-0.008698343
10	0xbd292989	-0.041299377
11	0x3a108111	0.00055123965
12	0x3cdecee5	0.027198264
13	0xbc1d0b97	-0.009585283
14	0x3c16de3f	0.009208261
15	0x3d6820a6	0.05667176
16	0xbb12761d	-0.0022348233
17	0x3d56eb4f	0.0524705
18	0xbd8f189e	-0.06987117
19	0x3ce9902f	0.028511135
20	0x3ced9659	0.029002355
21	0xbc1901ae	-0.009338779
22	0x3cea349f	0.028589545
23	0x3c59d581	0.013295532
24	0xbd3c9b49	-0.04604653
25	0xbcadb8fb	-0.02120637
26	0x3b863483	0.0040956154
27	0xbd64a75e	-0.055823676
28	0x3d5d4e8f	0.054029997
29	0x3d2bab9b	0.041911703
30	0x3d5a0bef	0.053234037
31	0xbce3e215	-0.027817765
32	0xbd9125d5	-0.07087294
33	0x3d075c45	0.03304698
34	0x3ca3d049	0.019996779
35	0xbc81ecb5	-0.015859941
36	0x3deebc5c	0.116570204
37	0xba56b8b0	-0.0008190973
38	0xbd06e719	-0.032935236
39	0xbdbc98df	-0.09208845
40	0xbc3c8bf3	-0.011507976
41	0x3a82f0fb	0.0009990031
42	0xbcbbab84	-0.022908933
43	0xbca356c7	-0.01993884
44	0xbd5b5aba	-0.05355332
45	0x3d8b07db	0.06788608
46	0x3d048289	0.03235105
47	0xbda1d01a	-0.0790102
48	0xbdadcb35	-0.08486024
49	0xbc62b1f8	-0.013836376
50	0xbc1783b7	-0.009247712
51	0x3d7a94f7	0.06117722
52	0xbd91ce7d	-0.07119463
53	0x3d00624b	0.03134374
54	0x3c8de605	0.017321596
55	0xbd1819aa	-0.03713385
56	0x3d4aa6ac	0.049475357
57	0xbd3b19d4	-0.04567893
58	0xbd6d98ac	-0.058006927
59	0x3b9dc94b	0.0048152558
60	0xbd05dc74	-0.032680944
61	0xbc739ea8	-0.01486937
62	0x3cd135d5	0.025538364
63	0xbc45fe72	-0.01208459
64	0x3d0549a1	0.03254092
65	0xbc87fe10	-0.016600639
66	0x3ca1c212	0.01974586
67	0x3d0339a3	0.03203739
68	0xbc12beaf	-0.008956595
69	0xbbd2ac73	-0.006429249
70	0xbdc31b9d	-0.09526751
71	0xbd717053	-0.05894501
72	0xbd577ddd	-0.052610267
73	0x3d868398	0.06568068
74	0xbbcbd5da	-0.0062205615
75	0x3d497714	0.049185827
76	0x3ca84379	0.020539986
77	0xbd30e51f	-0.043187257
78	0xbd043c5e	-0.032284133
79	0xbc0f1121	-0.008732111
80	0xbd2cca2e	-0.042185
81	0xbc8bce72	-0.017066214
82	0x3cfd649c	0.030931763
83	0x3d1dd6c4	0.038534895
84	0xbc358907	-0.011080033
85	0x3cf5e128	0.03001459
86	0x3d58a920	0.052895665
87	0x3d4baa66	0.04972305
88	0xbb642168	-0.003480995
89	0x3da25abb	0.07927462
90	0xbcd8f3e9	-0.026483493
91	0xbd77ae2f	-0.06046885
92	0xbd20bc80	-0.039242268
93	0xbc0d3175	-0.0086177485
94	0x3c9b516d	0.018959725
95	0x3d1ed2cf	0.03877526
96	0x3bc5be59	0.006034654
97	0x3ccfcd27	0.025366379
98	0x3d607017	0.054794397
99	0xbccb8342	-0.024842862
100	0xbd945a7d	-0.07243822
101	0xbcaa7967	-0.020809842
102	0xbc829db9	-0.015944349
103	0x3d302a0d	0.043008853
104	0xbc910933	-0.017704582
105	0xbb042d9b	-0.0020168785
106	0xbc23b74d	-0.009992433
107	0x3ce2270d	0.027606511
108	0x3b5e515d	0.0033923008
109	0xbd68afde	-0.056808345
110	0x3d0327b7	0.032020297
111	0x3c32bb20	0.010908872
112	0x3d8faf49	0.07015855
113	0xbd50c43d	-0.050968397
114	0xbcdab436	-0.02669726
115	0xbac807ed	-0.0015261151
116	0x3bbbe2ba	0.005733815
117	0x3d55dc90	0.052212298
118	0x3d83fba1	0.06444479
119	0xbcee573b	-0.02909433
120	0xbce62372	-0.028093074
121	0xbc12329a	-0.008923197
122	0x3caae969	0.020863252
123	0x3d3e8591	0.046514098
124	0xbc5ef0ff	-0.013607263
125	0xbd9b4aa7	-0.07582598
126	0xbc73c046	-0.0148773845
127	0x3c006a11	0.007837788
128	0xbd9af6e1	-0.0756662
129	0xbc5f1b72	-0.013617383
130	0x3cfd3855	0.03091065
131	0xbd5d2c27	-0.053997185
132	0x39a926dc	0.00032263144
133	0x3be852f9	0.0070899692
134	0xbcc0c641	-0.023532035
135	0x3ca21bfd	0.019788736
136	0x3d3a06da	0.04541669
137	0xbcccb7c2	-0.024989966
138	0xbc0661ac	-0.008201998
139	0xbc72ae36	-0.014812043
140	0xbb21e030	-0.0024700277
141	0x3c6ad605	0.014333253
142	0xb97a9751	-0.00023898228
143	0x3c8875f8	0.016657814
144	0xbc3071e4	-0.010769341
145	0x3c8e72c6	0.017388713
146	0xbab44559	-0.0013753577
147	0x3c877249	0.016533988
148	0xbca80f5f	-0.020515142
149	0x3c324543	0.010880771
150	0xbd340d4b	-0.04395799
151	0x3d64240f	0.05569845
152	0x3b373f9e	0.0027961503
153	0x3d4a6de5	0.04942121
154	0xbd54e0c7	-0.051972177
155	0xbd7c57cc	-0.061607167
156	0x3c54c286	0.012985831
157	0x3aebae29	0.0017980981
158	0x3cc2bb73	0.023771023
159	0xbd3dc888	-0.04633382
160	0xbd99369b	-0.07481118
161	0xbc807133	-0.015678978
162	0xbd999caf	-0.07500588
163	0x3d7fb386	0.062427066
164	0xbd8898d9	-0.066697784
165	0x3d48b153	0.048997235
166	0xbcbf6b3a	-0.02336656
167	0x3a2b6c7e	0.0006539299
168	0x3cbefae5	0.023312995
169	0x3ce9fdc9	0.028563397
170	0x3c132273	0.008980381
171	0x3d6f8a30	0.058481395
172	0xbc56e59b	-0.013116266
173	0xbd86140a	-0.06546791
174	0x3d1bf93b	0.03807948
175	0x3c9dedf4	0.019278504
176	0xbd1f510f	-0.038895663
177	0xbe156be5	-0.1459194
178	0xbd260b62	-0.0405382
179	0x3d827057	0.063690834
180	0x3cffd626	0.031230044
181	0x3d8a1d52	0.06743874
182	0x3de4f189	0.11178882
183	0xbcc85079	-0.024452435
184	0x3c1ee188	0.0096973255
185	0x3c508965	0.01272807
186	0xbcbf27d4	-0.023334421
187	0xbc39b2c7	-0.011334128
188	0x3d85b2a5	0.06528214
189	0xbd34896f	-0.04407638
190	0xbbbd3e20	-0.005775228
191	0x3d90ffbe	0.07080029
192	0xbc9ab8cd	-0.018886948
193	0x3bccd45b	0.0062509007
194	0xbb0c45fd	-0.002140402
195	0x3d0ebde2	0.034849055
196	0xbd7d1420	-0.06178677
197	0xbcfde07b	-0.03099083
198	0x3d1e2871	0.038612787
199	0xbda9b4de	-0.08286451
200	0x3ca441c9	0.0200509
201	0x3d13fb98	0.03612861
202	0xbc67941f	-0.014134436
203	0xbdc1e80b	-0.09468087
204	0x3d26802f	0.04064959
205	0xbd6937e1	-0.056938056
206	0x3c85c879	0.016330944
207	0x3d90a48a	0.07062633
208	0xbd23ee8b	-0.040022414
209	0x3d0bfd22	0.034176953
210	0xbcc8e3e1	-0.024522724
211	0x3dc73cb9	0.09728379
212	0x3d00020a	0.031251945
213	0x3d426437	0.047458854
214	0xbd1ac462	-0.03778494
215	0xbd61a62c	-0.055090114
216	0xbc722599	-0.014779472
217	0xbd0ef4dc	-0.034901485
218	0x3dba0f4a	0.090849474
219	0xbbc49683	-0.0059993877
220	0xbd73705c	-0.059433326
221	0xbc1acc3d	-0.009448108
222	0xbd21816a	-0.03943006
223	0xbd4b60e1	-0.049652938
224	0xbc5f8ab4	-0.013643909
225	0xbcb1ff48	-0.021728173
226	0xbcb68eda	-0.022284914
227	0x3c4dd4c4	0.012562934
228	0xbcadf91d	-0.02123695
229	0xbc79d486	-0.015248423
230	0xbd1b25ec	-0.037877962
231	0x3d0d78f9	0.034539197
232	0xbd23999f	-0.039941426
233	0x3b465d69	0.003026808
234	0xbd6e9735	-0.05824967
235	0x3e235172	0.15949038
236	0x3bdff8c2	0.006835074
237	0xbd945e51	-0.07244552
238	0x3d4e2127	0.050324585
239	0xbd72e8f9	-0.05930421
240	0x3b531066	0.003220582
241	0xbcc30352	-0.023805294
242	0xbd1819a5	-0.03713383
243	0x3d594c2a	0.05305115
244	0xbc2f77b8	-0.0107096955
245	0xbca356e3	-0.019938892
246	0xbc2340bc	-0.009964164
247	0xbd3e2e2f	-0.046430763
248	0xbc834e83	-0.016028648
249	0xbd7d2c51	-0.06180984
250	0x3d1fa498	0.03897533
251	0xbc3e0cac	-0.011599701
252	0xbd147dda	-0.036252834
253	0xbd2f64ae	-0.042820625
254	0x3c22e88c	0.009943139
255	0xbd3ec008	-0.046569854

fc1.bias f4 [64]
0	0x3cdd475f	0.027011571
1	0x3bacd40b	0.005274301
2	0x3b8cd655	0.0042980113
3	0x3b18aae7	0.0023295225
4	0xbc553278	-0.013012521
5	0x3c695ecf	0.014243796
6	0x3b88f1c0	0.0041792095
7	0xbaa3c36a	-0.0012494151
8	0x3c000f25	0.007816111
9	0xbcce3b4c	-0.02517476
10	0xbc1c10ed	-0.00952552
11	0x3c69f04a	0.014278481
12	0x3cca981b	0.024730733
13	0xbacf6ed4	-0.0015825876
14	0x3cd2e728	0.02574499
15	0x3cd46edf	0.025931774
16	0x3c0f8175	0.008758892
17	0xbc667543	-0.014066043
18	0x3c96de6d	0.018416608
19	0x3cace898	0.021107003
20	0x3c0d1469	0.008610823
21	0x3bebbd14	0.0071941707
22	0xbb36fa62	-0.0027920236
23	0xbcafe563	-0.021471685
24	0x3b907e4a	0.004409586
25	0xbcaa5f1b	-0.020797303
26	0xbc350205	-0.011047845
27	0x3c2eb397	0.010662935
28	0x3b7e2480	0.003877908
29	0xbc0a544b	-0.008442949
30	0x3be48f5c	0.0069750976
31	0xbb87ed35	-0.0041481503
32	0xbc8a96cd	-0.01691761
33	0x3859e9d8	5.1954616e-05
34	0x3c8ad46c	0.016946994
35	0xbc1d6f51	-0.009609059
36	0x3cc3f7ac	0.02392181
37	0xbc8fe728	-0.017566279
38	0x3c32551e	0.010884551
39	0x3c6a87ac	0.014314573
40	0xbcb9189c	-0.022594742
41	0x3baecbca	0.005334352
42	0x3ba149d7	0.0049221325
43	0xbc2cefd4	-0.010555226
44	0xbc99708d	-0.018730426
45	0x3c0140f4	0.007889021
46	0xbce65ea4	-0.0281213
47	0x3c6def26	0.014522349
48	0xbc733cf1	-0.0148460725
49	0xbc543a58	-0.012953363
50	0x3cc0355e	0.023462947
51	0xbb5a231b	-0.0033285085
52	0xbce7b7fb	-0.02828597
53	0x3c3099d0	0.010778859
54	0xbc1612d5	-0.009159763
55	0x3c61d099	0.013782644
56	0xbb9b66df	-0.004742488
57	0x3b974bb8	0.0046171807
58	0x3c920514	0.017824687
59	0xbce29e3a	-0.027663339
60	0xbc80d49f	-0.015726386
61	0xbcb0bb95	-0.021573821
62	0xbcc2cd60	-0.023779571
63	0x3c4ce39f	0.012505441
